notebooks/lightning_logs/version_251/checkpoints/epoch=116-step=1637.ckpt (torch, 6267 bytes, 9 tensors)

exp_avg f4 [12, 6]
000000 28 98 06 bc 85 4b d4 3b 6f b9 7d bb fb 3f 0e ba
       -0.008214988 0.006478729 -0.0038715263 -0.0005426404
000010 cb 80 88 ba 21 2f 7b 3b 0c e9 e4 bb 1f d3 11 3a
       -0.001041436 0.0038327652 -0.006985789 0.00055627705
000020 3e 0a 27 bb ad 8e 04 b9 24 d1 38 b9 75 37 e4 ba
       -0.0025488283 -0.00012641652 -0.00017625518 -0.0017411547
000030 d3 14 33 bc c9 b3 01 3c de c6 52 bb bb a7 8b ba
       -0.010930258 0.007916399 -0.003216199 -0.0010654846
000040 f3 74 55 3a bc 5c 71 3b 41 94 f6 ba 4e 68 75 3a
       0.0008142732 0.0036828956 -0.0018812494 0.0009361551
000050 a1 c0 3b 3b 17 25 74 ba 81 80 f7 3a b7 c4 79 ba
       0.0028648751 -0.0009313388 0.0018882902 -0.0009527909
000060 e5 d8 b2 38 72 4a ca b8 21 31 d9 38 79 ad bd 38
       8.528101e-05 -9.645977e-05 0.00010356517 9.044534e-05
000070 14 8e d4 36 eb 83 d3 38 db 20 36 bb 2b b1 a6 3b
       6.3346324e-06 0.00010085836 -0.002779058 0.005087038
000080 85 d5 e3 b9 85 e4 df ba fd 18 4b 3a e7 02 ab b9
       -0.00043455898 -0.0017081654 0.0007747559 -0.00032617824
000090 c8 7f 37 bc 1b 1a 88 3b 8d f3 98 bb 98 64 e5 3a
       -0.011199899 0.0041535026 -0.0046677054 0.0017501293
0000a0 33 ab 85 bb cb 91 81 3a b9 10 1e ba e8 e8 11 3a
       -0.0040792464 0.0009885369 -0.00060297135 0.0005566017
0000b0 59 5d c2 b9 9b 35 9d 3a da 69 0b bb 12 c0 a4 ba
       -0.00037072113 0.0011994125 -0.002127281 -0.0012569448
0000c0 c6 b0 0f b9 5b a8 bb 3a 73 7d 25 3b f1 1c 4f 39
       -0.00013703396 0.0014317142 0.0025251776 0.0001975184
0000d0 67 83 78 ba f3 f5 07 bb d0 0a e7 39 1a 8d a2 39
       -0.00094800297 -0.0020745962 0.0004406781 0.00031004177
0000e0 f6 d6 6e 3a ef c5 de 3a 95 42 c9 ba b6 c9 e8 b9
       0.0009111011 0.0016996245 -0.0015354926 -0.00044400775
0000f0 6a 8f 24 bb 7e fd fb ba f1 9d 99 ba aa 86 09 3a
       -0.0025109896 -0.0019225327 -0.0011720044 0.0005246202
000100 94 12 24 3b be d3 15 bb 52 21 59 bc 97 9d 75 3b
       0.0025035487 -0.0022861804 -0.013252573 0.0037477964
000110 34 f7 83 ba 3d 14 de ba 78 6a ef b9 5c 2e 1a 3b
       -0.0010068179 -0.0016943287 -0.00045664958 0.0023526167

exp_avg_sq f4 [12, 6]
000000 02 69 8c 3c ee af 54 3c a8 6f 82 3b 29 31 ff 39
       0.017139915 0.012981398 0.0039805956 0.00048674017
000010 70 72 3d 3a 29 57 b2 39 ba f6 30 3b 22 47 07 3b
       0.00072268303 0.00034015745 0.002700253 0.0020641764
000020 a1 99 10 3a e8 27 13 39 3c 96 e8 38 c6 76 0e 39
       0.00055160566 0.00014033879 0.000110906054 0.00013586422
000030 8f 1c 8c 3c 8c 92 43 3c 84 d5 2d 3b bc ef d7 39
       0.017103462 0.011936795 0.002652497 0.00041186612
000040 8e f3 0c 3a bd c2 d1 39 63 ba 29 3c c9 77 07 3c
       0.00053768686 0.00040008678 0.010359379 0.008268305
000050 f5 81 82 3b 51 59 17 3a 23 c3 8d 39 87 40 e7 39
       0.0039827772 0.0005773502 0.00027039004 0.0004410783
000060 e9 ba 1a 3a a0 24 fb 39 a9 59 59 39 c3 8b 98 37
       0.00059024856 0.00047901738 0.00020728134 1.8184894e-05
000070 b3 bb 0d 38 d4 d7 2b 38 74 0b e1 3b ad c5 b5 3b
       3.3791828e-05 4.0970583e-05 0.0068678204 0.0055472464
000080 3e 2c 0d 3b 14 f8 c8 39 ee 34 9e 39 d0 f8 1c 39
       0.0021541263 0.00038331805 0.00030175544 0.00014970009
000090 d4 ef f2 3b a7 cf 9a 3b a0 92 15 3b 95 3a 54 39
       0.0074138436 0.004724461 0.002282299 0.00020239719
0000a0 25 37 0d 3a 48 9a 07 3a d3 f5 cd 3b 8c 8f 90 3b
       0.00053869403 0.0005172831 0.006285408 0.0044116434
0000b0 ee 89 68 3a ee 56 4c 39 7a de 80 39 3b 0e 32 39
       0.0008870651 0.0001948734 0.0002457982 0.00016980704
0000c0 9b 8e 32 3b 7b 55 f8 3a e9 d8 72 3a 8b 68 10 39
       0.0027245644 0.0018946374 0.00092638895 0.00013771855
0000d0 be 9b dd 38 f2 28 29 39 36 80 f0 3c 61 f2 b6 3c
       0.000105671104 0.00016132349 0.02935801 0.022332372
0000e0 4a 5d 54 3b 83 b7 8a 3a 07 81 51 3a f4 dc 3b 3a
       0.0032404237 0.0010583255 0.0007991944 0.00071664085
0000f0 38 2b 95 3c 3c 4b 73 3c 19 71 ef 3b ab 63 a0 3a
       0.018209085 0.01484948 0.0073071835 0.0012236735
000100 7f 8a 15 3a a8 2d 19 3a 80 ef da 3c 26 9c a7 3c
       0.00057045365 0.000584329 0.02672553 0.0204602
000110 a3 1e 7d 3b 13 d8 41 3a 64 4d 8c 3a b2 b1 26 3a
       0.0038622997 0.0007394563 0.0010704217 0.0006358876

exp_avg f4 [12]
000000 3b 6c 50 3c 60 34 ba 3a 0e 6a f8 3b f1 c3 06 3c
       0.012721117 0.0014206283 0.007581002 0.008225427
000010 95 f1 b3 b8 fb 39 de 3b d3 5f e4 3b 0c 3b 83 3b
       -8.580383e-05 0.006781814 0.006969431 0.0040048417
000020 75 ef df 3b 66 57 20 3c 33 0d 43 3b 14 45 1d 3c
       0.0068339654 0.009786462 0.0029762506 0.009598989

exp_avg_sq f4 [12]
000000 ea 04 aa 3b 22 64 c7 39 fd 95 d0 3b a9 82 88 3b
       0.005188574 0.00038030843 0.0063655362 0.0041659665
000010 c1 8d d4 38 3d 68 13 3b 01 e3 0c 3b ff 11 ad 3a
       0.000101353515 0.002249255 0.002149761 0.0013204216
000020 ba b5 77 3a 0f 86 7b 3b 74 15 20 3b 64 58 1d 3c
       0.00094493816 0.0038379466 0.002442685 0.0096035935

exp_avg f4 [1, 12]
000000 ba 01 81 bb 54 ba c3 bb 0c fe 99 3a 50 81 86 ba
       -0.0039369734 -0.00597314 0.0011748686 -0.0010261927
000010 00 d5 8c 37 d8 2f 37 ba 0e 95 4d bc 27 fc 89 bb
       1.6788486e-05 -0.0006988025 -0.012547744 -0.004210967
000020 c8 16 26 3a 30 44 a4 bb e7 df c6 bb bd 82 35 bc
       0.0006335792 -0.0050130114 -0.0060691717 -0.011078534

exp_avg_sq f4 [1, 12]
000000 89 ec 6c 3c bf 53 da 3a 7d 92 87 3d 96 87 05 3d
       0.014460691 0.0016657038 0.06619737 0.032600008
000010 c5 23 c0 3a 9e a2 8d 3c d8 c0 fc 3b 96 0a 81 3d
       0.0014659098 0.017289456 0.0077134185 0.06300847
000020 bd ce 2d 3d 92 b2 b6 3d ca 77 00 3d b7 04 8f 3d
       0.04243349 0.08920778 0.03136424 0.06983321

net.0.weight f4 [12, 6]
000000 93 ea 7f 3e 66 9e e9 3e 5b c8 0d 3f d2 54 83 3e
       0.24991827 0.4562866 0.55383843 0.2565065
000010 0b f7 29 3d 3e 2b 52 bc 07 15 89 3e 5e b6 ba 3e
       0.041495364 -0.012827693 0.26773855 0.3646726
000020 dd 49 02 bd 01 b4 61 3e b2 49 0b 3d ac a8 a2 3c
       -0.031808723 0.22041322 0.03400583 0.01985582
000030 1c 6b 00 3f f9 09 1d 3f 83 f3 05 3e d8 1f c4 be
       0.50163436 0.6134334 0.13081174 -0.38305545
000040 9f e0 a1 be 4c 65 38 bd 0c 75 13 bf 24 fb c5 be
       -0.31616685 -0.04501848 -0.57600474 -0.38668168
000050 60 bb 23 be 63 49 8b bd 0f 23 ae be b4 84 13 be
       -0.15989447 -0.06801107 -0.34011123 -0.14406091
000060 ba 93 ff bd ca 44 9b 3e 1f 99 5b be 56 03 00 be
       -0.124793485 0.3032592 -0.2144513 -0.12501273
000070 72 20 86 3e df 28 99 3e 68 6c 3f bf ff 67 81 be
       0.2619663 0.29913995 -0.7477479 -0.25274655
000080 0e 97 21 be 32 e8 a7 3e 25 6c be 3e 4b 21 ff 3d
       -0.15780279 0.32794338 0.37191883 0.12457522
000090 2f 2a f4 3e 2d 5f a7 3e 3a fb 0d 3f ad 83 46 bd
       0.47688434 0.326898 0.55461466 -0.04846542
0000a0 43 2e 58 be a5 f2 72 be 09 52 e7 be 6f 18 b6 be
       -0.21111397 -0.23725374 -0.45179775 -0.35565516
0000b0 cc 9b 14 bf e6 ac 47 3e c7 db 03 3e 2f a8 0b 3e
       -0.5805023 0.1949955 0.12876807 0.13638376
0000c0 25 4f 0e bf 6a ab 19 bf 93 20 8a be ac 7f 47 3e
       -0.55589515 -0.6002718 -0.26977977 0.19482297
0000d0 f3 09 a7 be 22 c8 9c be 07 b3 a2 be f6 82 e2 be
       -0.32624778 -0.3062144 -0.31777212 -0.4424054
0000e0 f8 97 3d bf c0 35 4c be 6f 10 dc 3c db 52 3b 3e
       -0.7406001 -0.19942379 0.026863305 0.18293326
0000f0 fe 23 e4 be 91 38 9e be e7 fc 2a be 8d b7 a7 be
       -0.4455871 -0.30902532 -0.16698037 -0.32757226
000100 a6 8a 74 3d 4c e9 3d bd af 74 3d 3f 3e dc e4 3e
       0.059702538 -0.046365067 0.7400617 0.4469928
000110 1e a5 85 3e 58 f6 5d bc 48 76 d4 3e f0 17 80 3e
       0.26102537 -0.013547502 0.4149649 0.25018263

net.0.bias f4 [12]
000000 20 b4 7a bd 63 f7 94 be 35 15 60 3e 3a 1e af 3d
       -0.061206937 -0.2909499 0.2188309 0.08550687
000010 8d de f5 be 60 bc dd bc af dd 81 be 9e 7c ba 3e
       -0.48021355 -0.027067363 -0.25364444 0.364232
000020 d9 c1 0e 3d 59 7d d0 3e 7d 10 d8 3e c3 05 47 3d
       0.034852836 0.40720633 0.4220008 0.04858948

net.2.weight f4 [1, 12]
000000 53 34 10 3f 06 67 b0 3e 34 3a 07 3f 71 b1 05 bf
       0.5632984 0.344536 0.52823186 -0.5222388
000010 f0 41 be bc d7 d9 0b bf 12 76 1e 3f 33 0b bc be
       -0.0232248 -0.5462927 0.6189891 -0.36727294
000020 55 3f b9 be 46 18 04 bf 16 30 09 bf 0f 05 2d 3f
       -0.3618113 -0.5159954 -0.53589 0.67585844
