notebooks/lightning_logs/version_229/checkpoints/epoch=145-step=2043.ckpt (torch, 6267 bytes, 9 tensors)

exp_avg f4 [12, 6]
0.00013115916 -0.0070864707 0.0026734371 -0.0013245392 -0.0020104207 -0.0015139128 0.00960176 0.002821985
0.0040607457 0.0008584989 0.004225906 0.00084240787 0.0002536983 -0.004992881 -0.00017476027 -0.0032946449
0.00072136126 -0.00058187946 0.0059557566 0.002528724 0.00208415 0.0012795669 0.00051669026 0.0016989307
0.0043247277 -0.00035104883 -0.00055895495 -0.00051287876 0.001244299 0.0015620777 7.689732e-06 -0.00032288447
0.00044389872 -0.00020794176 0.00012906417 0.0008887347 -0.0025180841 -0.009047882 -0.00084788934 -0.0029487838
0.00024214589 -0.0028093704 0.0027310145 0.0038952625 0.0014535206 -0.00018010772 -0.0001113812 0.00037020232
0.0017764308 -0.0009748586 0.0020779574 -0.003145564 6.132899e-05 -0.0027209977 0.00016981417 0.00018577858
-3.1113083e-05 -4.3521955e-05 -1.6122438e-05 -0.000110049645 0.0033160795 0.002797168 0.00032466266 -0.0024317729
0.0017941189 0.0018104702 0.0003258346 0.0005143927 0.0008197696 -0.00031773077 0.0005218924 0.00017097127
00000000: c587 0939 a035 e8bb d534 2f3b 299c adba
00000010: 43c1 03bb 7c6e c6ba b350 1d3c 0df1 383b
00000020: 0110 853b e30c 613a 7879 8a3b 09d5 5c3a
00000030: cf02 8539 529b a3bb da3f 37b9 f8ea 57bb
00000040: bc19 3d3a 4589 18ba 8228 c33b f3b8 253b
00000050: 3c96 083b 24b7 a73a 7f72 073a a8ae de3a
00000060: 72b6 8d3b fa0c b8b9 d586 12ba b672 06ba
00000070: bf17 a33a a1be cc3a 2603 0137 d248 a9b9
00000080: 14bb e839 f10a 5ab9 6655 0739 faf9 683a
00000090: 7106 25bb 913d 14bc e444 5eba 6240 41bb
000000a0: 8be8 7d39 6a1d 38bb d2fa 323b a947 7f3b
000000b0: 0f84 be3a 4cdb 3cb9 5495 e9b8 b717 c239
000000c0: 20d7 e83a a78d 7fba 572e 083b cf25 4ebb
000000d0: c09d 8038 c452 32bb 2510 3239 8fcd 4239
000000e0: 6b7f 02b8 588b 36b8 ac3e 87b7 74ca e6b8
000000f0: 9552 593b b150 373b 7c37 aa39 615e 1fbb
00000100: a428 eb3a 4d4d ed3a c8d4 aa39 4fd8 063a
00000110: cee5 563a 1a95 a6b9 9bcf 083a c046 3339

exp_avg_sq f4 [12, 6]
0.006971596 0.007938191 0.0014267382 0.00031588878 0.00021868049 0.0003146674 0.0019256471 0.002101256
0.000618689 0.00010270905 0.00027194573 0.00022797076 0.0026052827 0.003366488 0.00077504455 0.0002030494
0.00010147855 0.00022470052 0.0024352516 0.0028456065 0.0008559544 8.691003e-05 0.00012605694 0.00017960121
0.007089907 0.008268581 0.0016254755 0.00016546657 0.00021384007 0.0005343644 0.00089973654 0.00085673184
0.0001548861 3.235986e-05 3.227715e-05 3.6252583e-05 0.016600074 0.017304715 0.0032989345 0.0005302884
0.00031384217 0.0008589722 0.0004493753 0.00047933834 0.00011663205 1.1613223e-05 1.150461e-05 1.9355006e-05
0.008247429 0.008424794 0.0026678564 0.00029746586 0.00031645485 0.0004152652 0.0010012 0.0010034095
1.7782715e-05 1.8722456e-05 1.3009353e-05 0.00012233136 0.0059778495 0.0073304074 0.0029858868 0.00026958273
0.00023047361 0.0003025062 0.0068074884 0.00618818 0.0012206058 0.00010711043 9.696564e-05 0.000105710285
00000000: fc71 e43b 300f 023c 6401 bb3a e09d a539
00000010: 994d 6539 f2f9 a439 ff65 fc3a 3ab5 093b
00000020: 842f 223a 8065 d738 f093 8e39 6f0b 6f39
00000030: 64bd 2a3b 4ca0 5c3b 5c2c 4b3a a9e9 5439
00000040: e2d0 d438 969d 6b39 be98 1f3b 5b7d 3a3b
00000050: 2162 603a 7843 b638 272e 0439 5553 3c39
00000060: 7352 e83b f178 073c e80d d53a 1881 2d39
00000070: 423a 6039 9614 0c3a 4cdc 6b3a 4d96 603a
00000080: ec68 2239 23ba 0738 5361 0738 ea0d 1838
00000090: e1fc 873c 9ec2 8d3c f032 583b 0d03 0b3a
000000a0: 2f8b a439 a62c 613a 229a eb39 b44f fb39
000000b0: 5b98 f438 6ad6 4237 ec03 4137 8f5c a237
000000c0: 3920 073c 2608 0a3c 34d7 2e3b 31f5 9b39
000000d0: dae9 a539 f4b7 d939 b33a 833a d684 833a
000000e0: 172c 9537 2b0e 9d37 bf42 5a37 1346 0039
000000f0: d6e1 c33b ea33 f03b deae 433b c856 8d39
00000100: 4aab 7139 b299 9e39 5a11 df3b 37c6 ca3b
00000110: bcfc 9f3a 79a0 e038 085a cb38 c7b0 dd38

exp_avg f4 [12]
0.010510862 0.0072285156 0.0063566496 0.009734402 0.0032009461 -0.0010058265 0.019439708 0.0012742328
0.0048348685 5.56478e-05 0.0038925228 -0.0010239522
00000000: c035 2c3c 2fdd ec3b 714b d03b 0b7d 1f3c
00000010: f7c6 513b f0d5 83ba 0640 9f3c 2804 a73a
00000020: d16d 9e3b 5f67 6938 b219 7f3b 2236 86ba

exp_avg_sq f4 [12]
0.0039285356 0.0009259708 0.0019464508 0.0018512958 0.0022853394 0.00018634947 0.009738172 0.0001699294
0.0035183267 0.00029687278 0.0017941663 0.0008299564
00000000: f2ba 803b d9bc 723a 0d20 ff3a 2ea7 f23a
00000010: a2c5 153b ce66 4339 db8c 1f3c 132f 3239
00000020: ba93 663b 97a5 9b39 3b2a eb3a 6e91 593a

exp_avg f4 [1, 12]
0.0056979004 0.016676586 -0.0035791022 0.019303007 -0.0012008641 0.005143328 -0.009800692 0.011775097
0.011623325 -9.538518e-06 0.0046556545 0.0021959273
00000000: 74b5 ba3b 569d 883c 5f8f 6abb 5721 9e3c
00000010: 5066 9dba 5d89 a83b 1593 20bc 56ec 403c
00000020: c26f 3e3c 9f07 20b7 768e 983b 8ce9 0f3b

exp_avg_sq f4 [1, 12]
0.0886552 0.017585486 0.05120251 0.07960076 0.08572451 0.047677856 0.02957578 0.0064519625
0.14265363 0.0003360594 0.07748294 0.01574349
00000000: dc90 b53d 700f 903c b9b9 513d b905 a33d
00000010: 5590 af3d db49 433d e848 f23c fc6a d33b
00000020: cb13 123e 2131 b039 60af 9e3d 7ef8 803c

net.0.weight f4 [12, 6]
0.69585234 0.38190433 0.7732582 0.21164298 -0.34468547 -0.06981779 -0.56970596 -0.66086626
-0.5522824 0.18638757 0.4315144 -0.27352947 0.7547502 0.5673328 0.40310568 -0.14433171
-0.25020313 0.49990726 -0.903621 -0.5968274 -0.4917932 -0.05258089 -0.18175007 0.1576981
-0.48969224 -0.384941 -0.65445065 -0.16596974 -0.18130295 0.35808423 -0.054978013 -0.29196087
-0.4117355 -0.26808432 0.1552206 -0.35169795 0.72781754 0.37282583 0.34271222 0.1592534
0.3204171 -0.17208782 -0.27549624 -0.31898558 -0.00743819 0.3310657 -0.110237025 -0.008716961
0.39528185 0.76877177 0.17372592 -0.4249481 -0.0132769 -0.12425854 0.015382937 0.09947785
-0.04589956 0.021711703 0.029156005 -0.06509373 -0.7618327 -0.4149783 -0.08434407 -0.112928316
-0.17305028 -0.07618992 -0.29479346 0.13237362 -0.015035137 -0.25310934 -0.19125472 -0.2484432
00000000: 6123 323f f788 c33e 40f4 453f f0b8 583e
00000010: 9d7a b0be a1fc 8ebd 40d8 11bf 882e 29bf
00000020: 6162 0dbf 62dc 3e3e 75ef dc3e 0e0c 8cbe
00000030: 4f37 413f b93c 113f de63 ce3e b1cb 13be
00000040: a01a 80be d8f3 ff3e b553 67bf aec9 18bf
00000050: 51cc fbbe 0f5f 57bd b11c 3abe 9c7b 213e
00000060: f1b8 fabe fd16 c5be 148a 27bf f9f3 29be
00000070: 7ba7 39be d156 b73e a030 61bd e57b 95be
00000080: ffce d2be 5942 89be 26f2 1e3e c111 b4be
00000090: 4052 3a3f 07e3 be3e fa77 af3e 5313 233e
000000a0: b60d a43e ca37 30be d80d 8dbe 1452 a3be
000000b0: 0fbc f3bb 7281 a93e f3c3 e1bd 96d1 0ebc
000000c0: 6262 ca3e 3ace 443f 35e5 313e cc92 d9be
000000d0: 5b87 59bc 437b febd b708 7c3c 0bbb cb3d
000000e0: 2d01 3cbd bedc b13c 93d8 ee3c dd4f 85bd
000000f0: 7807 43bf 0978 d4be 95bc acbd f646 e7bd
00000100: 1834 31be 7609 9cbd 2bef 96be f38c 073e
00000110: ef55 76bc 8c97 81be 47d8 43be e567 7ebe

net.0.bias f4 [12]
0.24762711 -0.19135085 0.17143203 -0.067628846 0.54292774 0.40520507 -0.09124572 -0.22768575
0.695194 -0.47575963 0.46903464 0.12706052
00000000: f691 7d3e 7af1 43be e18b 2f3e fe80 8abd
00000010: 50fd 0a3f 0a77 cf3e 09df babd 7426 69be
00000020: 3cf8 313f c496 f3be 4f25 f03e 271c 023e

net.2.weight f4 [1, 12]
0.45595348 -0.5500491 0.4475285 -0.43684804 -0.4542347 -0.14220384 0.7287259 -0.19912122
0.46054468 -0.19127391 -0.4410944 -0.105489686
00000000: bc72 e93e 05d0 0cbf 7522 e53e 8caa dfbe
00000010: 7391 e8be e29d 11be c88d 3a3f 6fe6 4bbe
00000020: 83cc eb3e 4fdd 43be 20d7 e1be fa0a d8bd
