notebooks/lightning_logs/version_72/checkpoints/epoch=86-step=1217.ckpt (torch, 6267 bytes, 9 tensors)

exp_avg f4 [12, 6]
-0.0029040251 -0.0016772294 0.00028424538 0.0012546838 -0.0012521289 -0.0004983019 0.0035881195 0.004382837
0.0062297313 0.00038874004 -0.0010828407 0.0010787294 -0.00072742644 -0.0038279237 0.0006626888 -0.0018230659
0.00067721837 0.00077836646 -0.00065116474 0.0019035629 0.00096070534 -0.0016588034 0.0033569606 0.0017725112
0.001933794 0.0057130945 -0.0014438258 0.0013249697 -0.00031188558 -0.00017051474 0.00082932966 0.0020077187
0.0044395966 -0.0009008366 0.000672311 -0.00074984966 0.003293334 0.0019308369 -0.00068591384 -0.00038879894
0.0006913796 0.0010489443 -6.0922397e-05 -0.0015542543 -0.00064648926 0.0005024842 0.00013841753 7.580649e-05
-0.002299535 0.00015288612 -0.0029509526 -0.00054904405 0.00044760946 0.00012631704 -8.99795e-05 -0.0009180154
-0.00018760291 -0.0009468076 0.000608698 -0.0001207602 -0.0007419808 -0.0034526957 0.0013593936 0.0010463645
0.0019722935 0.0017545298 -0.00066853175 -0.0016328612 -0.0039221416 -0.003363145 0.0018999327 0.0036628693
00000000: 7551 3ebb 7bd6 dbba c506 9539 3474 a43a
00000010: 791e a4ba 79a0 02ba a826 6b3b e79d 8f3b
00000020: c622 cc3b cecf cb39 1bee 8dba 2764 8d3a
00000030: c3b0 3eba e7dd 7abb 4bb8 2d3a f1f3 eeba
00000040: 5b87 313a 4a0b 4c3a edb2 2aba f980 f93a
00000050: d8d7 7b3a 356c d9ba 7400 5c3b 9b53 e83a
00000060: 5c77 fd3a e934 bb3b c13e bdba 9baa ad3a
00000070: 9384 a3b9 34cc 32b9 5f67 593a ee93 033b
00000080: 097a 913b 1f26 6cba 073e 303a 8f91 44ba
00000090: fad4 573b 2314 fd3a e6ce 33ba b6d7 cbb9
000000a0: b33d 353a bb7c 893a ed86 7fb8 1fb8 cbba
000000b0: 2979 29ba 25b9 033a 2c24 1139 4dfa 9e38
000000c0: ccb3 16bb 0e50 2039 c564 41bb b9ed 0fba
000000d0: 20ad ea39 f973 0439 60b3 bcb8 f8a6 70ba
000000e0: 46b7 44b9 2f33 78ba 0891 1f3a a440 fdb8
000000f0: 7d81 42ba 9f46 62bb ae2d b23a 2b26 893a
00000100: 9841 013b 40f8 e53a 6840 2fba bb05 d6ba
00000110: 4f85 80bb 3668 5cbb 2a07 f93a c00c 703b

exp_avg_sq f4 [12, 6]
0.00022955646 0.00018983643 0.00013678476 4.44649e-05 2.765724e-05 1.5249366e-05 0.013915244 0.016396645
0.010601312 0.0007483069 0.0006847402 0.00034022017 0.0009154582 0.00076407305 0.00045328008 3.7140868e-05
5.0927734e-05 2.6929434e-05 0.007934979 0.005601339 0.003783306 0.0003506201 0.00023371963 0.0002838457
0.014304678 0.009407389 0.00891608 0.0007773839 0.001078004 0.0014162313 0.0060327863 0.0035902744
0.0030786858 0.00018425992 0.00053817366 0.00036484894 0.001604071 0.00085806067 0.00072391593 6.319525e-05
0.00014378494 0.00011777663 0.000356918 0.00019866659 0.00017204594 3.0024163e-05 2.0834234e-05 5.291542e-05
0.00024873717 0.00018736694 0.00013684813 1.2072524e-05 2.1221666e-05 1.9157893e-05 0.0005387835 0.00034481662
0.00037081112 2.5157986e-05 3.0636165e-05 2.1036889e-05 0.0027064916 0.0023180598 0.0016566883 0.00016684085
0.0001058343 9.6138276e-05 0.042016897 0.014945233 0.01544289 0.0006930289 0.0015899435 0.0019431913
00000000: 18b5 7039 d40e 4739 e16d 0f39 d37f 3a38
00000010: 7801 e837 87d7 7f37 c3fc 633c 4252 863c
00000020: 20b1 2d3c 072a 443a 2380 333a 945f b239
00000030: 5cfb 6f3a 134c 483a 39a6 ed39 b4c7 1b38
00000040: 3d9b 5538 85e6 e137 b701 023c 708b b73b
00000050: 58f1 773b 6fd3 b739 a312 7539 20d1 9439
00000060: 2b5e 6a3c 7321 1a3c c014 123c 5ac9 4b3a
00000070: d04b 8d3a d6a0 b93a aeae c53b cf4a 6b3b
00000080: c7c3 493b e535 4139 3914 0d3a 3249 bf39
00000090: b13f d23a 7aef 603a 2dc5 3d3a b187 8438
000000a0: fac4 1639 d9fe f638 b920 bb39 2851 5039
000000b0: 3b67 3439 66dc fb37 2dc5 ae37 80f1 5d38
000000c0: f068 8239 ee77 4439 e47e 0f39 198b 4a37
000000d0: 2e05 b237 43b5 a037 263d 0d3a 81c8 b439
000000e0: 6d69 c239 5d0a d337 557f 0038 6078 b037
000000f0: 655f 313b 97ea 173b 3c25 d93a 00f2 2e39
00000100: 5bf3 dd38 d89d c938 e919 2c3d dadc 743c
00000110: 2d04 7d3c 62ac 353a a765 d03a aeb2 fe3a

exp_avg f4 [12]
0.0033299392 -0.0023521862 0.0066158627 0.008466431 0.0135646025 0.012120812 0.010648682 0.00034220223
0.0027915144 0.0021322074 0.0065088514 0.0038857942
00000000: 1c3b 5a3b 2327 1abb e1c9 d83b c9b6 0a3c
00000010: 113e 5e3c 5f96 463c cf77 2e3c 9b69 b339
00000020: d7f1 363b 81bc 0b3b 3448 d53b cfa8 7e3b

exp_avg_sq f4 [12]
0.0001434699 0.0065557463 0.00078796 0.003559799 0.0043852064 0.005190303 0.0013025787 4.7739857e-05
4.955741e-05 0.00037905973 0.00093974674 0.0032657806
00000000: 6870 1639 96d1 d63b 1a8f 4e3a 844b 693b
00000010: c7b1 8f3b 6b13 aa3b 4abb aa3a 483c 4838
00000020: dddb 4f38 89bc c639 5659 763a b506 563b

exp_avg f4 [1, 12]
-0.01195204 0.0065278593 -0.0022089388 0.0072913766 -0.0007241564 0.0047769267 0.0109483 -0.0043920493
-0.005641088 -0.00011299993 0.00029839925 -0.0079732165
00000000: 7dd2 43bc a7e7 d53b d8c3 10bb 80ec ee3b
00000010: 50d5 3dba c487 9c3b 8060 333c 2eeb 8fbb
00000020: e0d8 b8bb 60fa ecb8 7872 9c39 18a2 02bc

exp_avg_sq f4 [1, 12]
0.009055907 0.089923054 0.044951025 0.05230012 0.019282576 0.074383974 0.03152205 0.0013291519
0.0029830278 0.08236791 0.009254409 0.041118395
00000000: 3a5f 143c 9429 b83d 911e 383d a738 563d
00000010: 7ef6 9d3c a056 983d 441d 013d f036 ae3a
00000020: e77e 433b 82b0 a83d ce9f 173c c36b 283d

net.0.weight f4 [12, 6]
0.5559866 0.4396391 0.46172392 0.06016197 -0.10219062 -0.021660632 0.6147535 0.2158002
0.26745865 -0.07856711 0.07179621 0.15982251 0.7287635 0.33873725 0.6296713 -0.13982867
-0.25175965 0.14289144 0.31625703 0.64499116 0.52977306 -0.014312946 0.18224175 -0.32420844
-0.72123295 -0.18701018 -0.12513028 0.021059198 0.025306849 0.20245184 -0.66847163 -0.47868997
-0.64033437 0.027013553 0.18793051 0.03343315 -0.86043453 -0.57263875 -0.40075514 -0.12399808
0.1383406 -0.44570807 -0.17911427 0.42384258 0.20964812 0.16050935 0.15588933 0.22399272
0.6155144 0.31657666 -0.026311075 -0.06620831 -0.043079983 -0.18073206 0.51701134 0.6048293
0.14333425 -0.027311506 -0.07124293 0.4320778 0.589816 0.20162188 0.21132559 0.2287359
-0.18711461 0.040301237 -0.11664976 -0.6162399 -0.391769 0.024357213 -0.20569386 0.10837613
00000000: 2355 0e3f 6018 e13e 1467 ec3e 666c 763d
00000010: 5149 d1bd a371 b1bc 7c60 1d3f bafa 5c3e
00000020: 57f0 883e cbe7 a0bd e409 933d 83a8 233e
00000030: 3f90 3a3f f86e ad3e 2332 213f 3f2f 0fbe
00000040: a4e6 80be 2252 123e 71ec a13e 241e 253f
00000050: 359f 073f d980 6abc 959d 3a3e a6fe a5be
00000060: b9a2 38bf 997f 3fbe 2722 00be 5784 ac3c
00000070: 4f50 cf3c 894f 4f3e f520 2bbf da16 f5be
00000080: f4ec 23bf 874b dd3c db70 403e 33f1 083d
00000090: 7045 5cbf 7498 12bf c72f cdbe b5f2 fdbd
000000a0: 29a9 0d3e d933 e4be bb69 37be e501 d93e
000000b0: ffad 563e 905c 243e 74a1 1f3e 595e 653e
000000c0: 5a92 1d3f 5616 a23e 538a d7bc 3998 87bd
000000d0: a374 30bd d311 39be db5a 043f 18d6 1a3f
000000e0: 37c6 123e 61bc dfbc d0e7 91bd 4d39 dd3e
000000f0: 2efe 163f f775 4e3e bc65 583e be39 6a3e
00000100: f99a 3fbe e912 253d 12e6 eebd e6c1 1dbf
00000110: f295 c8be c788 c73c 69a1 52be 4ef4 dd3d

net.0.bias f4 [12]
-0.33579433 0.6070035 0.07913557 0.21480468 0.20163034 0.16483325 -0.060797222 -0.2453862
-0.104381695 0.31505805 0.15699421 0.68955266
00000000: 3ced abbe 9564 1b3f d411 a23d c2f5 5b3e
00000010: 2f78 4e3e 0cca 283e 8206 79bd 8546 7bbe
00000020: 12c6 d5bd 4a4f a13e 17c3 203e 8686 303f

net.2.weight f4 [1, 12]
0.26022995 0.5303453 0.30415544 0.46925956 -0.6411467 -0.47379243 -0.42180887 0.17026056
0.277518 0.19072807 0.44516972 -0.6558219
00000000: dc3c 853e b6c4 073f 43ba 9b3e ca42 f03e
00000010: 3122 24bf ec94 f2be 55f7 d7be c958 2e3e
00000020: d716 8e3e 384e 433e 49ed e33e f2e3 27bf
