notebooks/lightning_logs/version_149/checkpoints/epoch=97-step=1371.ckpt (torch, 6267 bytes, 9 tensors)

exp_avg f4 [12, 6]
0	0x3ba2d8cd	0.0049696923
1	0x3b687d71	0.003547516
2	0x3b322c3b	0.0027187008
3	0xba81f398	-0.0009914516
4	0x3b19ae1f	0.0023449732
5	0x3887e52b	6.4799875e-05
6	0xbae01750	-0.0017096791
7	0x393f070b	0.00018217803
8	0x3a370e80	0.00069830567
9	0xbb00daaa	-0.0019661584
10	0xbb30d3f5	-0.0026981805
11	0xb981f258	-0.00024785358
12	0x3a8b7bea	0.0010641788
13	0x3b91f881	0.004454673
14	0xba53c181	-0.00080778456
15	0xbb36fa41	-0.002792016
16	0x3b837e83	0.004012884
17	0xbb8f97fb	-0.004382131
18	0x3bb53a50	0.005530633
19	0x3af0e295	0.0018378074
20	0x3b619b2c	0.0034424765
21	0xba2422a9	-0.0006261268
22	0xbad77a61	-0.001643967
23	0x398bf24c	0.0002669267
24	0xbb4b78ee	-0.0031047422
25	0xba5d6614	-0.0008445692
26	0x381d131d	3.7449518e-05
27	0x39693bb8	0.00022242859
28	0xba2a4c85	-0.00064963877
29	0xb9ffe9fe	-0.00048811728
30	0xbb3df2ac	-0.0028983755
31	0xbb86b72f	-0.0041111927
32	0xbba86ba8	-0.0051397868
33	0x3b839b66	0.0040163277
34	0x3a17314b	0.0005767538
35	0xbb05a3be	-0.0020391787
36	0x3b3fcc96	0.002926623
37	0xbabc463e	-0.0014364196
38	0xbaa16578	-0.0012313565
39	0xb9d405d5	-0.00040440136
40	0xbb39707b	-0.0028295803
41	0xba960d4b	-0.0011448053
42	0x3adbe4f3	0.0016776606
43	0xbb2dd6ee	-0.0026525813
44	0x3b3c940c	0.0028774766
45	0x39c2e232	0.00037171092
46	0xbb696ad4	-0.0035616653
47	0x3abf51bb	0.0014596501
48	0x3a5c189d	0.00083960016
49	0x3adb4df7	0.0016731609
50	0xbb2fa1b1	-0.0026799256
51	0x3ad953c9	0.0016580756
52	0x3ba9744d	0.005171335
53	0xbb1055ff	-0.0022023914
54	0xbb5bb516	-0.0033524684
55	0x3a98686f	0.0011627803
56	0xbb6d54f1	-0.003621396
57	0x3a04ff57	0.0005073449
58	0xba950076	-0.0011367935
59	0xba66cd5b	-0.0008804404
60	0xbb23e258	-0.0025006738
61	0x3a5b8b81	0.0008374975
62	0x39cbae7e	0.00038849184
63	0x3ae1ad07	0.0017217704
64	0xbace5f42	-0.0015744942
65	0xba300759	-0.0006714962
66	0x3c294f47	0.010333843
67	0x3bd2785a	0.0064230384
68	0x3b15ba68	0.0022846702
69	0xb9b1db74	-0.00033923576
70	0x3bcbd096	0.0062199337
71	0xbb9c5616	-0.0047710044

exp_avg_sq f4 [12, 6]
0	0x3ba0ca51	0.0049069305
1	0x3a36bf36	0.00069712417
2	0x3a191929	0.0005840236
3	0x396560e1	0.00021875232
4	0x39615515	0.00021489368
5	0x392bd52f	0.00016387248
6	0x3c1d8a51	0.009615497
7	0x3b77fe7c	0.0037840893
8	0x3b874012	0.004127511
9	0x392f093e	0.00016692744
10	0x39e1b0af	0.00043046984
11	0x3989c24a	0.00026275433
12	0x3d2e47f2	0.04254908
13	0x3c4168c5	0.011804764
14	0x3c0db323	0.008648667
15	0x3aa2685f	0.0012390724
16	0x3ac94888	0.0015356699
17	0x3a723afe	0.0009240358
18	0x3bcf2f05	0.006322744
19	0x3b0cadc8	0.0021465886
20	0x3a70d6d9	0.0009187288
21	0x395d5fa7	0.00021111836
22	0x39519f91	0.00019991236
23	0x38fc7a06	0.00012039025
24	0x38a4b6fb	7.854212e-05
25	0x37d9827b	2.5929176e-05
26	0x37a8702c	2.0079395e-05
27	0x363effaf	2.8461034e-06
28	0x366c1f54	3.5184976e-06
29	0x36155999	2.2254883e-06
30	0x3ba6892d	0.0050822706
31	0x3b0525d6	0.0020316741
32	0x3acb8fe4	0.0015530554
33	0x39d953e9	0.00041451983
34	0x39b186ac	0.0003386041
35	0x39644ee6	0.00021773166
36	0x3c4d7733	0.012540626
37	0x3bb5b664	0.0055454243
38	0x3b8fa26d	0.0043833763
39	0x3983885f	0.00025087871
40	0x39bcbe55	0.00035999963
41	0x39a6d5fd	0.0003182142
42	0x3a586167	0.000825426
43	0x3a0136f7	0.000492915
44	0x397731e8	0.00023574347
45	0x38c679e2	9.464078e-05
46	0x38c1209e	9.2090326e-05
47	0x38848a19	6.319973e-05
48	0x3d01dd40	0.03170514
49	0x3c11d2b3	0.008900332
50	0x3be680db	0.0070344037
51	0x3a465bc5	0.00075667753
52	0x3aa426a7	0.0012523726
53	0x3a074085	0.00051594555
54	0x3b8af76f	0.004240922
55	0x3aa95b5b	0.0012920903
56	0x3ac69356	0.0015150111
57	0x38caf8f6	9.678483e-05
58	0x39129cf5	0.00013982116
59	0x38f0d754	0.000114842
60	0x3b7f078b	0.0038914408
61	0x3a81a511	0.0009891113
62	0x3a922c84	0.0011152183
63	0x3895b585	7.138684e-05
64	0x393d7b9d	0.00018070494
65	0x389adb87	7.3841824e-05
66	0x3d3556f7	0.04427239
67	0x3c8ab490	0.016931802
68	0x3c4521bb	0.012031968
69	0x3b1b8153	0.0023728206
70	0x3b009fa1	0.0019626396
71	0x3a5b012e	0.0008354363

exp_avg f4 [12]
0	0x3c4f50cb	0.01265354
1	0x3bcf2638	0.0063216947
2	0x3bfdb8ec	0.0077429917
3	0xbb590310	-0.0033113398
4	0x39d0e088	0.0003984014
5	0x3b959bfe	0.004565715
6	0x3c0362c5	0.008019154
7	0xbad5d586	-0.0016314245
8	0x3b672d5c	0.003527484
9	0x3baa9dac	0.0052067842
10	0x3bbc7b03	0.005751969
11	0x3c4369cd	0.01192708

exp_avg_sq f4 [12]
0	0x3a6238fb	0.00086297066
1	0x3baf42ce	0.00534854
2	0x3c02c4bb	0.0079814745
3	0x3ad0f3f7	0.0015941848
4	0x3685e5a7	3.990444e-06
5	0x3aaec21d	0.0013332997
6	0x3bb47cee	0.005508057
7	0x399cb5eb	0.00029890178
8	0x3b7c0d74	0.0038460167
9	0x3a018e3b	0.00049421535
10	0x3a29607b	0.0006461215
11	0x3bd991c6	0.006639692

exp_avg f4 [1, 12]
0	0x3c4a616c	0.012352329
1	0x3b12a698	0.002237713
2	0x3b81b0ca	0.0039578425
3	0x3bfdb44c	0.0077424403
4	0xbbd08124	-0.006363051
5	0xbb13ab3c	-0.0022532484
6	0x39964a7d	0.00028665728
7	0x3b0b4f27	0.0021256895
8	0xbb300d94	-0.0026863562
9	0xbb51a6b7	-0.003199024
10	0xba027bdb	-0.00049775623
11	0x3b7bc4de	0.0038416903

exp_avg_sq f4 [1, 12]
0	0x3c81833f	0.015809653
1	0x3daf1fa1	0.085509546
2	0x3daa8237	0.08325618
3	0x3dc055c4	0.093913585
4	0x3a6f1c1c	0.0009121315
5	0x3b277fd8	0.0025558379
6	0x3d2e72c1	0.042589907
7	0x3b2e59db	0.002660385
8	0x3d3a4d47	0.045483854
9	0x3bcd4457	0.0062642503
10	0x3c13d763	0.00902352
11	0x3cce4506	0.025179397

net.0.weight f4 [12, 6]
0	0xbf5e5d74	-0.8686135
1	0xbec7e2f5	-0.39040342
2	0xbe828a6b	-0.2549623
3	0xbebaad93	-0.36460552
4	0xbd2983ba	-0.04138539
5	0xbd8835a8	-0.06650859
6	0x3f33c431	0.7022124
7	0x3ed0c3a5	0.40774265
8	0x3e34240c	0.17591876
9	0x3e868dbf	0.2628002
10	0xbd296b86	-0.041362308
11	0x3e5f70a3	0.21820311
12	0xbeb9cbd4	-0.3628832
13	0xbf16d7b4	-0.58922887
14	0xbea8e174	-0.32984507
15	0x3e0b7c08	0.13621533
16	0xbecfb5ea	-0.40568477
17	0x3da2b003	0.07943728
18	0x3f080389	0.53130394
19	0x3e0a9688	0.13533986
20	0x3f087663	0.53305644
21	0xbdb16210	-0.08661282
22	0xbe82aa13	-0.2552038
23	0x3c1667ba	0.009180004
24	0x3d5dcb81	0.054149155
25	0x3ef97b31	0.487268
26	0x3f005148	0.50124025
27	0xbd074619	-0.033025835
28	0x3eb8e29a	0.36110383
29	0xbd884d06	-0.06655316
30	0x3ef498d7	0.47772858
31	0x3e43d7c2	0.19125274
32	0x3e1c3e1f	0.15258072
33	0x3ecdf9fe	0.4022979
34	0x3d86a4ef	0.06574427
35	0xbe2048eb	-0.15652816
36	0x3f0d0575	0.5508645
37	0x3eff0ec2	0.49815947
38	0x3eab46ae	0.33452362
39	0xbf021a56	-0.50821435
40	0x3e244083	0.16040234
41	0x3ea3e5be	0.32011217
42	0x3ec0cea1	0.37657645
43	0xbe613f5f	-0.2199683
44	0x3e12b733	0.14327697
45	0x3e28aea3	0.16472869
46	0x3d1a360d	0.037649203
47	0xbe8c27f5	-0.27374235
48	0xbece8ac4	-0.40340245
49	0xbeb53e49	-0.35399082
50	0xbeabb575	-0.33536878
51	0xbe8fc420	-0.2807932
52	0x3e22e79a	0.15908661
53	0x3eb9421a	0.36183244
54	0x3e9dea0b	0.30842623
55	0x3f1e537f	0.61846155
56	0x3e1b0ae5	0.15140875
57	0x3d43eb59	0.047831867
58	0x3e71ccda	0.23613301
59	0xbe9f537d	-0.31118384
60	0x3e6c00a8	0.23047125
61	0x3f1ad3e8	0.60479593
62	0x3eebe18c	0.46070516
63	0xbe50e25d	-0.2039885
64	0xbe8b2d42	-0.27182966
65	0x3e156df5	0.14592727
66	0xbea1f210	-0.31629992
67	0xbf00b0b8	-0.5026965
68	0xbec1ceb2	-0.37853009
69	0x3ef7cf97	0.48400566
70	0x3e416905	0.18887718
71	0xbeb48a72	-0.35261875

net.0.bias f4 [12]
0	0xbdefca1f	-0.117084734
1	0x3ec4e54c	0.3845619
2	0x3ebbc6a2	0.36674982
3	0x3f491fb4	0.78564
4	0xbed50351	-0.41604093
5	0xbd70ad5d	-0.058759082
6	0x3d076e31	0.03306407
7	0x3ea59f80	0.3234825
8	0x3f0f6d71	0.5602637
9	0xbd828060	-0.06372142
10	0xbd5146da	-0.05109296
11	0x3e1fad9d	0.15593572

net.2.weight f4 [1, 12]
0	0xbf1ce629	-0.61288697
1	0x3edfe1ba	0.43726903
2	0xbf118d20	-0.56855965
3	0x3ec04791	0.375546
4	0x3e159263	0.14606623
5	0x3f0abe07	0.5419621
6	0x3f0226de	0.50840557
7	0x3e9a0802	0.30084234
8	0xbf0fed09	-0.5622106
9	0x3eb793cb	0.35854945
10	0x3ec0db1b	0.37667164
11	0xbf3983dd	-0.7246683
