notebooks/lightning_logs/version_202/checkpoints/epoch=96-step=1357.ckpt (torch, 6267 bytes, 9 tensors)

exp_avg f4 [12, 6]
0	0xb88ce64a	-6.718615e-05
1	0xbac97f46	-0.0015373013
2	0x3a9ed276	0.0012117166
3	0x3c00fc5c	0.007872667
4	0x3bb9e300	0.0056728125
5	0xbc95155d	-0.018198663
6	0xb6c75c46	-5.941404e-06
7	0x399bc9bb	0.00029714205
8	0x38182357	3.6272537e-05
9	0x39d3d816	0.00040406053
10	0xb9557744	-0.00020357693
11	0xb8b731f8	-8.7354274e-05
12	0xb92ba08b	-0.00016367638
13	0x3ccb9159	0.02484958
14	0x3c8bf9e0	0.017086923
15	0x3bb62409	0.005558495
16	0xbcbfca63	-0.023411935
17	0xbc16142b	-0.009160082
18	0xb68a508d	-4.122098e-06
19	0xb905605c	-0.00012719765
20	0xb9c18540	-0.00036911108
21	0xba104a62	-0.0005504248
22	0x3a79ff51	0.00095366413
23	0x396de4b7	0.00022687284
24	0x39ba0c1d	0.0003548571
25	0x3ba64edf	0.00507532
26	0x3c2d346c	0.01057158
27	0xbc6bc6c7	-0.014390654
28	0x3cb3084c	0.021854542
29	0xbc28ba49	-0.01029832
30	0xb81dd6c1	-3.7631722e-05
31	0xbc758a02	-0.014986517
32	0x3ca4dfa9	0.02012618
33	0x3b10f724	0.0022119964
34	0x3aeb2fa4	0.0017943275
35	0xbcc41c1a	-0.023939181
36	0xb91387eb	-0.00014069646
37	0x3ceb578f	0.028728275
38	0x3c2d8926	0.010591781
39	0xba856bff	-0.001017928
40	0xbc10386f	-0.008802517
41	0x3c1e5024	0.009662662
42	0xb9bd1df3	-0.00036071203
43	0x3cb0c845	0.021579871
44	0x3c1d5d8e	0.009604825
45	0x398a2af7	0.00026353422
46	0xbccb6fd3	-0.024833595
47	0x3c00c73e	0.007860003
48	0x38f59213	0.00011709719
49	0xbc697686	-0.01424945
50	0xbc01c054	-0.00791939
51	0xbc0d84f5	-0.008637656
52	0xbc769eed	-0.015052539
53	0x3bd15f3c	0.0063895267
54	0x38dbb28c	0.00010475991
55	0xbb05beb1	-0.002040785
56	0x3b803b88	0.0039133467
57	0x39dacab9	0.0004173124
58	0xba5de07a	-0.00084639306
59	0xbbb4c62c	-0.005516788
60	0x3884241b	6.300976e-05
61	0x3c2d735e	0.010586588
62	0xbb48556c	-0.0030568494
63	0x3b4a502b	0.0030870538
64	0x3a1508e8	0.0005685226
65	0x3c242f15	0.010020991
66	0xb8977364	-7.221734e-05
67	0xbc8105ff	-0.01574993
68	0x3ba9b9b5	0.0051796087
69	0x3b5ac0ab	0.0033379
70	0x3a805970	0.000979228
71	0x3b33a4d2	0.0027411473

exp_avg_sq f4 [12, 6]
0	0x35ae5d0c	1.299109e-06
1	0x3c34cb8e	0.011034859
2	0x3b3c5144	0.0028734962
3	0x3b36b38f	0.0027878021
4	0x3b4fdcfa	0.0031717406
5	0x3bb76715	0.005597005
6	0x3302b674	3.0433924e-08
7	0x3a2dde65	0.00066325656
8	0x38ed528f	0.000113164184
9	0x3741db3d	1.1554742e-05
10	0x380f51f7	3.4170193e-05
11	0x37365a42	1.086906e-05
12	0x361c8393	2.3322398e-06
13	0x3d156076	0.036468945
14	0x3cc161d2	0.023606215
15	0x3bf5ed83	0.0075051202
16	0x3c0b7054	0.008510668
17	0x3b3ba035	0.0028629426
18	0x336cf373	5.5169448e-08
19	0x39fba4f7	0.0004799736
20	0x388fb0e4	6.85172e-05
21	0x3810d013	3.452606e-05
22	0x39008af4	0.00012258795
23	0x38189f8a	3.6388206e-05
24	0x3643f81d	2.9201685e-06
25	0x3c658e57	0.014010987
26	0x3bf8af70	0.007589273
27	0x3b9dffae	0.004821739
28	0x3b8b64c0	0.0042539537
29	0x3b8dd9a1	0.004328922
30	0x36575e2c	3.2092312e-06
31	0x3c938863	0.01800937
32	0x3bd35d0e	0.006450302
33	0x3b50f4e4	0.0031884247
34	0x3b4ec717	0.0031551772
35	0x3bde78af	0.006789289
36	0x36e30fbb	6.7669584e-06
37	0x3d063cf9	0.03277299
38	0x3c75720a	0.014980802
39	0x3b96c11e	0.004600658
40	0x3bb4261c	0.005497707
41	0x3b8ffa90	0.004393883
42	0x364d364f	3.0578992e-06
43	0x3ca07f0a	0.019591827
44	0x3c05a42c	0.008156817
45	0x3b63c36f	0.0034753939
46	0x3bab2a34	0.005223537
47	0x3af8739e	0.0018955355
48	0x36a17557	4.811834e-06
49	0x3d042c88	0.03226903
50	0x3c488f8a	0.012241254
51	0x3ba5d637	0.005060937
52	0x3c0441b6	0.008072307
53	0x3bb96d3a	0.005658773
54	0x343dd4e7	1.767945e-07
55	0x39e2af01	0.00043236467
56	0x39395f00	0.00017678365
57	0x39d1a783	0.00039988392
58	0x390ef049	0.00013631688
59	0x3a34ea71	0.00069013896
60	0x35909d37	1.0774592e-06
61	0x3c136306	0.008995777
62	0x3b48a249	0.0030614308
63	0x3b75083c	0.0037388941
64	0x3b49cc05	0.003079177
65	0x3ad03951	0.0015886222
66	0x36931bd0	4.384179e-06
67	0x3c8fa1e3	0.017533248
68	0x3bef2e02	0.0072991857
69	0x3b8286fc	0.0039833765
70	0x3b86abfd	0.004109858
71	0x3b084924	0.0020795548

exp_avg f4 [12]
0	0x3b67ea40	0.0035387427
1	0x39a411dd	0.00031293827
2	0x3c0d3eee	0.008620961
3	0x3963a917	0.00021711398
4	0xbc991d03	-0.018690592
5	0x3b01e5e8	0.0019820873
6	0x3bf2d48c	0.0074105915
7	0x3c9ba3bd	0.018998975
8	0xbbca19a4	-0.0061676074
9	0xbbb4ce8a	-0.0055177854
10	0xbb597fcc	-0.0033187745
11	0x3b794848	0.0038037468

exp_avg_sq f4 [12]
0	0x3b6c3118	0.0036040004
1	0x38b11013	8.443012e-05
2	0x3bd40375	0.0064701387
3	0x39207c85	0.00015305176
4	0x3c04babc	0.008101162
5	0x3c11de3d	0.008903083
6	0x3c99c9c1	0.018772962
7	0x3c0afd62	0.008483263
8	0x3c5ab5e1	0.013349027
9	0x3a009290	0.0004904652
10	0x3b43e4c1	0.0029890987
11	0x3c4745e9	0.012162664

exp_avg f4 [1, 12]
0	0xbc27a30c	-0.0102317445
1	0xbc0cfd3b	-0.008605297
2	0x3cf756da	0.030192781
3	0xbb12469d	-0.002231992
4	0xbd457481	-0.04820681
5	0xbd089614	-0.03334625
6	0x3d1907ca	0.037360944
7	0x3d07dc66	0.033169173
8	0xbc872335	-0.01649628
9	0xbc63866c	-0.013887029
10	0x3c8fa3d4	0.017534174
11	0xbc600558	-0.013673149

exp_avg_sq f4 [1, 12]
0	0x3dd3c9ef	0.1034125
1	0x3b8a2703	0.0042160763
2	0x3deefb51	0.116690286
3	0x3aa12046	0.0012292943
4	0x3e5820ba	0.21106234
5	0x3d6c8587	0.05774453
6	0x3d8a8537	0.0676369
7	0x3de09a0f	0.10966884
8	0x3caeac7c	0.021322481
9	0x3bd0c11c	0.0063706767
10	0x3ce65182	0.028115038
11	0x3d793f5c	0.06085144

net.0.weight f4 [12, 6]
0	0xbea5f322	-0.32412058
1	0x3eede60b	0.4646457
2	0x3f26d606	0.65170324
3	0xbe726da0	-0.23674631
4	0x3e1179ee	0.14206669
5	0x3e914f2f	0.28380725
6	0x3e99ffa8	0.30077863
7	0x3e8e9e90	0.2785535
8	0xbede1210	-0.43373156
9	0x3d4e2917	0.050332155
10	0xbe751b2a	-0.23936144
11	0x3e3defab	0.18548457
12	0xbe347394	-0.17622215
13	0xbf4b7515	-0.7947553
14	0xbc739677	-0.014867417
15	0xbc9084a0	-0.017641366
16	0x3de92ba5	0.11385278
17	0x3dc229ef	0.094806544
18	0x3dd9b845	0.1063085
19	0x3e3bb02e	0.18328926
20	0xbe42c1e7	-0.1901928
21	0xbd793946	-0.060845636
22	0x3e33682d	0.17520209
23	0xbe53d637	-0.20687185
24	0xbf25144d	-0.644841
25	0x3f32bec1	0.6982232
26	0x3e90de81	0.28294757
27	0x3e836694	0.25664198
28	0xbeb0586c	-0.3444246
29	0xbc287a7c	-0.010283109
30	0xbf3d45d1	-0.73934656
31	0x3f08fe5b	0.53513116
32	0x3de89f5b	0.1135852
33	0xbe381838	-0.17977989
34	0x3e5a9f93	0.21349935
35	0x3f04403b	0.5166051
36	0xbe981232	-0.29701382
37	0xbf58776b	-0.8455722
38	0xbe9db4fa	-0.30802137
39	0xbddf987f	-0.10917758
40	0x3c888086	0.016662847
41	0x3e8a51ff	0.27015683
42	0xbda9aa91	-0.08284486
43	0xbf3ae192	-0.73000443
44	0xbf16316f	-0.5866918
45	0x3e9e4ccf	0.30917975
46	0xbcc92d1e	-0.024557646
47	0x3e0c66d2	0.13711098
48	0xbf0209cb	-0.5079619
49	0x3f3252a8	0.69657373
50	0x3e2187ac	0.15774411
51	0xbdb81801	-0.089889534
52	0xbd5edec7	-0.054411676
53	0xbea6c71d	-0.32573786
54	0xbeefa358	-0.4680431
55	0x3e97d884	0.29657376
56	0x3dc87a61	0.09788967
57	0x3e272641	0.16323186
58	0x3d71f9ec	0.059076235
59	0x3e962df8	0.29331946
60	0xbe7efb34	-0.24900514
61	0xbeacea0a	-0.33772308
62	0xbec864bf	-0.39139363
63	0xbd009065	-0.031387705
64	0xbd2a2487	-0.04153874
65	0xbe567b7a	-0.2094554
66	0xbea920b4	-0.33032763
67	0x3f2db72d	0.6785763
68	0x3f00c8ee	0.50306594
69	0x3e30c47e	0.17262456
70	0x3e4ccbd6	0.19999632
71	0xbe8ff6e9	-0.28118065

net.0.bias f4 [12]
0	0x3f190984	0.59780145
1	0xbe1d79fe	-0.15378568
2	0x3f41c291	0.7568751
3	0xbefa377c	-0.48870456
4	0x3f5e8269	0.8691774
5	0x3e99672a	0.2996152
6	0xbc935323	-0.017983979
7	0x3e11332f	0.14179681
8	0x3d837f7b	0.06420799
9	0x3dc896b4	0.09794369
10	0x3f550117	0.8320479
11	0x3e01fadf	0.12693356

net.2.weight f4 [1, 12]
0	0x3ec654c6	0.38736552
1	0xbbfc78de	-0.007704838
2	0xbf103d10	-0.56343174
3	0xbd2cd211	-0.042192522
4	0x3ededebc	0.43529308
5	0x3f05fff2	0.52343667
6	0xbf2b4518	-0.66902304
7	0xbf01ddb7	-0.50728935
8	0x3f3acc06	0.72967565
9	0x3e30c81e	0.17263839
10	0xbed4d6bc	-0.4157008
11	0x3f0d1580	0.5511093
