notebooks/lightning_logs/version_66/checkpoints/epoch=130-step=1833.ckpt (torch, 6267 bytes, 9 tensors)

exp_avg f4 [12, 6]
0	0xbb925e33	-0.004466796
1	0xbb925e33	-0.004466796
2	0x3b2f5f8b	0.002675983
3	0xba815f01	-0.0009870232
4	0xba516b10	-0.0007988671
5	0x3803d9c3	3.143564e-05
6	0xbbd08a6c	-0.0063641574
7	0xbbd08a6c	-0.0063641574
8	0x3a14566d	0.00056586304
9	0xbb30518a	-0.002690407
10	0xbadf1538	-0.0017019873
11	0xba933dcb	-0.0011233626
12	0xb9216796	-0.00015392745
13	0xb9216796	-0.00015392745
14	0x3a4557c1	0.000752803
15	0x3a3739e9	0.0006989525
16	0xbb242152	-0.0025044275
17	0x3ab0362f	0.0013443882
18	0x39c148b9	0.0003686601
19	0x39c148b9	0.0003686601
20	0xb937b301	-0.00017518924
21	0x39584747	0.00020625918
22	0x38a21f1f	7.730559e-05
23	0x38d4cddc	0.00010147292
24	0x3b1ed4e6	0.0024235784
25	0x3b1ed4e6	0.0024235784
26	0x3aa34724	0.0012457115
27	0xbae4e887	-0.0017464318
28	0x3ba492cf	0.0050223838
29	0x39611ecd	0.00021469146
30	0x3b8c0666	0.0042732237
31	0x3b8c0666	0.0042732237
32	0x3b16585a	0.0022940845
33	0xba2f9299	-0.0006697565
34	0x3b06bb1c	0.0020558303
35	0xbb095b5f	-0.0020959002
36	0xbb864c6f	-0.004098467
37	0xbb864c6f	-0.004098467
38	0x3b09aa4c	0.0021006046
39	0xbafd2f90	-0.0019316543
40	0xbb3c3dcc	-0.0028723357
41	0xba85f073	-0.0010218754
42	0xbbc87699	-0.0061176536
43	0xbbc87699	-0.0061176536
44	0x3b894be0	0.004189953
45	0x3b35be21	0.0027731734
46	0x3b157e83	0.0022811003
47	0x3a96239d	0.0011454705
48	0x3b316483	0.0027067966
49	0x3b316483	0.0027067966
50	0xbb2de8ee	-0.0026536542
51	0x3b306e16	0.0026921085
52	0x3b92234a	0.004459773
53	0x3a874277	0.0010319491
54	0x3abc9086	0.0014386333
55	0x3abc9086	0.0014386333
56	0x3a4ce620	0.0007816274
57	0x38dcb41e	0.00010523967
58	0xb86197a2	-5.37854e-05
59	0x3a6e1d09	0.0009083306
60	0x3b144d4c	0.002262908
61	0x3b144d4c	0.002262908
62	0xbb4f3a03	-0.003162027
63	0xbaab314c	-0.0013060956
64	0x3b05f1c5	0.0020438295
65	0xbabc7fa3	-0.00143813
66	0x3b1f99ae	0.0024353075
67	0x3b1f99ae	0.0024353075
68	0x39e0686b	0.00042802407
69	0x398fe9fc	0.00027449417
70	0x3a43ff8c	0.0007476739
71	0x3a886bf7	0.0010408153

exp_avg_sq f4 [12, 6]
0	0x3c8de42f	0.01732072
1	0x3c8de42f	0.01732072
2	0x3acaa998	0.001546192
3	0x3a1da2e5	0.0006013348
4	0x39a1a599	0.00030831693
5	0x398eefc5	0.00027262993
6	0x3c9f6ba9	0.019460516
7	0x3c9f6ba9	0.019460516
8	0x3aa3a9e7	0.0012486548
9	0x39c937bf	0.00038379242
10	0x39ce3812	0.00039333157
11	0x39dfa9ca	0.00042660377
12	0x3c2a337f	0.010388254
13	0x3c2a337f	0.010388254
14	0x3a0fcb2e	0.0005485293
15	0x39dc4388	0.00042011985
16	0x392d908a	0.0001655241
17	0x392e4012	0.00016617801
18	0x3b3373eb	0.0027382325
19	0x3b3373eb	0.0027382325
20	0x38bbdba0	8.957763e-05
21	0x37ed6991	2.830176e-05
22	0x392ff66f	0.00016781104
23	0x387fab0a	6.095603e-05
24	0x3d3f4760	0.046698928
25	0x3d3f4760	0.046698928
26	0x3b2be2b5	0.0026227657
27	0x3a7d6522	0.0009666254
28	0x3a557c6b	0.0008143845
29	0x3a4765a1	0.00076063914
30	0x3c208b5d	0.009798852
31	0x3c208b5d	0.009798852
32	0x3a80f446	0.0009838424
33	0x3968a108	0.00022185233
34	0x3a125bc4	0.0005583132
35	0x392bb017	0.0001637343
36	0x3d66534e	0.05623179
37	0x3d66534e	0.05623179
38	0x3bb89b25	0.005633729
39	0x3acfb714	0.0015847408
40	0x3ada9f3d	0.0016679537
41	0x3a222f95	0.00061869
42	0x3b9927f0	0.0046739504
43	0x3b9927f0	0.0046739504
44	0x3a112eb5	0.0005538271
45	0x396d002b	0.00022602144
46	0x390c2c00	0.00013367832
47	0x38b5c740	8.667866e-05
48	0x3c474cbe	0.012164293
49	0x3c474cbe	0.012164293
50	0x39eac56f	0.00044779057
51	0x3990f2a3	0.000276466
52	0x39d62538	0.0004084499
53	0x3993a22f	0.0002815886
54	0x3ad9d83b	0.0016620228
55	0x3ad9d83b	0.0016620228
56	0x3905a335	0.00012744668
57	0x373698a6	1.0883587e-05
58	0x37fc5df5	3.0084493e-05
59	0x381bd956	3.715729e-05
60	0x3d0d4071	0.034485284
61	0x3d0d4071	0.034485284
62	0x3b0de366	0.0021650433
63	0x3a0b9b60	0.0005325582
64	0x39e68f45	0.00043975763
65	0x39a1fc4c	0.0003089629
66	0x3b87b51a	0.004141462
67	0x3b87b51a	0.004141462
68	0x39682222	0.0002213796
69	0x3921bd30	0.00015424634
70	0x392f6446	0.00016726655
71	0x391ddbbf	0.00015054549

exp_avg f4 [12]
0	0x3c7006e8	0.014650084
1	0x3c83e9a0	0.016102612
2	0x3b9dd86e	0.00481706
3	0x38c1afe7	9.2357215e-05
4	0x3c8034d1	0.015650185
5	0x3bc1bd82	0.0059124837
6	0x3be425ca	0.0069625126
7	0x3bd42672	0.0064743096
8	0x3ba13551	0.004919686
9	0x3a2f5de7	0.0006689713
10	0x3addbe46	0.0016917668
11	0x3c040234	0.008057166

exp_avg_sq f4 [12]
0	0x3b8d4d9a	0.0043122293
1	0x3bccd436	0.0062508835
2	0x3b4628b5	0.0030236666
3	0x3a88b9d2	0.0010431355
4	0x3c1527bd	0.009103713
5	0x3ae2fb83	0.0017317388
6	0x3c32eb07	0.010920293
7	0x3af42927	0.0018627987
8	0x3b2b316b	0.0026121985
9	0x3a330b9d	0.00068300386
10	0x3ab6359f	0.0013901478
11	0x3aa4788e	0.0012548135

exp_avg f4 [1, 12]
0	0xbbf6e12c	-0.007534167
1	0xbb37af29	-0.0028027988
2	0x3c3d6e70	0.011561975
3	0xba8b5b09	-0.0010631989
4	0xba62381c	-0.0008629577
5	0x3c0d3274	0.008617986
6	0xba817a58	-0.000987838
7	0xbc456984	-0.012049083
8	0x3a49c828	0.0007697367
9	0x3bd20b8c	0.006410068
10	0xbb2f7e7c	-0.0026778271
11	0x3b99e4be	0.0046964576

exp_avg_sq f4 [1, 12]
0	0x3cb9f969	0.022701936
1	0x3d7f677d	0.062354553
2	0x3e14a179	0.14514722
3	0x3c2da6c9	0.010598847
4	0x3d46e5fd	0.048559178
5	0x3c124136	0.00892668
6	0x3d21653d	0.03940319
7	0x3cb1d6aa	0.021708805
8	0x3d7044f4	0.05865951
9	0x3c868656	0.016421478
10	0x3cb7ad6e	0.022421565
11	0x3ceeb1db	0.029137542

net.0.weight f4 [12, 6]
0	0x3de5a804	0.11213687
1	0x3f38f555	0.72249347
2	0x3f27351c	0.65315413
3	0x3eb4351c	0.3519677
4	0x3e1f5125	0.15558298
5	0xbe111756	-0.14169058
6	0x3f345c66	0.7045349
7	0x3e2e7597	0.17037044
8	0x3f1153bd	0.567684
9	0xbefa68ba	-0.48908025
10	0xbe4b515f	-0.1985526
11	0x3da3100f	0.07962047
12	0x3f390d34	0.7228577
13	0x3e5a1845	0.2129832
14	0x3e8d3bfb	0.27584824
15	0xbc8ec3c4	-0.017427333
16	0xbf07a387	-0.529839
17	0x3e32f14d	0.17474861
18	0x3d98f395	0.074683346
19	0x3e0ef88f	0.13962005
20	0xbd942f5d	-0.07235596
21	0xbd3a6671	-0.045507852
22	0x3e5aa485	0.21351822
23	0xbdd7b2ad	-0.105321266
24	0xbe296ad5	-0.1654466
25	0xbf1d23e4	-0.6138289
26	0xbf20c928	-0.6280694
27	0x3e89e250	0.26930475
28	0x3e901e43	0.28148088
29	0xbdd56065	-0.104187764
30	0xbdf743ef	-0.12073504
31	0xbf4cecf1	-0.80049044
32	0xbdbddac1	-0.092702396
33	0xbe16ca4d	-0.14725609
34	0xbe3fd1e8	-0.18732417
35	0xbd1c062a	-0.038091816
36	0x3e361f23	0.17785315
37	0x3f080ef8	0.5314784
38	0xbe04be93	-0.12963323
39	0x3d24dfdb	0.040252548
40	0x3e36d5b9	0.17854966
41	0xbda074e7	-0.07834797
42	0x3f67e53b	0.9058415
43	0x3e7b023b	0.2451257
44	0x3e4d62a8	0.20057166
45	0xbd119044	-0.035537973
46	0x3e14ebe8	0.14543116
47	0x3deb8753	0.115004204
48	0xbf15cbf4	-0.5851433
49	0xbeb0bf67	-0.34521028
50	0xbec66efa	-0.38756543
51	0xbe8ca9db	-0.2747334
52	0xbd2d6511	-0.042332713
53	0x3e56dbaf	0.2098224
54	0xbe98ed74	-0.29868662
55	0xbde91a93	-0.11382022
56	0x3d910fa0	0.07083058
57	0x3d0d263a	0.034460284
58	0x3d2527dd	0.04032122
59	0x3da4a939	0.08040089
60	0xbd841612	-0.06449522
61	0xbec301d7	-0.3808734
62	0xbf091fc2	-0.53564084
63	0xbeaa8ed2	-0.33312088
64	0xbe865944	-0.2623998
65	0x3dbcccf5	0.0921878
66	0xbec1f4cb	-0.37882075
67	0xbf4aa744	-0.7916148
68	0xbdbd8cd6	-0.09255378
69	0x3eb20ff1	0.34777787
70	0x3c79eab9	0.015253716
71	0xbdddb279	-0.108250566

net.0.bias f4 [12]
0	0xbe2dd55a	-0.16975918
1	0x3e0717b0	0.1319263
2	0x3f19680a	0.59924376
3	0xbef69f2a	-0.48168308
4	0x3e17576d	0.14779444
5	0xbe6798a2	-0.22616819
6	0x3ed9cff4	0.42541468
7	0xbd9efe81	-0.077633865
8	0x3ebd3615	0.36955324
9	0xbe89dda0	-0.269269
10	0x3eea40bf	0.45752522
11	0x3d968033	0.07348671

net.2.weight f4 [1, 12]
0	0x3f2710cb	0.6526
1	0x3f0b33bf	0.54375833
2	0x3ec76cb5	0.38950124
3	0xbd286a0a	-0.04111675
4	0xbf2fb2ca	-0.68632185
5	0xbf287bc1	-0.65813833
6	0x3f3a55ca	0.72787154
7	0x3f0630fc	0.52418494
8	0xbef4792b	-0.47748694
9	0xbdcdc982	-0.100482
10	0xbeebb8f9	-0.4603956
11	0xbef89c0c	-0.48556554
