notebooks/lightning_logs/version_34/checkpoints/epoch=121-step=1707.ckpt (torch, 6267 bytes, 9 tensors)

exp_avg f4 [12, 6]
00000000: b319 9d3b 2933 04bb 4594 053a 196d 8bba
00000010: 7667 be39 655d d83a c7c3 863b e640 293b
00000020: 468e a83a 3a7c 1f39 8b86 9a3a da2c 873a
00000030: c04b 40bb cff4 9ebb f9ee 53bb 48fb 8aba
00000040: 0d0a 12ba ff7d 2cb8 8669 c23b 1ce1 ceba
00000050: 576f f4ba a7e2 34bb 0685 0d3b a834 cd3a
00000060: bd02 24b9 bf36 8bbb 9cc3 57ba 45c2 423a
00000070: 097f 3a3b 11ce b43a 94ed 14bb 006b 4bba
00000080: 533c a93a 9d1d 7639 c079 b9b9 0afa 5239
00000090: 0a46 bbba 9d01 c8ba 18bb e5ba fb41 8fb8
000000a0: aa61 693a 429b c23a 3343 65b8 d87c 243b
000000b0: 87eb 913b d1fd b239 89f6 683b 11cd 97b9
000000c0: dabc 073b d711 443a 335b bd3a 39ec c93a
000000d0: ffaa 59ba b38a 833a 19bc 6f3a 117e a83a
000000e0: b76b 10ba ac96 6e3a 4847 11ba fe61 3e3a
000000f0: 202e 0b3c 9444 283b ede2 ebb9 f936 7738
00000100: b099 c93a 60fa 00ba bc27 4a3c cb8b 6a3b
00000110: f8b6 53ba e378 aa3a cb9b e0ba a822 ee39
0.0047943234 -0.0020172095 0.0005095641 -0.0010637372 0.00036316708 0.0016507326 0.004112694 0.0025826036
0.0012859784 0.000152097 0.0011789365 0.001031305 -0.0029342026 -0.004850961 -0.0032338484 -0.0010603452
-0.00055709557 -4.112534e-05 0.0059329895 -0.001578364 -0.0018648905 -0.0027600916 0.002159418 0.0015655952
-0.00015641279 -0.0042484696 -0.0008230747 0.0007429461 0.0028457067 0.0013794323 -0.0022724615 -0.00077597797
0.0012911655 0.0002347142 -0.0003537666 0.00020120307 -0.0014287841 -0.001525927 -0.0017527072 -6.831061e-05
0.00089027977 0.0014847296 -5.466044e-05 0.0025098827 0.004453126 0.00034139914 0.0035547337 -0.0002895375
0.002071193 0.0007479465 0.0014446735 0.0015405483 -0.00083033735 0.0010035842 0.0009145155 0.0012854954
-0.0005509215 0.00091014314 -0.0005541933 0.0007262527 0.008494884 0.0025675641 -0.00044991766 5.8940586e-05
0.0015380885 -0.0004920121 0.012338575 0.003578889 -0.00080762757 0.0013005998 -0.0017136274 0.00045420718

exp_avg_sq f4 [12, 6]
00000000: 6d57 273c cf43 cd3b 8f1e 263a 0c53 ab39
00000010: a9b4 a239 12bf 7739 fc0c 153a 51dd bf39
00000020: cf4e a538 5f78 8237 2c97 f537 8801 a237
00000030: 42a7 a73a b68d 3b3a de0f 3a39 8a0a 9238
00000040: 2de1 fc37 476e 3038 02f7 d53c 3a15 6a3c
00000050: 705a d53a d16f 313a 4d0e e439 ff61 ea39
00000060: 27d5 bd3a dbb3 473a 5863 d338 3612 3d38
00000070: f291 8838 5809 5d38 55aa c13c 1172 393c
00000080: 7be2 623b 8d35 e439 9ed1 353a 99ab fb39
00000090: 7898 883a f1e7 1d3a d15f 8538 60ab 1538
000000a0: dc5e 3a38 4fe1 8238 e0ba 3b3c ad1d e73b
000000b0: 4844 733a c0b3 6e39 5538 af39 6207 b039
000000c0: bfbd 9d3b e620 e73a 1ffe 9a39 ffec bf38
000000d0: 0c49 0e39 05f7 db38 360b c63a 56ee 2c3a
000000e0: da7a fe38 6d37 9138 8666 1539 2c44 4038
000000f0: 4e19 433c 7a0e 063c d5a2 843a c730 3039
00000100: e1e3 ca39 8afc 9a39 8d52 9e3c e842 213c
00000110: 2271 c43a 69d7 aa39 191a c539 a950 ad39
0.010213715 0.006264187 0.0006336951 0.00032677536 0.0003103365 0.00023626935 0.0005685834 0.00036595252
7.882492e-05 1.555326e-05 2.927667e-05 1.9312618e-05 0.0012790936 0.00071546005 0.00017744253 6.9637856e-05
3.0145597e-05 4.2064374e-05 0.026118759 0.014287287 0.0016277563 0.0006768676 0.00043498204 0.0004470497
0.001448308 0.0007618048 0.00010079768 4.507807e-05 6.51217e-05 5.2699208e-05 0.023640791 0.011318699
0.0034619856 0.00043527447 0.00069358374 0.000480023 0.0010421416 0.00060236367 6.3597814e-05 3.5683974e-05
4.44342e-05 6.24085e-05 0.011458129 0.007053098 0.0009279889 0.00022764411 0.00033420572 0.00033574837
0.0048138793 0.0017633706 0.00029562504 9.151734e-05 0.00013569387 0.00010488745 0.0015109542 0.0006596794
0.00012134547 6.924463e-05 0.0001424794 4.5839857e-05 0.011907889 0.008182162 0.0010119329 0.00016802839
0.00038698225 0.00029561325 0.019326473 0.009842612 0.001498733 0.0003258542 0.00037594212 0.00033057228

exp_avg f4 [12]
00000000: 68b4 5a3b a03d d138 8625 d23a acaa 813b
00000010: 652c a13b d275 213b 1e20 123c cae6 403c
00000020: 392c 973b 65ca a63b 0075 4437 78f7 a13b
0.003337169 9.977375e-05 0.0016032911 0.0039571133 0.0049186223 0.0024636877 0.00891879 0.011773774
0.004613426 0.0050900453 1.1709752e-05 0.0049428307

exp_avg_sq f4 [12]
00000000: b1d7 753b a3cc 4438 2cf0 1f39 3d8e 663b
00000010: 7379 cb39 6784 503b 9540 eb39 e1eb a53b
00000020: 2131 dc39 a9bc c639 5346 133b 3ee8 b73a
0.0037512595 4.6920624e-05 0.00015252893 0.0035179995 0.00038809664 0.00318172 0.0004487081 0.0050635193
0.00041998274 0.00037906066 0.0022472336 0.0014031006

exp_avg f4 [1, 12]
00000000: aeb5 4a3c d5b8 823b a013 8ebb 5485 b2ba
00000010: 3f91 07bc 7b3e a7bb 5d14 39bc 64ca d4ba
00000020: 5391 a73a c47c a23a 664a 063c 7edd 953b
0.012372417 0.003989319 -0.0043358356 -0.0013620057 -0.008274375 -0.005103884 -0.011296359 -0.0016234634
0.0012784399 0.0012396802 0.008196449 0.004573523

exp_avg_sq f4 [1, 12]
00000000: ea7f 183e 3c84 573a 3434 243b 3635 ea3c
00000010: 2965 0a3c 8db4 2e3d 750d 493c 9df9 d93d
00000020: 801d ec3b abcf 9f3c 3f95 a23c 1580 a03b
0.14892545 0.00082213036 0.002505553 0.028589826 0.00844697 0.042652655 0.012271275 0.10643313
0.007205665 0.019508203 0.019846557 0.004898081

net.0.weight f4 [12, 6]
00000000: 268f 333f a320 e13e f75b fc3e 196d 463e
00000010: 4904 373e 72c4 c33e 01ff 7a3c 8619 d9be
00000020: 7120 b9be 8b8f 48be b8d5 d13e 1bb6 783d
00000030: f14c 323f 01b6 bdbd 8a04 25bd 1256 563e
00000040: 3c4a 80be b31a 66be 4850 2f3e a0e1 093f
00000050: d61d 0f3f b740 233e 0aab a9be 9e6e ccbd
00000060: b03a d93e eae9 113f 278a 333f e67e fe3c
00000070: 273e 843e 8d72 19be 90cb dfbe d2b0 dcbe
00000080: 6482 853d ecc5 aa3c dc5c 92be 1baa ff3b
00000090: a0ed 163f 46c0 363f 8659 8b3d 6cff 10be
000000a0: 3018 233e f316 4e3e 6ed0 48bf 8273 b0be
000000b0: 3f88 05bf 49a2 9d3e 413c 8d3c a9fa f33c
000000c0: b4f2 37be 89b1 16bf e801 69be b49b bdbc
000000d0: f33f afbd ebde e6be a6b7 66bf bea6 25be
000000e0: 937a 4abe c193 98be a595 c23e d395 433e
000000f0: a4fe 023f a113 b43c 02fa 253e ce95 c3be
00000100: 43ce 36bd e561 12be 0ae0 1abe a64d f7be
00000110: c1ff 16bf 6f06 ccbd e929 0bbe bc7e 9a3d
0.701403 0.43970212 0.49288914 0.19377555 0.17872728 0.38235813 0.015319587 -0.42402285
-0.36157563 -0.19586007 0.40983367 0.060720544 0.69648653 -0.0926323 -0.040287532 0.2093127
-0.25056636 -0.22471122 0.17120469 0.538599 0.559049 0.15942656 -0.33138305 -0.09982036
0.42427588 0.5699755 0.7013268 0.03106637 0.25828668 -0.14985104 -0.43709993 -0.43103653
0.06519011 0.02084633 -0.2858647 0.0078022606 0.58956337 0.71387136 0.068041846 -0.14159936
0.15927196 0.20125942 -0.7844304 -0.34463125 -0.5216102 0.30787876 0.017240645 0.02978261
-0.17963678 -0.5886465 -0.22754633 -0.023145534 -0.08557119 -0.45091948 -0.90123975 -0.16176888
-0.19773321 -0.29800227 0.38004795 0.19100122 0.511698 0.021982016 0.16208652 -0.3820023
-0.0446303 -0.14295156 -0.15124527 -0.4830143 -0.58984 -0.099621646 -0.13590206 0.07543704

net.0.bias f4 [12]
00000000: 7365 173f 5d77 8ebe ea65 d0bd 2342 b43e
00000010: a3c0 59be e799 0f3f fb85 afbe e60d a33e
00000020: bec1 673e e959 143e 1dd9 083f 2728 173b
0.59139174 -0.27825442 -0.101756886 0.35206708 -0.21264891 0.5609421 -0.34281906 0.3184654
0.226325 0.14487423 0.5345629 0.0023064704

net.2.weight f4 [1, 12]
00000000: 20e7 d63e dff3 7fbe 751d c73e ab25 143f
00000010: 8e45 db3e 4ab7 11bf df1e d23e 3715 f9be
00000020: 546f c8be 43d1 d3be d4fc 063f 8290 24bf
0.4197321 -0.24995373 0.3888966 0.57869977 0.42826504 -0.569203 0.41039178 -0.48648998
-0.39147437 -0.41370592 0.52729535 -0.64283
