notebooks/lightning_logs/version_59/checkpoints/epoch=98-step=1385.ckpt (torch, 6267 bytes, 9 tensors)

exp_avg f4 [12, 6]
00000000: 0941 6d39 1c94 b23b 8d50 973c 7a24 133a
00000010: ed44 563c d090 90bb 21ef c4b9 1f00 dcba
00000020: 4c44 c1bb 89cb 193b b166 4fbc 9473 03b9
00000030: 0a45 43b9 0a44 94bb d258 3bbb c250 13bc
00000040: 6921 69ba c89c eabb 106f f338 ed75 a13b
00000050: 07d2 00bb 6281 2c3b 2695 733b 3172 613b
00000060: 9ba8 d7b7 d6bb 223c 42a1 bd3b 9ad0 efba
00000070: 6eec ba3b fcdf 8abc fea7 8b39 b2b1 973b
00000080: 79fe 993c ac4f d53a dbdb 803c 2486 12bc
00000090: 564c acb9 5f87 1b3b f2da 60bc 8377 57bc
000000a0: 6c1a 103c 68ce 49bb 9d91 3db9 d100 81ba
000000b0: f741 26bb daaf 39ba 155a 543b 8d0c e03a
000000c0: a749 58b9 9543 ab3b ecf2 553b caf4 8abb
000000d0: 7647 b1ba 8027 76bc d38d e139 0509 28bb
000000e0: f476 0ebc d272 9d3b 7253 aa3a fed9 4cbc
000000f0: 76d4 6eb9 aaeb aaba cb30 0cbb 64b8 c5ba
00000100: f413 f73a f8ad b3bb 8061 93b9 08bc 81bb
00000110: c080 2c3a 6ebb c53b 9cb3 48bb 85c7 fdbb
0.00022626309 0.005449785 0.018471027 0.00056130404 0.013077957 -0.0044117942 -0.00037562198 -0.0016784704
-0.005898034 0.0023467264 -0.012658761 -0.0001253619 -0.00018622368 -0.0045247125 -0.0028586877 -0.008991422
-0.0008893223 -0.007159803 0.0001160783 0.004927388 -0.0019656436 0.0026322235 0.0037167757 0.0034400339
-2.570851e-05 0.009932479 0.0057870457 -0.0018296421 0.005704454 -0.016952507 0.0002663731 0.004629337
0.0187981 0.0016274354 0.015729835 -0.008943114 -0.0003286327 0.002373181 -0.013724076 -0.013151052
0.008795362 -0.0030793194 -0.0001807869 -0.0009842162 -0.0025368908 -0.0007083394 0.0032402326 0.0017093584
-0.00020626803 0.0052265623 0.0032646013 -0.004240607 -0.0013525325 -0.015024066 0.00043021012 -0.0025640142
-0.008695353 0.0048049474 0.0012994839 -0.012503145 -0.00022776597 -0.0013040204 -0.0021391388 -0.001508486
0.0018850551 -0.005483385 -0.00028110668 -0.0039591826 0.00065804645 0.0060343063 -0.0030624634 -0.007744732

exp_avg_sq f4 [12, 6]
00000000: 28fe 3636 76f7 a33c df37 063c 77be b23a
00000010: eb0d d03b e466 a93a 8e1f 1f36 8c94 d03c
00000020: e614 253c e9ac ea3a b6a5 7c3b 8df1 d33a
00000030: f335 b635 8209 cb3c 9600 573b e359 b63a
00000040: 0923 093b 0683 b03a c5db a434 0f8a d23a
00000050: 450b c939 a5cd 3f3a fadf 633a bdc1 f939
00000060: b0b0 9435 7898 9e3c 7b04 c23b 2e0d d13a
00000070: f221 813b 5f61 8b3b 14df 0a36 6130 7a3c
00000080: 946c f73b d88b a43a c5e9 ba3b 729e 6f3a
00000090: 63cf 0836 b7cf 853c 79a7 b93b 1f07 ef3a
000000a0: bb3e 763b d4c8 913a 9af0 8934 dc21 d63a
000000b0: 0873 393a 87f8 8739 ab0d ea39 651d 7139
000000c0: 226f 0836 23cd a73c ef85 b63b 7d72 0c3b
000000d0: 4a2a 413b c6c4 593b 5160 3536 9c8c a13c
000000e0: d12f dc3b 16c1 c63a 446c 493b bc24 013b
000000f0: 7e12 7135 d4f4 0f3c 8997 223b 4673 5e3a
00000100: e1bf 923a 983c cd3a 6fbe 9535 36b6 0c3c
00000110: d808 303b da02 9f3a b17e d93a c302 9b3a
2.7268052e-06 0.02001546 0.008192032 0.0013637085 0.0063493154 0.001292434 2.3711214e-06 0.025461458
0.010075783 0.0017904314 0.003855092 0.001617001 1.3575758e-06 0.024784807 0.0032806746 0.0013912286
0.0020925424 0.0013466782 3.0707284e-07 0.0016062873 0.00038346104 0.0007316715 0.0008692738 0.00047637327
1.1078282e-06 0.019359812 0.0059209443 0.0015949362 0.003940814 0.004253551 2.069345e-06 0.0152703235
0.0075507853 0.0012553884 0.005704137 0.00091407367 2.0386294e-06 0.016334398 0.0056657162 0.0018236375
0.0037574011 0.0011122474 2.56933e-07 0.0016336995 0.0007074331 0.00025934374 0.0004464214 0.00022994501
2.0330267e-06 0.020483559 0.0055701653 0.0021430545 0.002947467 0.0033228858 2.7027165e-06 0.019720368
0.0067195673 0.0015163745 0.0030734697 0.0019705733 8.9806406e-07 0.008786399 0.002480956 0.0008485805
0.00111961 0.0015658317 1.1156789e-06 0.008588364 0.002686074 0.0012131587 0.0016593543 0.0011826385

exp_avg f4 [12]
00000000: 5da8 8abc ee2f e63c e23d 643c f244 0ebc
00000010: 0013 fc3a e13c a3bc 3664 c93c 0b94 5d3c
00000020: 04cf 7c3c e5d1 03bd 2494 8b3c 4844 ac3c
-0.016925985 0.028099027 0.01393077 -0.00868343 0.0019231737 -0.01992649 0.024583917 0.013524066
0.015430216 -0.032182593 0.017038412 0.021028653

exp_avg_sq f4 [12]
00000000: 3102 7a3c c965 593c a0f0 f83b 983b e13a
00000010: ad24 cb3b 96ba 3d3c a9e9 3a3c bf74 bc3a
00000020: 2066 3a3c accc 773c d2ad a43b 3795 cc3b
0.015259312 0.013268896 0.007597044 0.0017183898 0.0061994405 0.01158013 0.011408248 0.0014378055
0.011376888 0.015124481 0.005025604 0.0062433737

exp_avg f4 [1, 12]
00000000: 8cd6 0f3d 0e02 073d 401a ba3a 06aa 163c
00000010: 6ae2 b93c d6c7 333d a52b b83c d651 863c
00000020: 8129 b43c 720f 483d 760c a03c 0063 47b9
0.035116717 0.032960944 0.0014198497 0.00919581 0.02269097 0.04389175 0.022481749 0.016396444
0.021992447 0.048842855 0.019537192 -0.00019014999

exp_avg_sq f4 [1, 12]
00000000: dda9 ca3d 2de2 b03d 545a 853e a846 363c
00000010: 8be0 ae3c 11f9 5a3d 95f0 2b3d c2fc b43d
00000020: a0fe e33c 47d5 a23e 7d83 1a3e 088e 1d3d
0.0989568 0.086368896 0.26045477 0.011125244 0.021347305 0.053460184 0.041977484 0.08837272
0.027831376 0.31803343 0.15089221 0.03846553

net.0.weight f4 [12, 6]
00000000: 5fba 1ebf bb00 65bf 86e6 b2be 5704 66be
00000010: 8fab cfbe 4eac 39be 859a 4cbd 9ced 163f
00000020: 100f ae3d 021d b9bd 4fa9 833d 44fe b83d
00000030: f920 3cbe 1e2a 3d3f 7c01 4f3f ca6d 87bc
00000040: 5240 8a3e 1d44 4a3e 473c b6be f3a4 30bf
00000050: 3136 b73d 5843 4b3e 3b3d ab3e 6b1c 17bd
00000060: 8f57 05bf 5667 eabe c0a5 ccbe 2932 01be
00000070: 22c7 413e c78d f03e 1633 c8be 21f8 c9be
00000080: f768 1dbf 0429 763e 9100 94be 4f77 4bbe
00000090: 194b 2cbe 9cc9 e53e fe40 623e 3926 8cbd
000000a0: 3664 6bbe acea 47be ef9d 323d 91ee 0a3f
000000b0: aaa4 3f3e 3132 41be b854 bebe 8a59 9cbe
000000c0: a7b3 88be ece0 e43e 455a 143e f481 873d
000000d0: 725b 783d 383c d6bd ef27 ebbe ef12 69bf
000000e0: 6ec1 8ebd 682f 1e3c e1a8 593e b308 5fbd
000000f0: 2a80 8e3c aad8 583f 3fc1 493e cf9d 2f3e
00000100: 254f 953d 2f05 4cbd 510d d2be 7a22 353f
00000110: fe66 293e c1eb 5a3e 7158 00be 8c14 b43e
-0.6200313 -0.8945424 -0.349415 -0.22462593 -0.40560576 -0.18132135 -0.04995205 0.58956313
0.08498967 -0.09038736 0.064287774 0.09032872 -0.18371953 0.7389239 0.8086164 -0.016531844
0.27002198 0.19752546 -0.35592863 -0.6900169 0.08945883 0.19849908 0.33445153 -0.036892336
-0.5208673 -0.45781964 -0.39970207 -0.12616791 0.1892362 0.46983168 -0.39101475 -0.3944712
-0.6148829 0.24039084 -0.28906682 -0.19869731 -0.16825522 0.44880378 0.22095105 -0.06843228
-0.22987446 -0.19523114 0.04360765 0.54270273 0.18715158 -0.18866803 -0.3717401 -0.30537063
-0.26699564 0.44702852 0.1448756 0.066165835 0.060634084 -0.104607046 -0.45928904 -0.91044515
-0.069704875 0.009654857 0.21255828 -0.054451656 0.017395098 0.84705603 0.19702624 0.17150043
0.07290486 -0.04980963 -0.41025785 0.7075573 0.16543195 0.21378995 -0.12533738 0.35171926

net.0.bias f4 [12]
00000000: dc74 243e 8b61 243f 7ae3 0d3f 934a 073e
00000010: df6b 613d 525f ad3e da14 053f 8e65 d93e
00000020: 63b1 fd3e 11f1 593f 6386 003f 2e0b 2a3e
0.16060203 0.6421134 0.55425227 0.13212042 0.055034515 0.33861786 0.5198494 0.42460293
0.49549398 0.85133463 0.5020506 0.16605827

net.2.weight f4 [1, 12]
00000000: 7fd2 08bf 42fb f13e 3bd1 e53e 1a99 acbe
00000010: 6b80 16bf 81bd 03bf e4f5 ec3e b6fe 443e
00000020: 26e5 083f 4388 f7be b7b1 bc3e 6e69 e83e
-0.5344619 0.47262007 0.44886193 -0.33710557 -0.587897 -0.51461035 0.4628135 0.1923779
0.5347465 -0.48346147 0.36854336 0.45392936
