notebooks/lightning_logs/version_180/checkpoints/epoch=67-step=951.ckpt (torch, 6267 bytes, 9 tensors)

exp_avg f4 [12, 6]
-0.0003809416 -0.0071554547 -0.00831242 0.0042807297 -0.005176577 -0.012721464 0.00046090133 0.015326855
-0.028589554 0.0011389396 -0.016405335 0.01122805 -0.0008886013 -0.014183256 0.011727425 0.0064980965
0.02758837 -0.011889334 0.0009094641 0.030766353 -0.036340103 0.0033836854 -0.026086902 -0.0050003314
-0.0013881733 -0.03023436 0.04925985 0.018254243 0.034094766 -0.018745521 -0.00088957394 0.0072663776
-0.036619145 -0.016494026 -0.0038502647 -0.008024306 -0.00054266606 -0.022118164 -0.00023461552 -0.015949676
0.03717613 -0.014239389 0.0008316035 0.017480705 -0.0030147235 0.011525002 0.0031264573 -0.0066411607
-0.0005669148 -0.0054135057 0.0039593643 -0.0003361244 0.014077129 0.0037955835 0.000442978 0.018207617
-0.015119859 0.0057470193 -0.02977561 0.016088504 9.46529e-05 0.0016147469 0.003435277 0.0013648181
0.0008835472 -0.0010903226 -0.0004933434 -0.030182648 -0.0066783875 -0.00061471947 0.02547496 -0.0005821758
00000000: 1eb9 c7b9 4e78 eabb d130 08bc 5d45 8c3b
00000010: 46a0 a9bb b06d 50bc 21a5 f139 7d1d 7b3c
00000020: a434 eabc 7948 953a 7b64 86bc dbf5 373c
00000030: 06f1 68ba e360 68bc 6324 403c fced d43b
00000040: 0101 e23c 7bcb 42bc 1a69 6e3a b809 fc3c
00000050: 5cd9 14bd d2c0 5d3b 33b4 d5bc d2d9 a3bb
00000060: 5ef3 b5ba 0cae f7bc b2c4 493d ec89 953c
00000070: f4a6 0b3d 3590 99bc 4c32 69ba cb1a ee3b
00000080: f5fd 15bd 7b1e 87bc b954 7cbb 6178 03bc
00000090: b441 0eba 2731 b5bc 2003 76b9 e5a8 82bc
000000a0: ff45 183d 544c 69bc f7ff 593a b233 8f3c
000000b0: ab92 45bb 5dd3 3c3c 40e5 4c3b 189e d9bb
000000c0: 029d 14ba c763 b1bb 8ebd 813b da39 b0b9
000000d0: c2a3 663c 53bf 783b 803f e839 2428 953c
000000e0: 49b9 77bc 7e51 bc3b fbeb f3bc 0acc 833c
000000f0: 6480 c638 eaa5 d33a 6222 613b b2e3 b23a
00000100: d99d 673a 28e9 8eba b753 01ba 9a41 f7bc
00000110: 60d6 dabb 2025 21ba ddb0 d03c 289d 18ba

exp_avg_sq f4 [12, 6]
3.4528216e-07 0.00031535243 0.00026217327 0.00021157428 0.00024599052 0.00035283205 7.883222e-06 0.015851565
0.008403432 0.0034903653 0.003496937 0.002415475 1.0132922e-05 0.0141456975 0.007219879 0.0019192771
0.007822116 0.0025929129 1.3864979e-05 0.031963024 0.014556015 0.0071728644 0.0045842007 0.00732219
3.478767e-05 0.05815649 0.03460405 0.003963741 0.0107954135 0.004880019 9.015717e-06 0.04988703
0.009913846 0.0056653772 0.004633061 0.006859519 8.246338e-06 0.013588516 0.0045627058 0.002819477
0.008273102 0.0023165613 9.45436e-06 0.016991757 0.0064719985 0.004089649 0.0020826517 0.0063021844
4.3952464e-06 0.0064471047 0.0048221806 0.0007601545 0.0035294066 0.0022571995 2.17625e-06 0.014909569
0.0070420736 0.0023272473 0.0047552325 0.0014607429 2.3373884e-06 0.008611143 0.0027008269 0.00019141473
0.00029690893 0.00036257302 3.6149931e-06 0.01636324 0.0043966305 0.002906099 0.0035364288 0.002488679
00000000: 385f b934 e355 a539 4d74 8939 0ada 5d39
00000010: 4af8 8039 51fc b839 2e42 0437 24db 813c
00000020: 8cae 093c 9dbe 643b de2c 653b f24c 1e3b
00000030: 9200 2a37 5bc3 673c bc94 ec3b 4190 fb3a
00000040: 5528 003c dced 293b a29d 6837 a9eb 023d
00000050: 5a7c 6e3c 590a eb3b 1037 963b fbee ef3b
00000060: fae8 1138 8035 6e3d fabc 0d3d 45e2 813b
00000070: 3fdf 303c 91e8 9f3b 3642 1737 5856 4c3d
00000080: af6d 223c a1a4 b93b efd0 973b d1c5 e03b
00000090: c159 0a37 5ea2 5e3c c082 953b fac6 383b
000000a0: e88b 073c 73d1 173b 2b9e 1e37 4c32 8b3c
000000b0: 0f13 d43b 7602 863b 197d 083b 8e82 ce3b
000000c0: e17a 9336 3c42 d33b 6203 9e3b 1b45 473a
000000d0: 9e4d 673b 86ed 133b b10b 1236 4447 743c
000000e0: 32c1 e63b bb84 183b c8d1 9b3b 6676 bf3a
000000f0: 07dc 1c36 c015 0d3c 5b00 313b 80b6 4839
00000100: 71aa 9b39 ba17 be39 1c99 7236 340c 863c
00000110: 9c11 903b 4074 3e3b 6ec3 673b 1b19 233b

exp_avg f4 [12]
-0.011888621 0.01438404 -0.027731923 0.028383028 -0.04332283 -0.027762285 -0.016935805 0.025953114
-0.017692577 0.013824685 0.0029539766 -0.015396511
00000000: 7ec8 42bc 09ab 6b3c 0f2e e3bc 8683 e83c
00000010: 4873 31bd bb6d e3bc f5bc 8abc a09b d43c
00000020: 06f0 90bc ee80 623c 8197 413b a641 7cbc

exp_avg_sq f4 [12]
0.0003362952 0.007678032 0.009869165 0.0135041 0.03388216 0.008781064 0.008031698 0.009208283
0.0042808447 0.0021196064 0.0022765493 0.003520904
00000000: c750 b039 0098 fb3b 47b2 213c 4d40 5d3c
00000010: 05c8 0a3d 74de 0f3c 6297 033c 57de 163c
00000020: 5446 8c3b 18e9 0a3b 2932 153b f8be 663b

exp_avg f4 [1, 12]
-0.014364235 -0.015195183 -0.035079874 0.0029287562 -0.063032374 -0.077123754 -0.03480362 0.023771208
-0.008578241 -0.058293782 0.0006926161 -0.031069126
00000000: f857 6bbc 38f5 78bc eaaf 0fbd 60f0 3f3b
00000010: 1e17 81bd 0ff3 9dbd 3e8e 0ebd d6bb c23c
00000020: c08b 0cbc 76c5 6ebd ae90 353a ae84 febc

exp_avg_sq f4 [1, 12]
0.0013329734 0.31590247 0.036981933 0.051324174 0.12635837 0.10222267 0.061188523 0.06591192
0.007903648 0.03962372 0.032663904 0.010107927
00000000: 2ab7 ae3a f8bd a13e 5e7a 173d 4c39 523d
00000010: 1764 013e 1f5a d13d d1a0 7a3d d4fc 863d
00000020: 4d7e 013c 7b4c 223d 96ca 053d b89b 253c

net.0.weight f4 [12, 6]
-0.17762715 0.22457737 0.03476427 0.26588124 0.4274237 0.25092378 0.5404285 -0.8578468
-0.3237361 0.10792537 0.11444951 -0.014066284 0.1859396 0.54850566 0.31186193 0.28702316
-0.16804273 0.12385531 0.49154747 -0.6377484 -0.27959225 0.39026847 0.14611405 -0.11489587
0.61715096 0.71902573 0.072499596 0.0017436562 -0.08852439 0.11201921 0.40913185 0.33743656
0.586578 0.19285756 0.17351754 -0.23660754 0.8376519 0.8208462 0.105184264 -0.30753434
-0.024542201 -0.09887778 0.14160727 -0.88642234 -0.28451723 -0.36894172 -0.11424889 -0.11832895
0.16229162 0.36816993 -0.13238822 0.059146326 -0.04673208 -0.39189988 0.06672921 -0.091965206
-0.73013604 -0.3275472 -0.11579286 0.29351747 -0.4506619 0.064774066 0.17392701 -0.37023267
-0.07740712 -0.19770153 0.6275195 0.28870767 0.54241383 -0.3235458 -0.097727776 0.12581642
00000000: e4e3 35be 9cf7 653e fb64 0e3d 9621 883e
00000010: 47d7 da3e 1579 803e 8659 0a3f d99b 5bbf
00000020: bdc0 a5be fa07 dd3d 8164 ea3d 4576 66bc
00000030: f366 3e3e de6a 0c3f 5eac 9f3e b3f4 923e
00000040: 6513 2cbe daa7 fd3d 1cac fb3e 7b43 23bf
00000050: b726 8fbe 45d1 c73e ec9e 153e 874e ebbd
00000060: 9bfd 1d3f 1212 383f ab7a 943d 658b e43a
00000070: 464c b5bd 546a e53d bb79 d13e 7cc4 ac3e
00000080: fa29 163f 747c 453e 95ae 313e 3f49 72be
00000090: 5b70 563f fa22 523f d96a d73d 2475 9dbe
000000a0: ba0c c9bc 6f80 cabd 7f01 113e 93ec 62bf
000000b0: 3eac 91be eee5 bcbe 52fb e9bd 7356 f2bd
000000c0: c62f 263e c580 bc3e c790 07be 6b43 723d
000000d0: 236a 3fbd 1aa7 c8be 53a9 883d 4158 bcbd
000000e0: 32ea 3abf 44b4 a7be cf24 edbd ec47 963e
000000f0: 28bd e6be 44a8 843d ec19 323e 238f bdbe
00000100: a087 9ebd 4572 4abe 1ea5 203f 7ed1 933e
00000110: a2db 0a3f cca7 a5be 8025 c8bd 05d6 003e

net.0.bias f4 [12]
-0.19707611 0.8067259 0.2903147 0.31449848 0.39251897 0.688168 0.18875062 0.18284488
-0.09836192 0.24284798 -0.12182233 -0.02152917
00000000: 52ce 49be 9785 4e3f 21a4 943e f205 a13e
00000010: 3ff8 c83e c72b 303f d847 413e b03b 3b3e
00000020: f971 c9bd 24ad 783e fc7d f9bd f15d b0bc

net.2.weight f4 [1, 12]
0.2568647 -0.4033006 0.47086015 -0.6455412 0.65017277 0.5232416 0.4694489 -0.56866187
0.3495159 -0.32748237 -0.081099875 0.47065136
00000000: c583 833e 6b7d cebe 9514 f13e 3042 25bf
00000010: b971 263f 29f3 053f 9b5b f03e d393 11bf
00000020: bff3 b23e c5ab a7be b117 a6bd 37f9 f03e
