notebooks/lightning_logs/version_63/checkpoints/epoch=130-step=1833.ckpt (torch, 6267 bytes, 9 tensors)

exp_avg f4 [12, 6]
000000 1d fe c2 b8 fa d7 f3 bc 91 89 8e bb eb 51 f3 3b
       -9.297973e-05 -0.029766072 -0.0043498953 0.007425537
000010 f8 5b 8c 3c 75 0a 26 bc e6 13 e8 37 30 58 76 bc
       0.017133698 -0.010134329 2.7665821e-05 -0.015035674
000020 1b c5 fd bb 8e 07 5f 3c c7 fa 0b 3b 72 8b 7a bc
       -0.007744444 0.013612641 0.0021359192 -0.015292035
000030 f8 17 7d b9 ca b5 80 bb 7a fe a2 bb 49 70 b3 3b
       -0.00024136889 -0.003927921 -0.0049741836 0.005476032
000040 46 13 2e bc 3f ad dd 3b f4 98 bf 38 84 5a a2 3b
       -0.010624712 0.0067650373 9.1360795e-05 0.004954638
000050 bf 32 6c 3b 0a f2 05 bc b9 6c 9a 3b 89 2d e3 3b
       0.003604099 -0.008175382 0.004712668 0.0069329184
000060 91 b1 a5 b8 79 bc 9d bc 1f c8 2a bb a2 10 0b 3c
       -7.9008874e-05 -0.01925491 -0.0026059223 0.008487852
000070 f1 61 63 3c 82 68 ef bb 01 7c c8 38 a5 e6 62 ba
       0.0138783315 -0.0073061595 9.559841e-05 -0.00086555845
000080 ca d2 64 bc dc a4 5e bc 96 8a 3d 3a f4 ea b4 3a
       -0.013966272 -0.01358911 0.0007230429 0.0013802932
000090 fe 12 2b 39 35 c1 82 3b 36 04 dd bb a9 57 c3 bb
       0.00016314906 0.003990317 -0.0067448867 -0.0059613776
0000a0 f7 ca c6 3a 2f 47 1c bc d4 38 c3 38 e8 39 a7 ba
       0.0015166689 -0.009538456 9.30891e-05 -0.0012758346
0000b0 df a4 83 bb 57 91 86 bc 56 6e 9a 3c ed f5 4e b9
       -0.004017457 -0.016426725 0.01885144 -0.00019737305
0000c0 9e ef bc 38 58 6b 16 3b 5c fe dd bb 76 80 4e bc
       9.009171e-05 0.0022952165 -0.0067747068 -0.01260387
0000d0 26 90 5e 3c 25 e9 9d 3b fb ad 23 b9 82 71 07 bc
       0.013584172 0.0048190528 -0.00015609704 -0.008266808
0000e0 77 cf 50 3b 14 69 77 3c 71 f7 06 3c 39 6b 4d bc
       0.003186194 0.015100736 0.008237706 -0.012537771
0000f0 6a e9 36 b8 b2 90 fe bc ed ad 14 3b 5c 1b 6c 3b
       -4.3609565e-05 -0.031074855 0.0022686676 0.003602705
000100 ee 3a 58 3c 38 44 48 3b c6 9c 0a 39 ed 0a 17 3b
       0.013197644 0.003055824 0.00013219108 0.0023047284
000110 df 52 0b bc d7 35 cf bb fd 52 1f 3b dc 70 b9 ba
       -0.008503645 -0.006323557 0.002431094 -0.0014148015

exp_avg_sq f4 [12, 6]
000000 1c 67 e7 34 d9 4f c0 3c 89 03 28 3b f8 ef 30 3b
       4.3102125e-07 0.023475574 0.0025636873 0.0026998501
000010 02 9d 55 3b cd 10 e9 3a 42 aa b3 34 50 e6 55 3c
       0.0032594805 0.0017781496 3.3465227e-07 0.013055399
000020 1b e0 e6 3a cd 71 0f 3b 64 00 91 3a 17 e5 da 3a
       0.0017614396 0.00218879 0.0011062738 0.0016700354
000030 ba 32 39 35 7a d6 90 3c 41 35 4b 3b f0 db 0a 3b
       6.899169e-07 0.017680395 0.0031007084 0.0021188222
000040 07 7a 14 3b 64 d6 5e 3b 4b 30 36 34 4a 12 0a 3c
       0.0022655742 0.0034002298 1.696764e-07 0.008427212
000050 fb 42 10 3b bf 65 bc 3a 4a 60 c3 3a 3c fd 9e 3a
       0.002201258 0.0014373584 0.0014906016 0.0012129913
000060 20 a5 c9 34 03 05 61 3c 3c 33 09 3b c9 82 18 3b
       3.7559312e-07 0.013734105 0.002093508 0.0023271313
000070 11 38 ad 3a 7e 56 ba 3a be 91 10 35 b7 88 d3 3c
       0.0013215562 0.001421645 5.3856263e-07 0.025822027
000080 d5 09 b9 3b 67 cf 81 3b b9 13 cd 3a d1 db a9 3a
       0.005646924 0.003961492 0.0015646137 0.0012959187
000090 df 64 1a 34 37 70 aa 3b 24 53 b5 3a a1 41 88 3a
       1.4379064e-07 0.0052013653 0.0013833982 0.0010395536
0000a0 c1 3d 6b 3a 50 ee ed 3a 4b 9e 16 35 28 a8 dc 3c
       0.00089737406 0.0018152688 5.61097e-07 0.026935652
0000b0 b1 e1 8a 3b 0f 75 66 3b 4e 41 81 3b cd 8c 99 3a
       0.0042383303 0.0035164987 0.0039445525 0.0011714936
0000c0 42 5e 21 34 f1 71 e9 3b d9 61 f4 3a 0b 51 f4 3a
       1.5028584e-07 0.0071241786 0.0018644884 0.0018639875
0000d0 1d 37 28 3b a3 37 0c 3a cf 9c 1b 35 10 56 ae 3c
       0.0025667616 0.00053488667 5.7970186e-07 0.021281272
0000e0 2e ce 61 3b 9e 5c 57 3b bf 8b b7 3a e5 4b 15 3b
       0.0034455168 0.00328616 0.001400344 0.0022780832
0000f0 37 2f cf 34 e5 a0 d2 3c 96 80 34 3b e7 da c2 3a
       3.8591108e-07 0.025711486 0.0027542464 0.0014866263
000100 6d 2d 02 3b a7 6f b4 3a 68 a7 8d 34 96 3f 96 3c
       0.0019863502 0.0013766185 2.63851e-07 0.018340867
000110 8f 07 52 3b d1 be e8 3a ce 0e 78 3a fc d2 80 3a
       0.0032047962 0.0017757063 0.0009462655 0.0009828503

exp_avg f4 [12]
000000 1d 33 75 bc b2 ea 91 3b 5f 21 1f bd 30 ee 70 3c
       -0.0149658 0.0044530267 -0.038850185 0.014705226
000010 56 5b 50 bc 04 1b 7c 3c 6c 1f d7 3c fa 7c 75 3c
       -0.012717089 0.0153873 0.0262601 0.01498341
000020 66 95 6d 3c fc d2 cd bc 1c 02 e6 bb 78 4d ae 3c
       0.014500951 -0.02512502 -0.0070192944 0.021277174

exp_avg_sq f4 [12]
000000 41 f4 36 3c 6f 0c 0e 3c 4f 6c 92 3c 47 0b 90 3b
       0.011166633 0.008669957 0.017873911 0.0043958756
000010 3a 6d 1f 3c 1c 9a 64 3c 0a 23 74 3b ab 2a 6e 3c
       0.0097306315 0.013952758 0.003725233 0.01453654
000020 0d 2a 7f 3b 33 10 76 3c 68 ce 23 3c d5 fd df 3b
       0.0038934976 0.015018511 0.009997942 0.006835679

exp_avg f4 [1, 12]
000000 ba cb ea bc 21 7c 1b bd 40 cf 8a bc 4a 5d 34 3c
       -0.028661598 -0.037960175 -0.016944528 0.01100857
000010 db ba ea bc 6f 3c c3 bc 94 80 03 bb 3f 67 49 bc
       -0.028653553 -0.023832528 -0.0020065652 -0.012292682
000020 48 62 4b bb 88 f3 04 bd 7e db 0a bd ca d4 e9 bc
       -0.0031033922 -0.032458812 -0.03390073 -0.028543849

exp_avg_sq f4 [1, 12]
000000 61 e0 8e 3c b7 61 56 3d 9a d4 f5 3b 94 a1 04 3d
       0.017440977 0.052339282 0.0075021507 0.032380655
000010 9e d0 e6 3c 3a 35 a2 3d 5e 01 0d 3d e3 3c a7 3d
       0.028175648 0.079203084 0.034425132 0.0816591
000020 54 fb 27 3d ab 44 a4 3d 91 5b 11 3d b3 51 ee 3c
       0.04101117 0.0802091 0.035487715 0.029091692

net.0.weight f4 [12, 6]
000000 6f 0b 1f bd 7d dc 21 3f e9 f9 b0 3d 02 e1 7c 3b
       -0.038829263 0.63227063 0.086414166 0.0038586264
000010 0d 02 66 be f1 05 98 be 10 e6 cd 3e de 61 41 3f
       -0.2246172 -0.29692033 0.40214586 0.7553996
000020 b6 95 21 3e 15 77 0e be 99 e4 66 3c 76 5d bc 3e
       0.15779766 -0.13912614 0.014092588 0.36790055
000030 ea f5 51 3f a7 79 cd 3e 69 f8 c1 3e 1c 69 69 3d
       0.8201586 0.40131876 0.37884834 0.056985006
000040 bf da 8b 3e b9 f3 6b be fb 95 e9 3e 80 ea 71 bf
       0.27315328 -0.23042192 0.4562224 -0.94498444
000050 72 41 2c bd 83 df da bc 33 76 ac be 60 da 41 3e
       -0.0420546 -0.026717907 -0.3368393 0.1893096
000060 c3 e3 54 bc 74 3e 21 3f fc f1 4b 3e d5 12 59 be
       -0.012993756 0.6298592 0.19916528 -0.2119859
000070 c4 78 ab 3d 83 2f b5 3d f6 b5 27 3d 9a 24 24 bf
       0.083726436 0.08846953 0.040945016 -0.6411835
000080 83 2a 76 be f7 83 4f be da c6 91 3d 49 01 2a 3e
       -0.24039654 -0.20265184 0.07118006 0.16602053
000090 37 f4 fc 3d 46 76 5f bf e2 32 f9 bd cd 6a 20 3d
       0.12351268 -0.87289846 -0.12167908 0.039164353
0000a0 89 a1 fd bd 8f 03 ff be 6c fb c4 3e 3b 9c 3c bf
       -0.12384326 -0.49807402 0.3847307 -0.7367589
0000b0 d6 fe 03 bf da f4 b8 3d d5 1a 12 3e d7 81 18 3e
       -0.51560724 0.09031077 0.14268048 0.1489328
0000c0 34 bf ae 3e ca b2 46 bf a1 d9 b4 be bf 8b 95 3e
       0.3413025 -0.7761656 -0.35322288 0.2920818
0000d0 09 81 90 3e fa 2f 0c 3e 8a aa 20 3e af 6c 37 3f
       0.28223446 0.13690177 0.15690055 0.71650213
0000e0 f4 93 e4 bd 76 df 6b 3e 9c 1e 4e 3d dc 43 69 3e
       -0.11161032 0.23034462 0.05032216 0.22779793
0000f0 9a d2 d9 3e 10 c5 1a 3f 5a d8 0b 3f 30 97 12 bd
       0.4254349 0.60456944 0.54627 -0.035788715
000100 15 cf 4e be 3c 90 29 bd db 7d a4 3e f6 98 ad be
       -0.20196183 -0.04139732 0.3212727 -0.33905762
000110 e0 c2 00 bf 85 c8 5b bd 7a 49 9f bd dd 2d 60 be
       -0.50297356 -0.053658027 -0.077776864 -0.21892495

net.0.bias f4 [12]
000000 ed 12 09 3d 85 77 fb 3d 67 89 03 3e 2c b6 b2 bd
       0.033465315 0.12278656 0.12845384 -0.08726153
000010 b6 18 f4 3d 3f d8 d0 3e ef a8 fb bc 9c 82 4b 3e
       0.11918776 0.40789983 -0.030720202 0.19874042
000020 0f 4f 87 bb 21 70 f8 3e d1 60 e4 ba 9c a7 d7 3e
       -0.0041292976 0.48523048 -0.0017423873 0.42120063

net.2.weight f4 [1, 12]
000000 8b 72 36 3f 1b 09 03 3f d4 ae 40 3f 2b 83 0d bf
       0.7126853 0.5118577 0.75266767 -0.5527827
000010 3c 61 09 3f ec 98 0e bf 33 47 ef be a6 a2 16 bf
       0.5366399 -0.5570209 -0.46734008 -0.5884193
000020 ae a0 ec be 40 5e 09 3f 10 1b 1a 3f e1 d2 e8 be
       -0.4621634 0.5365944 0.60197544 -0.45473388
