notebooks/lightning_logs/version_60/checkpoints/epoch=127-step=1791.ckpt (torch, 6267 bytes, 9 tensors)

exp_avg f4 [12, 6]
0	0xbb827f33	-0.0039824485
1	0x3af20596	0.00184648
2	0xbbd02508	-0.0063520707
3	0x3a8b39fe	0.0010622141
4	0xb7a421a7	-1.9565994e-05
5	0x3a20b368	0.0006130249
6	0xba38c932	-0.00070490234
7	0x3a120a12	0.00055709586
8	0x3b4bd598	0.0031102654
9	0xb9d84f8f	-0.00041258006
10	0xb9af7e22	-0.00033472577
11	0x39bea697	0.00036363743
12	0xbade1fa8	-0.001694669
13	0x3b0360aa	0.002004663
14	0xb98c546c	-0.0002676578
15	0x3a99c209	0.0011730801
16	0xba4a9dc2	-0.0007729196
17	0x3af823b7	0.0018931542
18	0xbabd3c0e	-0.0014437453
19	0xbad6e9ad	-0.0016396545
20	0xb97535ef	-0.00023385113
21	0x3a9021c1	0.0010996388
22	0xb88f6654	-6.8378315e-05
23	0x3b0f9c25	0.0021913138
24	0x3b00c475	0.0019648348
25	0x3b9bc086	0.004753175
26	0x3ba81f35	0.0051306733
27	0xba11df8d	-0.00055646227
28	0xbb0fb053	-0.0021925166
29	0xba8e313f	-0.0010848417
30	0xbb0cabeb	-0.0021464776
31	0xb9079c41	-0.00012932812
32	0xbabb84d0	-0.0014306549
33	0x3b070211	0.0020600597
34	0x3a2e3ff2	0.0006647102
35	0xbb146c58	-0.0022647586
36	0x39b6576b	0.00034778877
37	0x3956f57d	0.00020500082
38	0xb96c76ad	-0.00022550924
39	0xb9f01b44	-0.00045796682
40	0xb9b8719f	-0.0003517987
41	0x38ebec02	0.00011249633
42	0xbb0c646d	-0.0021422163
43	0xbb47c2f1	-0.0030481184
44	0x3b5b328e	0.003344688
45	0x3948526a	0.00019104188
46	0xbaaf8b66	-0.0013392984
47	0x3a4de952	0.0007854897
48	0xba0c6df3	-0.000535696
49	0x3aedc9e7	0.0018141837
50	0xbb839cba	-0.004016486
51	0x38c3abbf	9.330315e-05
52	0xba9cdde3	-0.0011967983
53	0xbab79a36	-0.001400775
54	0xbb18a718	-0.0023292955
55	0x39e5e65c	0.00043849915
56	0xba73b0f7	-0.0009296084
57	0x396bd884	0.00022492005
58	0xb9c64fb3	-0.00037824883
59	0x3a7ffe24	0.0009765348
60	0xb9a647ab	-0.00031715384
61	0x3a59d702	0.0008309932
62	0x3aedaf35	0.0018133881
63	0x39622568	0.00021566974
64	0xba4ae549	-0.00077398546
65	0x3aa3d7ef	0.0012500266
66	0xbb8f0b9d	-0.004365398
67	0xbb44173f	-0.0029921082
68	0xbb8c5f4b	-0.0042838207
69	0x3aac2ac6	0.0013135306
70	0x3afc1f2e	0.0019235366
71	0xbbb51124	-0.005525725

exp_avg_sq f4 [12, 6]
0	0x3c590997	0.013246915
1	0x3c4934ac	0.012280624
2	0x3b906689	0.0044067544
3	0x396f76fc	0.00022837141
4	0x3960d9fb	0.00021443509
5	0x39b5465f	0.0003457544
6	0x3c7fc41d	0.015610722
7	0x3c6f4e3c	0.014606055
8	0x3be4c56e	0.0069815433
9	0x39c925d3	0.0003836589
10	0x399979cb	0.00029273177
11	0x39b9000c	0.00035285985
12	0x3bf54005	0.0074844384
13	0x3be359ac	0.00693818
14	0x3b70f18b	0.0036765065
15	0x39572943	0.00020519369
16	0x391dfdbf	0.00015067215
17	0x398b32e4	0.00026550062
18	0x3b7b1d92	0.0038317186
19	0x3b641948	0.0034805108
20	0x3b387365	0.0028144952
21	0x38b8b157	8.806836e-05
22	0x38b6adb2	8.7107896e-05
23	0x38ef5dc2	0.00011413872
24	0x39e643d1	0.00043919546
25	0x39e56f17	0.00043761052
26	0x396285f8	0.00021602947
27	0x37dbfdaa	2.6224956e-05
28	0x388b7adc	6.650921e-05
29	0x38d14609	9.978942e-05
30	0x3b8a8e26	0.004228371
31	0x3b7afae5	0.0038296517
32	0x3ad7a6c0	0.0016452894
33	0x38b8dec1	8.815295e-05
34	0x38bc5df5	8.9820394e-05
35	0x38ed1dc7	0.00011306587
36	0x3b81033a	0.003937152
37	0x3b77bbcf	0.0037801152
38	0x3a55b40d	0.0008152135
39	0x37e8cb06	2.7751095e-05
40	0x386f4087	5.7042136e-05
41	0x381f6e21	3.801112e-05
42	0x3b9fae29	0.0048730564
43	0x3b8f0fbd	0.00436589
44	0x3b2465b1	0.0025085027
45	0x38950285	7.105343e-05
46	0x38c1ae4d	9.235423e-05
47	0x38b12f96	8.448881e-05
48	0x3ce61aa9	0.028088884
49	0x3cd5f252	0.026116524
50	0x3bfbf500	0.0076891184
51	0x39ec0bab	0.0004502212
52	0x39bf05e4	0.00036434748
53	0x3a03c14f	0.00050260586
54	0x3ba93ecc	0.0051649567
55	0x3b96f98d	0.0046073855
56	0x3ab98336	0.0014153484
57	0x39032b97	0.00012509372
58	0x392c2366	0.00016416385
59	0x3998d60d	0.0002915118
60	0x3c49fc34	0.012328196
61	0x3c4131e3	0.011791679
62	0x3b3b32fe	0.002856433
63	0x38e1d4b9	0.00010768459
64	0x38d74c96	0.00010266264
65	0x38d0cb5b	9.956091e-05
66	0x3cc5979d	0.024120146
67	0x3cb4a495	0.022051135
68	0x3bca1d89	0.0061680716
69	0x39a58419	0.00031569673
70	0x3a0d8cdd	0.00053997134
71	0x3a06eca1	0.0005146955

exp_avg f4 [12]
0	0x3c740aaa	0.014895121
1	0x3bfcdf0d	0.0077170194
2	0x3bed69f1	0.007245295
3	0x3b05115f	0.0020304543
4	0x39bfa6d8	0.00036554667
5	0x3c368904	0.0111410655
6	0xbab12dd6	-0.0013517688
7	0x3a3eb1d4	0.0007274423
8	0x3c75c64c	0.015000891
9	0x3a532e10	0.0008055875
10	0xba9398f6	-0.0011260796
11	0x3c9c94ab	0.01911386

exp_avg_sq f4 [12]
0	0x3bb0dbd6	0.0053973002
1	0x3b9e534d	0.0048317076
2	0x3b4e46bf	0.0031475273
3	0x3ad418b5	0.001618168
4	0x38f46bd0	0.00011654908
5	0x3b0134c3	0.0019715286
6	0x3a3bc701	0.0007163138
7	0x39faf457	0.00047865763
8	0x3c841792	0.01612452
9	0x3a63abdf	0.00086849736
10	0x3aaa6c2f	0.0013002212
11	0x3c2f11b8	0.010685377

exp_avg f4 [1, 12]
0	0xb9d01e60	-0.00039695483
1	0x3ac3a3f9	0.0014926187
2	0x3a57f770	0.000823847
3	0xbc58341a	-0.013196016
4	0x3c0bac94	0.008525033
5	0x3ba9032a	0.005157848
6	0x3a8738bb	0.001031659
7	0xbbd13cd4	-0.006385425
8	0x3c5efa37	0.013609461
9	0xbb022149	-0.0019856265
10	0x3b741ffd	0.0037250512
11	0xbb826766	-0.003979611

exp_avg_sq f4 [1, 12]
0	0x3d23fa6e	0.04003375
1	0x3ccad956	0.024761837
2	0x3d45e9f4	0.04831882
3	0x3e9f1981	0.31074145
4	0x3a0d1670	0.00053820666
5	0x3e336adf	0.17521237
6	0x3c8a7951	0.016903551
7	0x3c4fd1b9	0.012684279
8	0x3ea8a479	0.32937983
9	0x3c02f61a	0.0079932455
10	0x3c657c0d	0.014006627
11	0x3d34a09f	0.044098493

net.0.weight f4 [12, 6]
0	0x3e699b36	0.22813115
1	0x3f2cc369	0.6748567
2	0x3f005e90	0.5014429
3	0x3e1a38c0	0.15060711
4	0xbd2fd069	-0.042923365
5	0x3ef62288	0.4807322
6	0xbf536914	-0.8258221
7	0xbe5606c5	-0.2090102
8	0xbe3f643d	-0.18690582
9	0xbd393e03	-0.045225155
10	0xbeac247f	-0.33621594
11	0x3dd6ebe6	0.10494213
12	0xbf3ce21a	-0.73782504
13	0xbeb85d45	-0.3600866
14	0xbebd81a5	-0.37012973
15	0xbe84c366	-0.25930327
16	0x3e9297da	0.2863148
17	0xbe987091	-0.2977338
18	0xbf3e3fa2	-0.74315846
19	0xbf428b75	-0.75994045
20	0xbecaa476	-0.395786
21	0x3e1df6f9	0.15426244
22	0x3c7ec400	0.01554966
23	0x3e011159	0.12604274
24	0xbed155b0	-0.40885687
25	0xbea693e4	-0.32534707
26	0xbe8c3607	-0.2738497
27	0x3d134490	0.03595406
28	0x3e203c22	0.15647939
29	0x3c52528d	0.012837064
30	0x3f6f26a2	0.93418324
31	0x3f257978	0.6463847
32	0x3d2e9826	0.04262557
33	0x3ea24c17	0.31698677
34	0xbd761556	-0.06007894
35	0x3bb41637	0.0054958123
36	0xbe3a2524	-0.1817823
37	0x3e3647de	0.17800853
38	0xbe8e2f64	-0.2777053
39	0xbe5e81e0	-0.21729231
40	0x3e671ab7	0.22568785
41	0x3e0033ea	0.12519804
42	0xbc93649a	-0.017992307
43	0xbf18090f	-0.5938882
44	0xbe160e6c	-0.14653939
45	0x3e505974	0.20346624
46	0x3dc7cb3b	0.0975556
47	0x3f048c91	0.5177699
48	0x3f059bde	0.5219096
49	0x3f211db1	0.6293593
50	0x3f26f8e1	0.6522351
51	0xbe54a00d	-0.2076418
52	0xbeb737aa	-0.35784656
53	0xbe8bfe86	-0.27342623
54	0xbe3fa949	-0.18716921
55	0xbe98673a	-0.29766256
56	0xbf2dcf16	-0.67894113
57	0x3e15bd8e	0.1462309
58	0xbdafda7d	-0.08586595
59	0xbe15abcf	-0.14616321
60	0x3d584007	0.052795436
61	0xbeadfba3	-0.33981046
62	0x3cf565e2	0.029955808
63	0xbd799d7c	-0.060941204
64	0xbe4fa8d6	-0.2027925
65	0xbecd7f36	-0.40136117
66	0x3f4b830d	0.7949684
67	0x3e4341ae	0.19068024
68	0x3ea04d8b	0.3130916
69	0xbdb392d1	-0.087682374
70	0x3ebed784	0.372738
71	0xbe135ab3	-0.14390068

net.0.bias f4 [12]
0	0x3e127c02	0.14305118
1	0xbe0fb27e	-0.14032933
2	0x3b20afcc	0.0024518846
3	0x3f2f20f2	0.68409646
4	0xbef769d1	-0.4832292
5	0x3e9f72c5	0.3114225
6	0x3dff4d51	0.12465919
7	0x3e60ab0e	0.21940252
8	0x3f0fa08b	0.56104344
9	0x3d456f51	0.048201863
10	0x3dc628e2	0.096757665
11	0x3d75c322	0.060000546

net.2.weight f4 [1, 12]
0	0x3f15414c	0.5830276
1	0xbf2ecdb1	-0.6828261
2	0xbf053f0d	-0.5204933
3	0xbea4e484	-0.32205594
4	0xbf0138a9	-0.5047708
5	0x3ec0bb7b	0.37643036
6	0xbdc167a1	-0.09443594
7	0xbe93101f	-0.28723237
8	0x3f0c6987	0.5484852
9	0xbee8f3de	-0.45498556
10	0xbe4340bb	-0.19067661
11	0x3f35344b	0.7078292
