notebooks/lightning_logs/version_270/checkpoints/epoch=160-step=2253.ckpt (torch, 6267 bytes, 9 tensors)

exp_avg f4 [12, 6]
5.977657e-05 0.0063239974 0.0074033425 -0.017636422 0.012709461 0.0029109917 5.5636874e-06 0.0031101394
-0.0021959979 -0.0036093183 -0.0050991303 -0.0019585488 4.4178258e-05 0.00042368475 0.0029544341 -0.013083176
0.0054460196 0.0010196778 -7.251224e-06 -0.0014991575 0.0005280181 -0.0025112357 0.0005864124 -0.0020055985
9.528658e-05 0.0032230702 0.011509149 -0.014448526 0.019837575 -0.00017519164 7.962286e-06 0.0067112236
0.0024495432 -0.0018685275 0.0006441008 0.0030908315 7.808117e-05 0.01029588 0.0102280425 -0.021634141
0.015576152 0.00043031276 7.696932e-05 0.013198907 -0.0029006167 -0.02177129 0.018514795 0.0044691865
-8.176128e-05 -0.023955991 -0.0051334603 -0.0019588629 -0.0062273955 -0.011176541 -7.2450115e-05 -0.012470121
-0.008636099 0.013646172 -0.01300722 0.0021874972 -1.446238e-07 0.0029799927 0.0015709292 0.00050358596
-0.0006364061 7.8695855e-05 -1.313527e-05 -0.0026276675 -0.0051683052 0.00062851515 -0.003946994 0.00089341763
00000000: 9ab8 7a38 8939 cf3b bd97 f23b 427a 90bc
00000010: 583b 503c 56c6 3e3b b6af ba36 7bd3 4b3b
00000020: bbea 0fbb 508a 6cbb 9b16 a7bb ff5a 00bb
00000030: 0b4c 3938 0122 de39 2e9f 413b d15a 56bc
00000040: 8674 b23b b6a6 853a 8a4f f3b6 617f c4ba
00000050: b26a 0a3a 8b93 24bb 78b9 193a 5c70 03bb
00000060: 98d4 c738 253a 533b df90 3c3c 83b9 6cbc
00000070: 6982 a23c a6b3 37b9 c295 0537 d3e9 db3b
00000080: 8488 203b 61e9 f4ba dfd8 283a 8c8f 4a3b
00000090: 82bf a338 0db0 283c 8593 273c 153a b1bc
000000a0: 1e33 7f3c 9a9b e139 976a a138 3a40 583c
000000b0: 4618 3ebb b459 b2bc 57ac 973c 4172 923b
000000c0: 4177 abb8 5b3f c4bc 9636 a8bb 4460 00bb
000000d0: 2e0f ccbb d01d 37bc 5cf0 97b8 7a4f 4cbc
000000e0: 6d7e 0dbc 3294 5f3c 3c1c 55bc 1d5c 0f3b
000000f0: e349 1bb4 fb4b 433b a3e7 cd3a 1503 043a
00000100: 7ed4 26ba 8409 a538 8e5f 5cb7 f234 2cbb
00000110: e35a a9bb f0c2 243a c955 81bb 3e34 6a3a

exp_avg_sq f4 [12, 6]
8.200231e-08 0.024380146 0.0039985073 0.0042385235 0.003933902 0.0018040357 5.0721198e-08 0.011142645
0.002098923 0.0020581314 0.00089508155 0.0016699134 3.250205e-08 0.016469058 0.0015530823 0.0035918765
0.0014689553 0.0007738672 2.0961377e-09 0.0015218328 0.00030059813 8.876863e-05 0.00013314858 0.00014109422
1.4545645e-07 0.026679395 0.008387968 0.0031278487 0.005512732 0.0022422017 2.4220737e-09 0.0004773034
0.0003339365 0.00022705608 0.00016209771 0.00029007794 1.5482838e-07 0.056243025 0.0104320515 0.0073171454
0.008043524 0.005062964 5.5458873e-08 0.0124555165 0.0010782849 0.00489543 0.004165791 0.0011275917
1.05256085e-07 0.030384053 0.004327189 0.0028829775 0.0027584077 0.003632018 5.3667957e-08 0.00963897
0.0020257717 0.0031933233 0.002932272 0.0016409982 1.2232281e-09 0.00041126786 0.00013669726 0.00015147557
7.44524e-05 8.9201116e-05 3.8864965e-08 0.0043697422 0.0010994589 0.0015751005 0.0008219419 0.0011800149
00000000: 3f19 b033 dfb8 c73c e905 833b 50e3 8a3b
00000010: f6e7 803b 6575 ec3a 8cd8 5933 a48f 363c
00000020: 168e 093b b7e1 063b e8a3 6a3a ffe0 da3a
00000030: 6298 0b33 1eea 863c cb90 cb3a b065 6b3b
00000040: f689 c03a 59dd 4a3a a50b 1031 3c78 c73a
00000050: 9999 9d39 4c29 ba38 cd9d 0b39 b1f2 1339
00000060: c42e 1c34 bf8e da3c b06d 093c 98fc 4c3b
00000070: 26a4 b43b e7f1 123b 9271 2631 943e fa39
00000080: 3314 af39 e715 6e39 c6f8 2939 9a15 9839
00000090: e73e 2634 165f 663d 32eb 2a3c aac4 ef3b
000000a0: fcc8 033c 38e7 a53b ad31 6e33 3912 4c3c
000000b0: 3d55 8d3a d869 a03b 3081 883b b3cb 933a
000000c0: 2509 e233 fae7 f83c 18cb 8d3b 56f0 3c3b
000000d0: 67c6 343b 2707 6e3b 8b80 6633 c5ec 1d3c
000000e0: cfc2 043b 1347 513b 5c2b 403b c316 d73a
000000f0: 831e a830 709f d739 6456 0f39 6ad5 1e39
00000100: 5423 9c38 7c11 bb38 7bec 2633 0e30 8f3b
00000110: b81b 903a 9a73 ce3a 9677 573a bbaa 9a3a

exp_avg f4 [12]
0.020391647 0.001897949 0.015070584 -0.0024736174 0.03250523 0.0027161834 0.026635908 0.026256628
-0.027891317 -0.024714988 -4.933632e-05 -0.004480849
00000000: 620c a73c 9ac4 f83a 9cea 763c 6a1c 22bb
00000010: 3424 053d ff01 323b 8c33 da3c 2418 d73c
00000020: 557c e4bc 1677 cabc 78ee 4eb8 16d4 92bb

exp_avg_sq f4 [12]
0.009542647 0.0059024477 0.0037822772 0.00024392687 0.016926836 0.00028185785 0.018017482 0.0064537725
0.012248714 0.0062453677 0.00014234775 0.0045227436
00000000: c358 1c3c 5269 c13b 15e0 773b 9fc6 7f39
00000010: 26aa 8a3c 52c6 9339 6699 933c 2b7a d33b
00000020: d5ae 483c f1a5 cc3b 2f43 1539 8633 943b

exp_avg f4 [1, 12]
0.05110525 0.0023602834 0.018138494 0.010779341 0.004191844 0.013000066 0.0394124 0.0064264107
0.022684354 0.04135608 0.0044228607 0.0034545478
00000000: bd53 513d fcae 1a3b 2e97 943c d59b 303c
00000010: bc5b 893b 3bfe 543c e66e 213d a494 d23b
00000020: 8ad4 b93c fe64 293d a5ed 903b b265 623b

exp_avg_sq f4 [1, 12]
0.20695867 0.087871335 0.01668195 0.0035889167 0.042793136 0.0011274184 0.05929305 0.01385244
0.15174611 0.039407954 0.0013578532 0.020803718
00000000: f9ec 533e e3f5 b33d 96a8 883c 0834 6b3b
00000010: db47 2f3d e2c5 933a 45dd 723d 58f5 623c
00000020: 5563 1b3e 3c6a 213d fef9 b13a 8f6c aa3c

net.0.weight f4 [12, 6]
0.7751276 0.8381797 0.412001 -0.07116065 0.055597544 -0.031391695 0.5393604 -0.85058284
-0.667373 0.074388705 0.03793958 0.051689647 0.23180905 0.24008033 0.49834815 0.029473895
-0.43385237 -0.17268632 0.21597753 -0.020661587 -0.19674414 0.33356807 -0.11560292 0.36115527
0.6540207 0.89321893 -0.0133118145 0.066878684 -0.07422523 0.07204359 -0.16931102 -0.75780946
-0.46308127 -0.11308827 -0.03536554 -0.10856638 0.4186239 0.509376 -0.0071201175 0.06779625
0.117563106 0.103420064 -0.106977105 0.42283174 0.72299314 0.13451779 0.09952688 0.05691241
0.2713042 -0.6463767 -0.25511855 0.175879 -0.04699247 0.120156385 0.55454975 -0.38971186
-0.31713843 -0.115491815 0.06732352 -0.1314105 0.2836907 -0.37166733 0.04563169 -0.0536867
-0.05016532 -0.09464711 0.3631642 -0.6839705 0.35661003 0.069311514 0.037890293 0.09192133
00000000: c36e 463f f292 563f ccf1 d23e adbc 91bd
00000010: 40ba 633d 9494 00bd 8613 0a3f ccbf 59bf
00000020: f5d8 2abf 1b59 983d 8866 1b3d 86b8 533d
00000030: 5a5f 6d3e 9ed7 753e 7d27 ff3e 3d73 f13c
00000040: e621 debe afd4 30be 3729 5d3e 7d42 a9bc
00000050: 4c77 49be 6fc9 aa3e 39c1 ecbd 58e9 b83e
00000060: e76d 273f ffa9 643f cc19 5abc b1f7 883d
00000070: 6603 98bd 978b 933d de5f 2dbe cdff 41bf
00000080: fd18 edbe d39a e7bd 75db 10bd 0d58 debd
00000090: df55 d63e 7766 023f e04f e9bb c3d8 8a3d
000000a0: edc4 f03d e6cd d33d d016 dbbd 677d d83e
000000b0: 1416 393f 08bf 093e c0d4 cb3d fd1c 693d
000000c0: 62e8 8a3e f278 25bf e69e 82be a019 343e
000000d0: 2d7b 40bd 8d14 f63d f9f6 0d3f 5088 c7be
000000e0: f85f a2be f986 ecbd eae0 893d 7990 06be
000000f0: e83f 913e 2e4b bebe 4ce8 3a3d 96e6 5bbd
00000100: 277a 4dbd 58d6 c1bd a8f0 b93e b118 2fbf
00000110: 9795 b63e 32f3 8d3d da32 1b3d 4041 bc3d

net.0.bias f4 [12]
0.82273567 0.29386866 0.5482517 0.008438625 0.086853385 -0.60986066 0.9854358 0.0267061
1.0493865 1.0530331 -0.16078871 0.3654222
00000000: ce9e 523f f475 963e 395a 0c3f 2942 0a3c
00000010: 30e0 b13d d41f 1cbf 8545 7c3f c0c6 da3c
00000020: 4c52 863f cac9 863f cca5 24be 9e18 bb3e

net.2.weight f4 [1, 12]
0.5297747 -0.48809227 0.38349214 -0.15965246 0.7707049 -0.6165621 0.80985403 0.5304104
-0.6089025 -0.5116837 -0.23119387 -0.4885648
00000000: 519f 073f 3be7 f9be 1559 c43e ef7b 23be
00000010: eb4c 453f 04d7 1dbf 9852 4f3f fac8 073f
00000020: 09e1 1bbf b4fd 02bf 16be 6cbe 2a25 fabe
