notebooks/lightning_logs/version_48/checkpoints/epoch=120-step=1693.ckpt (torch, 6267 bytes, 9 tensors)

exp_avg f4 [12, 6]
00000000: 3c2a d138 05db 0b3a 7731 9c38 ce2b 6139
00000010: 229f 4db7 e734 9ab9 14ac eaba 9557 17b9
00000020: b890 96bb 2fdb 05ba 8ccb 0f3a a434 6fba
00000030: 953d 9dbb 7bd7 323c 2f6c a03a ea2f caba
00000040: 3388 c839 d2fc 5c3a 80a2 6d3a b11b 9b3b
00000050: 3e57 dc3b 09a8 2a3b 58aa bcba 09c6 b8ba
00000060: 12bf 6dba ffbd feb9 6d86 6739 8e10 cdb9
00000070: d381 323a c287 ea39 15c9 2dbc 9461 5f3c
00000080: eba8 ecba a5c7 e7ba 23e8 8c3b e427 44bb
00000090: 6059 a4b9 748d 00ba 36c5 b8b9 fcba 20b9
000000a0: 6c98 c938 88b3 203a 9eb3 1fba 48fb df3b
000000b0: 1500 403a 7c88 123b 43af 99ba 1248 25ba
000000c0: a6e6 66ba 4a80 4d3b f6f9 a23a ebe6 1fba
000000d0: 7209 9937 e329 ddb9 d149 1cba 2c72 a73b
000000e0: 4262 0c3b d337 d6ba 5b5f aa3a 00f1 95bb
000000f0: 29b0 edb8 6ced 87bb 5d06 81bb 3990 19b9
00000100: f4ce 28bb 8eb2 03bb a6cb 963a 04be 703a
00000110: 70b7 acba abdd 0b3b 5a16 07bb 04e6 f6ba
9.9737634e-05 0.00053350657 7.447873e-05 0.0002147399 -1.2256003e-05 -0.00029412584 -0.0017904066 -0.00014433109
-0.0045948885 -0.0005106208 0.0005485348 -0.00091249705 -0.004798601 0.010915632 0.0012239272 -0.0015425656
0.0003824845 0.0008430007 0.0009065047 0.0047335257 0.0067242673 0.0026040098 -0.0014394028 -0.0014097105
-0.0009069304 -0.00048588213 0.00022079954 -0.0003911298 0.00068095064 0.00044733105 -0.010607024 0.013634104
-0.0018055713 -0.00176834 0.004300134 -0.0029931003 -0.00031347107 -0.00049038907 -0.00035242148 -0.00015328446
9.612818e-05 0.0006130268 -0.00060921337 0.006835375 0.0007324231 0.0022359183 -0.0011725206 -0.000630499
-0.0008808173 0.0031356984 0.0012434113 -0.0006099778 1.824342e-05 -0.00042183613 -0.0005961927 0.005110046
0.002142087 -0.0016343541 0.0012998389 -0.0045758486 -0.00011333853 -0.004148176 -0.003937526 -0.00014644944
-0.002575812 -0.002009544 0.0011504784 0.0009183588 -0.0013177227 0.0021341841 -0.0020612688 -0.001883686

exp_avg_sq f4 [12, 6]
00000000: d60f 2a3b fdf3 103b eceb 113a 0f62 2a38
00000010: b816 2a38 b7ee 9a37 78ff 8f3a c9c3 203a
00000020: 3d58 1b39 4d71 a038 0a3d 8c38 9bc7 8438
00000030: 3108 b33c 42f4 763c e881 8c3b 0deb bb39
00000040: 08b0 0c3a a856 003a c2b4 873b 4c66 563b
00000050: 0e00 053b 39e6 7e39 a24f fb38 50d0 2339
00000060: 1ada fa3a 00dd ce3a 5684 f239 fde0 7538
00000070: 48b1 0e38 ea68 0d38 bee7 1d3d 1e1e e73c
00000080: cca5 bd3b 583e 383a c9d4 853a cbc7 5e3a
00000090: f36f 683b 2c49 5b3b d508 443a 4aa8 0639
000000a0: 6334 f537 bc50 9739 7871 c73b 2483 9d3b
000000b0: 8008 fe3a d4a0 8e39 5670 0739 c176 3b39
000000c0: 4434 573b 3dbc 153b bd3c 7a3a 7336 ba38
000000d0: 55f1 d338 10a4 c138 33c8 b83c 467d 903c
000000e0: 6a26 153c 8445 3e3a 8837 e339 605d 093a
000000f0: 6d9a 553d 9e3b 0e3d ce43 903c bf7a 863a
00000100: 2b38 d73a 7669 223a 3263 3b3b 2fe0 123b
00000110: b89e e139 0df8 3239 1a08 c638 7556 4339
0.002594938 0.0022118085 0.0005566466 4.0622483e-05 4.0552317e-05 1.846939e-05 0.001098617 0.000613269
0.00014814823 7.6504984e-05 6.6870896e-05 6.33143e-05 0.021854492 0.015072884 0.004287947 0.00035842546
0.0005366807 0.0004895725 0.004141421 0.0032714782 0.0020294222 0.00024309092 0.000119834454 0.00015622494
0.0019138486 0.0015782416 0.00046256435 5.862209e-05 3.4020544e-05 3.371473e-05 0.038551085 0.028212603
0.005787587 0.0007028333 0.001021051 0.00084983994 0.0035467118 0.0033460362 0.0007478123 0.00012841928
2.923067e-05 0.00028861116 0.0060865246 0.004806893 0.0019381195 0.00027204177 0.00012916452 0.00017877949
0.003283755 0.0022847794 0.0009545794 8.879313e-05 0.000101062156 9.233516e-05 0.0225564 0.01763786
0.009103397 0.00072582834 0.00043338188 0.0005240049 0.052149225 0.034724824 0.017610457 0.001025997
0.0016419938 0.00061955245 0.002859306 0.0022411456 0.000430336 0.00017067809 9.442885e-05 0.00018628857

exp_avg f4 [12]
00000000: 8b15 a039 6ce3 043c de61 6b3c d4fb f73b
00000010: 98c3 db39 3759 9f3c 2c47 9a39 a0bf 123c
00000020: 9cdc f33a 759d 203c a91d c2ba 673a 3c3b
0.0003053363 0.008110862 0.014366595 0.007567862 0.00041916664 0.01945172 0.00029426196 0.00895682
0.0018605175 0.009803166 -0.0014809865 0.0028721334

exp_avg_sq f4 [12]
00000000: 89eb c03a 771c ad39 6317 523c 8f7d a93a
00000010: 85ea 7139 c627 6d3c 5fc3 c73a 495b 203b
00000020: 06c3 ea39 d156 c33b 30e1 4b3b 77bc 043a
0.0014718632 0.0003301834 0.012822959 0.0012931096 0.00023070916 0.014474815 0.001524072 0.0024468473
0.00044777262 0.005961277 0.0031109564 0.0005063484

exp_avg f4 [1, 12]
00000000: 5671 173b 770e 32bc 4421 a93c b439 e53b
00000010: 36a2 9e3a ff1a 493c e657 6c39 9cbb ee3b
00000020: e65e 923b 6cb3 fa3a 492a 7abb 20ed 5e3a
0.0023108325 -0.0108677065 0.020645745 0.006995404 0.0012102786 0.012274503 0.00022539459 0.0072855484
0.004466879 0.0019126958 -0.0038172177 0.00085039623

exp_avg_sq f4 [1, 12]
00000000: 0a03 8d3d c6ae b63b 3351 d33e c658 003c
00000010: e880 0f3c 2212 883d 2e43 aa3b d412 153d
00000020: 7c7e 073d aa97 6a3d 5d6c cf3d bf3b d13c
0.06885345 0.005575034 0.41272888 0.007833665 0.008758761 0.066440836 0.0051959967 0.03639491
0.03307961 0.057273544 0.101280905 0.025541184

net.0.weight f4 [12, 6]
00000000: 6cf4 66be abfc 30be 791d 63be 6441 763e
00000010: 7b28 073c ce97 06be 398b 673f d422 ae3d
00000020: 916d a93e 9a13 153d 5826 79bd de1f 913d
00000030: ba77 493f deb6 4f3f fa79 2d3f dc82 0c3f
00000040: 0002 6abd 1eb4 d0bd 859e 26bf ad49 9dbe
00000050: 3c82 e7bd d19c a2be 1b3e 433d c308 c53b
00000060: e49e 71bd 8090 26be 07a4 253f 39d0 0d3e
00000070: e751 c83e e7d3 edbe 035c e93e fc56 5d3f
00000080: a23a 7d3e 93d8 efbe a965 383e e71d da3d
00000090: 645e 39bc 2822 c4bd 1744 6bbb 8f03 a3bd
000000a0: 60ad f4bb 36fe 223e a1bf 15bf 8bf5 16bf
000000b0: bb94 dcbe 04a4 983e 9d5f 55be 0253 023e
000000c0: 1e09 b43e 45a5 0fbe a344 d63e 549c 97bc
000000d0: f62f 4fbe 14ca 95be b0b6 0ebf 8778 04bf
000000e0: 1a9c 0abe 8b9c a43e 510a 99bd 2b46 46be
000000f0: 8cfd a1be f158 f9be 9e77 87be cd2e 073d
00000100: 0a1b d83d fc95 25be 6995 1fbf e026 b0bd
00000110: 20a7 41bf 47d4 d8be 05e9 bf3d d14c 393e
-0.22554177 -0.17283885 -0.22179212 0.24048382 0.008249397 -0.13143846 0.9044681 0.08502737
0.33091405 0.036395647 -0.060827583 0.07086156 0.78698313 0.8113841 0.67764246 0.54887176
-0.057130814 -0.101906046 -0.6508563 -0.30720273 -0.11304137 -0.31760266 0.04766665 0.0060130074
-0.05898942 -0.1626606 0.6470341 0.13848962 0.39124987 -0.4645073 0.45578012 0.8646085
0.24729398 -0.4684492 0.1800753 0.10650235 -0.011314008 -0.09576827 -0.003589874 -0.07959663
-0.007466957 0.15917286 -0.5849553 -0.5896842 -0.43082222 0.29812634 -0.20837255 0.12726977
0.35163206 -0.14027889 0.4184924 -0.01850716 -0.2023314 -0.29255736 -0.5574751 -0.5174641
-0.1353611 0.32150683 -0.07472671 -0.19362704 -0.31638753 -0.4870067 -0.26458448 0.033003617
0.10552032 -0.16170496 -0.62337357 -0.08601165 -0.7564564 -0.42349455 0.09370617 0.1809571

net.0.bias f4 [12]
00000000: c020 0bbe f030 b8be 1337 d03e a83b 02bd
00000010: 6cba a2be ca37 873d 3681 e0be 9208 9bbd
00000020: c4e5 2e3f fda1 fa3d 0a47 263f c7ec 9a3e
-0.13586712 -0.35974836 0.40667018 -0.031795174 -0.31782854 0.06602438 -0.4384858 -0.07569994
0.68319345 0.12237928 0.64952147 0.30258772

net.2.weight f4 [1, 12]
00000000: 5dc1 12bd e942 113f 642a 063f 5576 0fbf
00000010: 3f30 f93d 291e 3e3f 58e1 113e db14 06bf
00000020: 3fe9 863e 861b 16bf b5d3 12bf 552b d7be
-0.035828937 0.5674272 0.5240843 -0.56039935 0.12167405 0.7426477 0.14246118 -0.5237557
0.26349828 -0.5863575 -0.5735429 -0.42025247
