notebooks/lightning_logs/version_249/checkpoints/epoch=137-step=1931.ckpt (torch, 6267 bytes, 9 tensors)

exp_avg f4 [12, 6]
00000000: 9c96 35ba 3eaa 2bbb 85f1 123b 5452 b6ba
00000010: b311 80ba b70e d3b9 9cc5 25b9 56ff c4bb
00000020: dda4 8b3b ac1c 22bb 6d23 3b3b 7d0a c8ba
00000030: 1588 923a 5c1c 893a 14f4 b539 6b43 12b9
00000040: 4f53 32ba c62d a63a d354 4bbb eca0 debb
00000050: d3d2 07ba 28aa 7ab9 13a2 07ba e49e 6c3a
00000060: 3c57 dbb8 c834 39bc 0f8e 83ba 06a0 5b3a
00000070: 3931 aebb 85b8 fe3a 4c39 363a 83c4 2b39
00000080: 11c0 2fb9 d938 ffb8 bbef 44ba 6afe f739
00000090: 2985 7dba 00e1 bfbb e7ab 50bb 9c27 a0ba
000000a0: cd07 5439 d977 e537 801b 0dbb 7102 41bb
000000b0: 7b69 433a 9bab 7ab8 37f1 ab3a 5cf7 b93a
000000c0: 090e 18bb 9f51 823b 36b0 1cbb 3a66 77b8
000000d0: 3dcc 983a 8efb 233a bd83 993a 44c0 483a
000000e0: d1c9 a13a 13a7 e7b9 47f9 4cb9 79bf c03a
000000f0: b851 13ba ef92 56bb 762d 273a afb3 ff39
00000100: c8ee eb3a f705 2c3a 708e abba 5290 c8bb
00000110: a8f7 f4bb 4299 1d3b 8cc0 3abb 4c71 d83a
-0.00069270446 -0.0026194002 0.002242179 -0.0013910034 -0.00097709 -0.0004025602 -0.00015809241 -0.0060118837
0.0042615966 -0.0024736328 0.002855505 -0.0015261915 0.0011179472 0.0010460722 0.00034704863 -0.0001394876
-0.0006802575 0.0012678436 -0.00310259 -0.0067940857 -0.00051812566 -0.00023905246 -0.0005173992 0.0009026362
-0.000104589824 -0.011304088 -0.0010036844 0.00083780324 -0.0053159264 0.0019433653 0.0006951287 0.00016381037
-0.00016760851 -0.00012169936 -0.0007512529 0.00047301064 -0.00096710265 -0.0058556795 -0.0031840743 -0.0012218836
0.00020220802 2.7354736e-05 -0.0021531284 -0.0029450918 0.00074543775 -5.9764465e-05 0.0013118152 0.0014188099
-0.0023201725 0.003977015 -0.002390874 -5.8984595e-05 0.0011657547 0.0006255441 0.0011712235 0.00076580443
0.0012343471 -0.00044184233 -0.00019547819 0.0014705501 -0.0005619782 -0.0032741388 0.00063773186 0.00048771265
0.001800024 0.0006562168 -0.0013088714 -0.00612072 -0.007475812 0.0024047648 -0.0028496115 0.0016513257

exp_avg_sq f4 [12, 6]
00000000: 9cd9 913b 7219 963b e889 1c3a 353e 3c39
00000010: b76d 9838 ca62 f938 f906 373c 6285 3d3c
00000020: 7be8 013b c220 e139 1170 4339 1058 a739
00000030: 5d48 cf3a 3e78 cd3a 1ff0 1b39 4be6 5138
00000040: 9e8c a038 f439 0e39 d17a a83a e80a b33a
00000050: cae0 5139 db1f 5938 b650 e138 ff7d 8e38
00000060: 4a43 df3c e3a1 093d 1a5a 1a3b d233 fb39
00000070: ccf4 323a bc82 063a 9aa1 ce3a 2574 d43a
00000080: e09d 1c39 0703 d437 58cd 8c38 7fb9 7938
00000090: c945 df3b 4ae8 053c 95b0 ff39 5620 7239
000000a0: 043f 7239 6035 1d39 678e 563b bc61 643b
000000b0: 6fe5 d539 d2ad 1939 6366 d238 eb0a ca38
000000c0: 1866 b23c 20ec b63c 0b5a 053b 0480 173a
000000d0: 526e dc39 06d5 603a e855 c039 6e81 ce39
000000e0: e2ac 4238 f324 a237 b793 0838 904d 1a38
000000f0: 7dd8 3f3b 83be 4a3b c60c a439 9712 c538
00000100: c423 bc38 e7ae cb38 d177 913c df15 a33c
00000110: 590d 643b 21b9 cb39 4f2f 183a 6180 1a3a
0.00445099 0.00458067 0.00059714774 0.00017952251 7.268361e-05 0.00011891646 0.011171096 0.0115674455
0.0019822407 0.0004293975 0.00018638397 0.00031918334 0.0015814413 0.0015676094 0.00014871404 5.004396e-05
7.6555865e-05 0.00013563765 0.0012853985 0.0013659867 0.00020015534 5.17665e-05 0.0001074387 6.794556e-05
0.027253766 0.033601653 0.002355224 0.0004791306 0.0006826639 0.0005131175 0.0015764714 0.001620893
0.00014936132 2.527378e-05 6.7139685e-05 5.9538983e-05 0.006813739 0.008173058 0.00048768954 0.00023090965
0.00023102394 0.0001499257 0.0032738687 0.0034848293 0.00040797467 0.0001465597 0.00010032651 9.634144e-05
0.021777198 0.02232939 0.002034786 0.00057792687 0.00042043865 0.0008576665 0.000366851 0.00039387814
4.6414214e-05 1.932911e-05 3.2562497e-05 3.6788697e-05 0.0029273324 0.0030936308 0.00031290035 9.397155e-05
8.9712004e-05 9.7123724e-05 0.017757328 0.01990789 0.0034797995 0.0003885711 0.00058053894 0.0005893764

exp_avg f4 [12]
00000000: 43c9 043c 702b 643c 1295 a5b8 16bc 1d3a
00000010: 2b31 4a3c 18d4 c938 1015 343c 89ad 053b
00000020: da9e b43b 0108 6a3b f6c3 743b bc72 553c
0.008104625 0.013926372 -7.8955796e-05 0.00060171017 0.012340824 9.6239324e-05 0.01099135 0.0020397624
0.0055121006 0.0035710337 0.0037348247 0.013027843

exp_avg_sq f4 [12]
00000000: d887 fe3a 0ba1 1d3b 6133 4a39 94d2 9139
00000010: b9b4 d33b 6041 6339 3e77 f83a 4771 af3a
00000020: e2b9 183c e6af 1f39 8607 863a 7541 173c
0.0019419147 0.0024052288 0.00019283361 0.00027813448 0.006460753 0.00021672761 0.0018956435 0.00133852
0.009321662 0.00015228949 0.0010225631 0.009231915

exp_avg f4 [1, 12]
00000000: a272 65bb 8b1d a4bb 5cf1 143a 9ec3 dcbb
00000010: 18ac b43a d574 e0b9 9f10 debb 40dc 5cbc
00000020: d5b6 a4bb edbb ab3b bd1a f3bb 9317 6cbc
-0.0035010953 -0.0050084046 0.00056817173 -0.0067371866 0.0013784198 -0.00042811656 -0.0067768837 -0.013480246
-0.005026678 0.0052409084 -0.007418959 -0.014409917

exp_avg_sq f4 [1, 12]
00000000: eda2 4b3d f2bc 5b3c fdad 863a 2b68 ae3a
00000010: 4c09 4b3d 6aa0 033b 9091 0c3e 03a9 b63d
00000020: 97c9 d43d 50e3 783b aab9 073d 317d 813d
0.049715925 0.013411747 0.0010275241 0.0013306191 0.049569413 0.0020084628 0.13727403 0.08918955
0.10390013 0.0037977286 0.033136047 0.063227065

net.0.weight f4 [12, 6]
00000000: 8a08 0ebf f17a f9be d259 f5be b82b b9be
00000010: 3b80 80bc 94bf e1be 20df a1be 74ac b8be
00000020: 0221 63be e666 d73e 7e69 933c 41c8 8ebe
00000030: 4a2b 0bbe 2bd7 ddbd 92ac 4fbe ab1a 2dbc
00000040: 7444 cdbd 1924 e33d 7647 8b3e 58a8 933d
00000050: 5605 cb3e 593d 83bd ea69 d5bd 2189 8abd
00000060: 93b3 1f3f 455f 893e 359f 9c3e 3ca6 aebe
00000070: 611b f23c e9b0 963e a98a 48bd b084 13bd
00000080: 93cc 94be e886 473e aee8 05be bb72 63bd
00000090: 3c40 353f d081 183f f747 493f eb28 183f
000000a0: 9013 84be 924e ca3e 75ee 04bf b25c 02bf
000000b0: 253e 9c3c 292c 933d c52b a83d 92ff e13e
000000c0: 9df0 1fbf 2339 c1be e993 d6be 397d 34bc
000000d0: 8dbf a0be ace4 a13e 2c05 2cbf 4c30 f6be
000000e0: 35b6 8cbe 6006 b33c a0fe 48bd 8ef9 1c3e
000000f0: d300 cabe b687 ecbe b5e5 30bf cee1 9bbe
00000100: 097b f13e 3a27 cabd 3470 433f c4ff 313f
00000110: 2f1d bd3e f5a1 81bc a308 493e d424 e1be
-0.5548178 -0.4872661 -0.4792009 -0.36166167 -0.015686145 -0.44091475 -0.31615543 -0.3606907
-0.2218056 0.42070693 0.017994639 -0.27887157 -0.13590732 -0.10832056 -0.20280674 -0.01056544
-0.10022822 0.110908695 0.27202958 0.072098434 0.39652508 -0.064081855 -0.10420592 -0.067644365
0.62383384 0.26830497 0.30590215 -0.34111202 0.02955407 0.29431847 -0.04896036 -0.036015213
-0.29062328 0.19485056 -0.13077042 -0.055529337 0.7080114 0.5957308 0.78625435 0.59437436
-0.25796175 0.3951307 -0.51926357 -0.5092269 0.019072602 0.07186157 0.082114734 0.44140297
-0.6247652 -0.37738904 -0.41909721 -0.0110161835 -0.31396142 0.31619775 -0.6719539 -0.48083723
-0.27482763 0.021853626 -0.049070954 0.15329573 -0.39453754 -0.4619729 -0.69100505 -0.30445713
0.4716418 -0.09870763 0.76343083 0.6953089 0.36936328 -0.015824297 0.19632201 -0.4397341

net.0.bias f4 [12]
00000000: 15dd 213c 52c8 103e 8cf4 c2be 59a6 a8be
00000010: 1537 ab3e 5ac8 88be af4f c93e c17d 3a3f
00000020: e25b ba3e a8c1 8fbe 403e 573e 8dd8 05be
0.00987937 0.14138916 -0.380772 -0.32939413 0.33440462 -0.26715356 0.39318606 0.72848135
0.36398226 -0.28077435 0.2101984 -0.13070889

net.2.weight f4 [1, 12]
00000000: 94d9 c9be 1eae 0abf 791b 27be be95 823e
00000010: a027 243f fba6 9bbd c227 e93e 0033 b8be
00000020: 3ca2 0ebf 8984 ddbe 08cd bbbe 01ca 433f
-0.3942381 -0.5417193 -0.16319074 0.2550487 0.6412296 -0.07600208 0.45538145 -0.3597641
-0.557163 -0.4326518 -0.36679864 0.7648011
