notebooks/lightning_logs/version_302/checkpoints/epoch=85-step=1203.ckpt (torch, 6075 bytes, 9 tensors)

exp_avg f4 [10, 6]
00000000: 9e8b 26bc 9e8b 26bc 2eb5 693b f1b5 983b
00000010: 88d3 fb3a 344b 7a3a d630 dfb9 d630 dfb9
00000020: ffb3 9839 3975 0c39 4d01 19ba fe59 993a
00000030: 257e a9bb 257e a9bb 5616 a1ba 6818 9e3b
00000040: 08aa 043b d4d7 0bbb ee39 573c ee39 573c
00000050: 42d5 57bc 82a6 fd38 bb27 45bb 6015 a5b9
00000060: ea4c 8abb ea4c 8abb 2381 11bc 3947 fd3a
00000070: 62c6 243b 761a a83a 9a9a 973b 9a9a 973b
00000080: 9f6e 2b3b 667b 3eb9 3146 18bb afbe 043b
00000090: 84b9 d13b 84b9 d13b adc5 233b 5a7b 38ba
000000a0: 8a0d cdb9 25ca aa3b 1428 10bc 1428 10bc
000000b0: fd5b 50b9 6ff0 3b3b aa9e a739 e3cd 56ba
000000c0: de32 2b3b de32 2b3b e5ef 223b 54ed eab8
000000d0: 38ab 58bb f497 513b c61b b63b c61b b63b
000000e0: 3a85 b53b b810 a9b9 fcaf 86bb 1c1e 893a
-0.010165123 -0.010165123 0.003566097 0.004660361 0.0019212821 0.00095479493 -0.0004257026 -0.0004257026
0.00029125807 0.00013395109 -0.00058366806 0.0011699793 -0.0051725083 -0.0051725083 -0.0012289982 0.004824687
0.0020242948 -0.002133836 0.01313637 0.01313637 -0.013173403 0.000120949946 -0.0030083496 -0.00031487178
-0.0042205947 -0.0042205947 -0.008880886 0.0019323594 0.002514266 0.0012825269 0.0046265842 0.0046265842
0.0026158465 -0.00018165782 -0.0023235197 0.0020255258 0.006400289 0.006400289 0.002498965 -0.0007037424
-0.00039110734 0.005212086 -0.008798618 -0.008798618 -0.00019870694 0.0028677245 0.00031970936 -0.00081941317
0.0026122849 0.0026122849 0.0024862227 -0.00011202195 -0.0033061039 0.003198144 0.00555751 0.00555751
0.0055395635 -0.00032246648 -0.0041103344 0.0010461244

exp_avg_sq f4 [10, 6]
00000000: ff5b 1f3d ff5b 1f3d 978f 323b faa6 413a
00000010: 9e6b 013a e8f3 3d3a fbf9 293b fbf9 293b
00000020: e02e 0f3a 2935 ea38 5a9a 5939 b113 5939
00000030: 69a6 ba3c 69a6 ba3c 5bc9 a53a da67 283a
00000040: 490e 033a 91b2 0e3a 99a4 a93d 99a4 a93d
00000050: 2fad 173c 7545 553a 5d3e 2c3b 20cc 7d3a
00000060: 8941 023d 8941 023d 639d 133b 85bf 433a
00000070: 5343 e539 7da6 323a 6bc9 953b 6bc9 953b
00000080: 5484 a239 79f5 a738 ce45 ad39 f567 4039
00000090: 9fd6 d23d 9fd6 d23d 2990 183c a59b d83a
000000a0: c22a 9b3b afd2 923a 7977 c43c 7977 c43c
000000b0: ad14 d13a 8f99 123a 2add b439 3da5 ec39
000000c0: 5730 373b 5730 373b fd20 2339 28a8 0838
000000d0: fa75 0739 0c2c c838 54ef b13d 54ef b13d
000000e0: af77 dd3b 5c7b 853a e899 e93a ee63 b73a
0.038906094 0.038906094 0.002724623 0.0007387247 0.00049369957 0.00072461227 0.0025936353 0.0025936353
0.0005462002 0.00011167891 0.00020752233 0.00020702068 0.022784429 0.022784429 0.001264851 0.00064241665
0.0004999382 0.00054434786 0.08283348 0.08283348 0.009257599 0.0008135655 0.0026282289 0.0009681601
0.03180078 0.03180078 0.002252423 0.00074671983 0.00043728444 0.000681497 0.00457113 0.00457113
0.0003099764 8.0089034e-05 0.0003304914 0.00018349274 0.10294842 0.10294842 0.009311714 0.0016525878
0.0047353217 0.0011201705 0.02398275 0.02398275 0.0015951596 0.000559234 0.00034497055 0.0004513654
0.0027952397 0.0027952397 0.0001555718 3.2581534e-05 0.00012918553 9.5449475e-05 0.08688226 0.08688226
0.006758652 0.0010183859 0.0017822357 0.0013991573

exp_avg f4 [10]
00000000: 1715 b63c df53 df39 22d5 893c 07f7 e23b
00000010: 6411 863c 7a89 073b 8c74 713c a8bb 323c
00000020: 664d f53a df6d 673c
0.022226853 0.00042596363 0.016825262 0.0069264206 0.016365714 0.0020681308 0.01473726 0.010908999
0.0018715083 0.014125316

exp_avg_sq f4 [10]
00000000: b120 833c 3137 4c3a 4019 153c d339 9e3c
00000010: 0e0f 453c 9e05 a83a d50b 193d 5644 eb3b
00000020: fdaf 493a 6f54 f33c
0.0160068 0.00077902066 0.009100258 0.019314682 0.012027515 0.0012819057 0.0373648 0.007179777
0.0007693766 0.029703347

exp_avg f4 [1, 10]
00000000: 3066 2fbc 18d0 0db8 4532 2dbb b688 3e3b
00000010: f2cf 68bc 427f 353c bba2 053c 044a 89bc
00000020: f1f3 a03b 5a16 453b
-0.010705516 -3.3810822e-05 -0.0026427668 0.0029073185 -0.014209734 0.011077704 0.008156474 -0.016758926
0.0049118926 0.0030073137

exp_avg_sq f4 [1, 10]
00000000: d401 443e 9c96 f13a 2071 3c3e c355 8f3d
00000010: 3923 263e 0e24 953c fb9d ca3d 7639 8c3d
00000020: 10e6 0a3d 7120 ed3d
0.19141322 0.0018431726 0.18402529 0.069987796 0.16224374 0.018205669 0.09893414 0.06846897
0.03391081 0.11578453

net.0.weight f4 [10, 6]
00000000: 58c3 253f 65c2 083f c455 bc3e 1830 ff3e
00000010: e2fd 1b3e d6cb d6bd 96c2 c43c 6423 4fbd
00000020: d688 603d 75b9 1b3d f549 78bd edc8 973d
00000030: 4378 303f cd7e df3e f39c bd3e 3d40 5a39
00000040: 7fa7 203e aade a83e 5e13 02bf f61d 81be
00000050: f688 11bf adaf 8f3e f640 4b3d 5ea2 2fbe
00000060: 944d 553f 42df 8b3e a97f f83e 449e 73be
00000070: 08af 86be f363 e23d 0cfc bfbe c691 19bf
00000080: 55f4 b4be ea2f 993e b828 573e 0873 b83e
00000090: d4bf 0bbf f810 bbbe 17f8 8ebe febc 53be
000000a0: 1aaf 583e 6cad b7bd 9cf7 613f c67c 393e
000000b0: 1d46 da3e 0a46 a3be 0911 a9bd 2972 9dbe
000000c0: f778 cebe 3eff 0ebf 04e2 91bc 2081 893e
000000d0: 798b 6dbe a3a2 8a3d 63ef f3be 50e9 c5be
000000e0: 2354 8abe b1bb b4be 7b93 96be 8c23 863c
0.64751196 0.5342162 0.36784184 0.4984138 0.15233567 -0.10488097 0.024018567 -0.05057086
0.054817997 0.038018662 -0.060617406 0.074113704 0.68933505 0.4365143 0.37033805 0.0002081403
0.15688895 0.3298238 -0.508108 -0.2521817 -0.5684961 0.28063717 0.0496225 -0.17151782
0.833215 0.2731877 0.48534897 -0.23790842 -0.26305413 0.1105422 -0.37496984 -0.5998806
-0.3534266 0.29919368 0.21011627 0.36025262 -0.5458958 -0.36536384 -0.27923653 -0.20677564
0.21160546 -0.089686245 0.88268447 0.18114004 0.42631617 -0.31889373 -0.08255202 -0.3075116
-0.40326664 -0.5585822 -0.017807968 0.26856327 -0.23197736 0.06769302 -0.47643575 -0.38654566
-0.27017316 -0.35299447 -0.29409394 0.016374372

net.0.bias f4 [10]
00000000: bb45 b93d e054 b4be 5ec2 a13e 24d2 983d
00000010: 2b31 0d3e 4d60 5bbd cb64 4d3d c1d2 ca3c
00000020: 8f2c 2b3d 4736 4f3e
0.09046503 -0.35221004 0.31593603 0.07461956 0.13788287 -0.053558636 0.05014495 0.024758698
0.04179054 0.20235549

net.2.weight f4 [1, 10]
00000000: f0b0 123f 25e0 13be 68df fe3e c237 31bf
00000010: 0520 0a3f 3148 f7be 19c4 41bf 9c60 163f
00000020: 507f 9dbe 92ce 30bf
0.57301235 -0.14440973 0.4977982 -0.69225705 0.5395511 -0.48297265 -0.75689846 0.58741164
-0.30761194 -0.690652
