notebooks/lightning_logs/version_233/checkpoints/epoch=128-step=1805.ckpt (torch, 6267 bytes, 9 tensors)

exp_avg f4 [12, 6]
000000 ae ea 2f 3a 6b 44 34 bb 7f b9 c1 b9 16 b4 98 ba
       0.000671069 -0.00275066 -0.00036950034 -0.001165035
000010 2b 60 a1 ba 9f ee 91 3a 22 7d 2b 3b af cf ac ba
       -0.0012311985 0.0011133737 0.0026167114 -0.0013184453
000020 43 45 8d 3b 1d 99 42 ba 49 1d bf 39 fb a3 ab ba
       0.004311235 -0.00074233284 0.00036452178 -0.0013095135
000030 65 c3 aa 38 04 3f 03 bb ec e2 c1 bb 71 7e 93 ba
       8.142627e-05 -0.0020026574 -0.005916944 -0.0011252892
000040 c4 6e 29 3b 24 d3 eb 3a 9d fc 03 3c 12 71 c8 3b
       0.0025853375 0.0017992002 0.008055833 0.0061169947
000050 ed 80 27 3b 82 27 13 37 a5 23 25 b9 61 b6 8a 3a
       0.0025559023 8.771081e-06 -0.00015748905 0.0010582918
000060 c5 5f 38 3c 57 1b 82 3b 17 73 fd 3a 82 78 af ba
       0.011253302 0.0039705443 0.0019336668 -0.0013387355
000070 13 5a 29 3b cd a4 3a 3a 1e 1c 32 3c d4 4e 14 3c
       0.0025841042 0.0007119894 0.0108709615 0.009051997
000080 be 09 54 3b 53 1e 90 38 8a 0b 08 3b 69 b2 ef 38
       0.003235444 6.8721034e-05 0.002075883 0.000114296396
000090 7d bf b9 ba 5f 98 a0 bb 7e 8a 54 3a 3a 50 15 3a
       -0.0014171448 -0.0049009765 0.0008107795 0.00056958536
0000a0 1e 18 09 ba ff f7 9f b9 7e 69 2e 39 7c 17 2c b9
       -0.0005229729 -0.00030511615 0.00016633232 -0.00016411947
0000b0 a1 e4 f0 b9 25 82 20 39 90 38 32 ba 15 62 3e 3a
       -0.0004594671 0.00015307272 -0.00067985896 0.000726254
0000c0 d4 dc fc 3a 50 e8 48 bb f0 b7 88 3b 6a 72 20 ba
       0.0019291886 -0.0030656047 0.0041723177 -0.00061205646
0000d0 14 3f 93 3a 42 43 3a bb 74 11 b4 3b 59 3c cb ba
       0.0011234009 -0.0028421436 0.0054952446 -0.0015505656
0000e0 3b dd d3 3a 75 96 b9 3a 45 c4 45 3b 57 d7 3e bb
       0.0016163954 0.001415922 0.00301768 -0.0029120052
0000f0 49 59 a8 b8 1e 6f d2 b8 1b ba b8 37 e4 1a 31 b8
       -8.027495e-05 -0.000100342775 2.2021171e-05 -4.2225132e-05
000100 25 e3 81 32 ca a8 0f 38 34 dd e3 3b 80 b8 2f b9
       1.512087e-08 3.4251054e-05 0.0069538597 -0.00016758032
000110 c4 53 8c 39 82 90 df 39 58 63 79 b9 a2 90 98 3a
       0.0002676529 0.0004264154 -0.00023783499 0.0011639784

exp_avg_sq f4 [12, 6]
000000 78 11 54 39 64 75 49 39 54 b9 a1 37 4c 3c 2e 37
       0.00020224403 0.00019212585 1.9278996e-05 1.0385247e-05
000010 b1 6d 24 37 50 a8 95 37 7f 06 35 3c da 12 1b 3c
       9.800701e-06 1.784056e-05 0.011048912 0.009464944
000020 44 11 d4 39 77 27 31 39 26 80 32 39 a4 01 ca 39
       0.00040448655 0.00016894737 0.00017023142 0.00038529665
000030 70 bd ea 3b 81 57 c9 3b c5 d0 c9 3a 08 82 84 39
       0.007163696 0.0061444645 0.0015397301 0.00025273883
000040 75 62 1a 39 34 9a c0 39 a0 d2 af 3b 1d 96 8d 3b
       0.00014723263 0.00036735984 0.0053656846 0.0043208734
000050 00 68 33 3a 09 d4 ef 38 2a 08 77 39 3d d0 71 39
       0.00068438053 0.00011435903 0.00023558797 0.00023061126
000060 6a ba 27 3c 67 86 07 3c 60 d7 ad 3a f9 96 61 39
       0.010237316 0.00827179 0.0013263039 0.00021513914
000070 58 70 03 3a 58 a4 8b 39 3d 28 e1 3c 1b d1 f7 3c
       0.0005013994 0.00026634592 0.027485007 0.030251076
000080 10 a7 84 3b d4 41 06 3a ac 24 f0 39 05 a8 9e 3a
       0.0040482357 0.00051215035 0.0004580369 0.0012104517
000090 55 2f 1f 3b 8e d8 32 3b f2 6a 89 39 7c 5a 16 39
       0.0024289687 0.0027289721 0.00026210357 0.00014338823
0000a0 c0 bb 04 39 09 b0 4c 39 37 26 db 3b 9d 95 af 3b
       0.00012658443 0.00019520534 0.006687905 0.0053584115
0000b0 03 47 fd 39 eb f6 f5 38 11 65 3d 39 d4 e4 ed 39
       0.00048308828 0.000117285024 0.00018062095 0.00045374653
0000c0 e7 d9 3f 3c 5e 85 2d 3c 85 86 62 3a 9c 4b 50 39
       0.011709667 0.010590879 0.0008641261 0.00019864592
0000d0 55 ba 98 39 14 e7 fe 39 63 8a 19 3c e7 ef 1f 3c
       0.00029130527 0.00048618822 0.009371373 0.009761787
0000e0 79 bf b5 3a ff 82 4b 39 70 a3 c1 39 2a 2e 9d 39
       0.0013866267 0.00019408388 0.000369336 0.00029979768
0000f0 5a bb 3f 3a 79 cb 40 3a 79 cb ea 37 62 a2 12 38
       0.00073139893 0.00073545385 2.7989723e-05 3.4960343e-05
000100 83 15 fe 37 57 4e 2a 38 7e 70 0f 3c ed a7 dd 3b
       3.0289177e-05 4.0604118e-05 0.008754848 0.006764403
000110 bd c0 5c 3a a7 12 4e 39 74 c0 98 39 c6 f7 7e 39
       0.0008421054 0.0001965264 0.00029135088 0.0002431563

exp_avg f4 [12]
000000 a0 85 2b 3b 98 9e c5 3b 4f c6 31 3b 7e b6 9d 3b
       0.0026172176 0.0060308687 0.0027126258 0.0048130145
000010 2f 33 9c 3b d4 ca d2 bb 91 41 54 3a 9d 4f 14 3c
       0.0047668437 -0.0064328704 0.00080969284 0.009052184
000020 79 38 15 3c 23 e2 47 3b 9a a1 06 38 6a 89 f8 ba
       0.009107702 0.0030499778 3.2098593e-05 -0.0018961851

exp_avg_sq f4 [12]
000000 cd 0a b3 38 ec 74 33 3a b5 0b d9 39 69 55 3e 3b
       8.537397e-05 0.0006845731 0.00041398188 0.0029042608
000010 2d 44 f7 3b 04 3f c6 3a 0a 15 00 3a a5 fc 9e 3a
       0.007545969 0.0015124981 0.00048859476 0.0012129737
000020 8a 3a 13 3b 7d a6 89 3a fd db a6 39 db c6 8e 3b
       0.0022465312 0.0010501888 0.0003182589 0.0043572015

exp_avg f4 [1, 12]
000000 c8 d9 17 bc 21 56 2d 3c 98 1a 8f bb b2 77 d2 3c
       -0.009268232 0.010579617 -0.004367184 0.02569184
000010 e9 5b dd 3c 34 05 81 ba bb 5b cd ba 1c d4 3a bb
       0.027021365 -0.000984347 -0.0015667597 -0.0028507775
000020 51 62 aa 3b e1 67 13 3c da 3a db 37 1c 29 02 3c
       0.0051997085 0.008996935 2.613424e-05 0.007944372

exp_avg_sq f4 [1, 12]
000000 b7 68 f2 3a 5e b7 05 3d 54 fa 36 3b 69 29 13 3e
       0.0018494342 0.032645576 0.0027920203 0.14371265
000010 d8 ae 9a 3e 88 92 42 3d be 87 d6 3a d5 0d c9 3c
       0.3021152 0.047503024 0.0016367359 0.024542728
000020 07 52 42 3d 95 32 02 3c 54 fc 98 3a bc e0 02 3e
       0.04744151 0.00794663 0.0011671879 0.12781042

net.0.weight f4 [12, 6]
000000 12 9f 97 3e e8 46 c3 3e 00 6e be 3e b6 cd 06 3e
       0.2961355 0.38140035 0.37193298 0.1316441
000010 51 32 bf 3d bb 14 11 be 59 d6 c1 3e cc da a5 3e
       0.09335769 -0.14168064 0.37858847 0.3239349
000020 e5 d7 00 3f b0 d3 d7 3c f9 7d 8c be 47 22 f9 3d
       0.5032943 0.026346058 -0.2743986 0.12164741
000030 d2 1a b3 3e 61 62 db 3e ed 34 41 3e 2d 12 04 bd
       0.349814 0.42848495 0.18867846 -0.032243896
000040 a4 f1 21 bd 65 32 26 3d 98 91 2f bf 69 b8 5e bf
       -0.039537087 0.040575404 -0.68581533 -0.8700014
000050 61 68 22 bf 66 10 8e 3e d5 44 7e be cb c1 04 bf
       -0.6344052 0.27746886 -0.24830945 -0.51858205
000060 07 0c 89 bf 91 97 47 bf 00 6a e8 be 51 01 80 3d
       -1.0706795 -0.77965647 -0.45393372 0.06250251
000070 ca 42 9c 3e e0 d6 81 3d f2 d1 f1 3e 8e e8 93 3d
       0.30519706 0.06339812 0.47230488 0.07222091
000080 6c db 01 3e cd bc 3e bd 67 53 57 bd 76 b3 8b bd
       0.12681359 -0.046566773 -0.052569773 -0.06821339
000090 94 8b 2e 3e 14 41 df 3c 0f 2a 97 3e df 9a 5b 3e
       0.17045432 0.027252711 0.29524276 0.21445797
0000a0 2d a0 97 3d b8 91 3e be 2d a4 c3 3e e0 76 1a 3f
       0.07403598 -0.18610275 0.38211194 0.6033764
0000b0 11 b7 e7 3e 02 7f dd bd 77 35 80 3e 78 d4 81 3e
       0.45256856 -0.108152404 0.2504079 0.25357413
0000c0 c9 f2 02 3f fc 88 c4 3e bc 8b 35 3e 32 2f 5e be
       0.5115171 0.3838576 0.17729086 -0.21697691
0000d0 7f 76 bb bd 24 ae a7 3d f5 40 04 3f 87 33 79 3d
       -0.09153461 0.081875116 0.51661617 0.060840156
0000e0 3f d8 c7 3d 4f 3f 51 3e a1 52 f4 3c 3d bd 6a be
       0.097580425 0.20434307 0.029824557 -0.22923751
0000f0 41 9e b5 bd 3d 91 93 bd e4 9e b7 3c 4d c9 3d bc
       -0.08868075 -0.072054364 0.022414632 -0.011583638
000100 e5 19 54 bc 9d 30 c3 3c 29 0a b1 be 7a d9 2d bf
       -0.012945627 0.023826892 -0.34578064 -0.6790997
000110 68 23 20 bf 64 db a9 be 46 78 75 be 81 99 98 3e
       -0.62554026 -0.33175194 -0.23971662 0.29804614

net.0.bias f4 [12]
000000 6c a9 e9 be 14 58 a6 3e dc f1 9e be 80 b8 80 3e
       -0.4563707 0.32489073 -0.310439 0.25140762
000010 87 c3 9a 3e 17 18 85 3f b0 e8 da be c0 51 0b be
       0.302273 1.0397977 -0.4275565 -0.13605404
000020 67 1e 6c 3e d1 ab 49 3e 7a da e6 be 31 60 51 3f
       0.23058473 0.19694449 -0.4508856 0.817874

net.2.weight f4 [1, 12]
000000 b8 2b 90 3e 39 26 d6 3e 3f 66 22 3f 57 25 ea be
       0.28158355 0.41826037 0.63437265 -0.45731613
000010 c6 e3 02 bf d2 99 16 3f d9 5d 5c 3e a9 36 03 3f
       -0.51128805 0.5882846 0.21520175 0.5125528
000020 3b f2 f2 3e cb 9f 01 3f 60 c1 84 3d 46 f4 f0 be
       0.47450432 0.5063445 0.06482196 -0.47061366
