notebooks/lightning_logs/version_0/checkpoints/epoch=137-step=1931.ckpt (torch, 6267 bytes, 9 tensors)

exp_avg f4 [12, 6]
0	0x3a29b549	0.0006473852
1	0xbbaae3dd	-0.0052151517
2	0xb9665a17	-0.0002196807
3	0x3b12e741	0.002241567
4	0xbad30d3b	-0.0016101965
5	0xbb747b83	-0.0037305064
6	0x3ad78dc5	0.0016445449
7	0x3a0693f5	0.00051337417
8	0x3bf5f23b	0.0075056828
9	0xbae2f100	-0.0017314255
10	0x3b72a16c	0.0037022484
11	0x3b5121cb	0.0031911011
12	0x3a90eb7c	0.0011056508
13	0x3aa9e789	0.001296268
14	0xba12d9e3	-0.00056019257
15	0xb9af1926	-0.00033397338
16	0x39de7197	0.0004242777
17	0x3b5a7c06	0.0033338084
18	0x3bd3678a	0.006451552
19	0x3aae00a2	0.0013275335
20	0x3a060bb0	0.0005113436
21	0xba7ac639	-0.00095662806
22	0x3af52111	0.0018701871
23	0x3b59279d	0.0033135184
24	0x3b6521a4	0.0034962678
25	0x3af11c56	0.0018395286
26	0xba982b92	-0.0011609665
27	0x37d621bc	2.5526497e-05
28	0x3ac1bde6	0.0014781326
29	0x3a4be751	0.0007778304
30	0xbbc2f6a4	-0.005949812
31	0xbb8a4f19	-0.004220855
32	0xbaad0fa7	-0.0013203517
33	0x38d1ad41	9.998168e-05
34	0x3ba50af0	0.0050367042
35	0x3baae4fd	0.005215286
36	0x3bbf1240	0.005831033
37	0x3abd59fb	0.0014446372
38	0x3abbe379	0.001433476
39	0xba232a78	-0.0006224285
40	0x3a127e86	0.00055883115
41	0x3abbb36f	0.0014320443
42	0x39e1052f	0.00042919206
43	0xbb9fb220	-0.004873529
44	0xbb3cdffc	-0.0028820029
45	0x3b1e693e	0.0024171616
46	0xbaba57a6	-0.0014216795
47	0xbb905a22	-0.004405276
48	0xbbb0c55f	-0.005394622
49	0xbb2203d9	-0.0024721532
50	0xba66cb6a	-0.0008804115
51	0xb900e420	-0.00012292014
52	0x3b07285f	0.0020623428
53	0x3b5c7c1b	0.0033643309
54	0x39b3af71	0.00034272255
55	0xbabe7609	-0.0014531027
56	0xbaa090f4	-0.0012250231
57	0x3b2e5238	0.00265993
58	0xbabc3f12	-0.0014362058
59	0xbade947e	-0.001698151
60	0x3b5a87bc	0.0033345064
61	0x3ac7c096	0.001523989
62	0x3b668066	0.0035171746
63	0x3a3c567e	0.0007184519
64	0x3a4c06f4	0.00077830185
65	0x39cda528	0.00039223698
66	0x3c0a9d1e	0.008460311
67	0x3b90761f	0.0044086124
68	0x3a44e7f0	0.0007511368
69	0x3b2352f4	0.002492127
70	0xbbe3668a	-0.006939714
71	0xbbdc2bec	-0.006719103

exp_avg_sq f4 [12, 6]
0	0x3c037b73	0.008025038
1	0x3bbeebdd	0.005826457
2	0x3b3ee2ae	0.002912681
3	0x3a0ee963	0.00054516474
4	0x39e7b4e7	0.00044194536
5	0x3a0c3e58	0.0005349866
6	0x3c947d10	0.01812604
7	0x3c55ab33	0.013041305
8	0x3bd96c74	0.006635243
9	0x399c54a5	0.00029817704
10	0x39dea5e1	0.0004246673
11	0x3a9843b3	0.0011616856
12	0x3bd52df4	0.006505722
13	0x3b906ab1	0.00440725
14	0x3ab4e4a4	0.001380105
15	0x391264bf	0.00013961176
16	0x3954fbd7	0.00020311713
17	0x39d2f998	0.00040240283
18	0x3b9d7c02	0.0048060426
19	0x3b59ea22	0.0033251126
20	0x3a98a28a	0.001164512
21	0x38cf581a	9.8869394e-05
22	0x390cfbed	0.0001344529
23	0x39bdc651	0.00036196646
24	0x3a5c3456	0.00084001326
25	0x3a0a50c4	0.0005276317
26	0x396b9cdb	0.0002246978
27	0x37dede42	2.656796e-05
28	0x381b533d	3.70324e-05
29	0x38b51861	8.6352935e-05
30	0x3c1966ea	0.0093629155
31	0x3bceae0e	0.00630737
32	0x3b563a06	0.0032688393
33	0x3926a97d	0.00015894133
34	0x39b023d1	0.0003359602
35	0x3a2e2f87	0.00066446554
36	0x3c80ca46	0.015721451
37	0x3c370ee5	0.011172985
38	0x3b8b7b5c	0.004256649
39	0x396a7a37	0.00022361508
40	0x39f0a697	0.00045900486
41	0x3a7afa98	0.00095740845
42	0x3c1c669e	0.00954595
43	0x3bdcb5ad	0.0067355246
44	0x3b5fe494	0.0034163343
45	0x3a0c4390	0.0005350644
46	0x3a124866	0.0005580246
47	0x3a117014	0.0005548012
48	0x3ab5a267	0.0013857604
49	0x3aa5bb83	0.0012644384
50	0x39cf3c40	0.00039527006
51	0x3907cadb	0.00012950173
52	0x3985c13c	0.00025511708
53	0x39bd704b	0.00036132554
54	0x3b979fd3	0.004627207
55	0x3b5e26bb	0.0033897597
56	0x3aae652f	0.0013305302
57	0x394fb4f8	0.00019808474
58	0x3975cfc1	0.00023442415
59	0x398e328f	0.0002712202
60	0x3a175b7d	0.00057738257
61	0x39b1c8ec	0.0003390977
62	0x39447f9e	0.00018739558
63	0x37d75d95	2.5673575e-05
64	0x382c5735	4.1089213e-05
65	0x38920781	6.96322e-05
66	0x3d3be30b	0.045870822
67	0x3d06d550	0.032918274
68	0x3c6fb84f	0.014631345
69	0x3abcd758	0.0014407439
70	0x3b2e92d3	0.0026637807
71	0x3ad5406c	0.001626981

exp_avg f4 [12]
0	0x3c641768	0.013921596
1	0x3c0c2a29	0.008554974
2	0x3b4480c5	0.002998398
3	0x3c00b8ba	0.007856542
4	0x3b8d06ac	0.004303774
5	0xbbbc0c4f	-0.005738772
6	0x3c0296de	0.00797054
7	0x3ca21e26	0.019789767
8	0xbbff56f0	-0.007792346
9	0x3c043d42	0.008071246
10	0x3b2ed5f4	0.002667782
11	0x3b9ccd92	0.004785248

exp_avg_sq f4 [12]
0	0x3b970553	0.004608789
1	0x3bab20db	0.0052224225
2	0x3a03203f	0.00050020585
3	0x3b2f566a	0.0026754388
4	0x39f6d25b	0.00047077503
5	0x3a82ca6b	0.0009978538
6	0x3b9823fb	0.004642961
7	0x3b9bb694	0.0047519896
8	0x3a4f6679	0.0007911693
9	0x3a351bab	0.0006908725
10	0x39006284	0.00012243731
11	0x3c072dd3	0.008250671

exp_avg f4 [1, 12]
0	0xbb6db08c	-0.003626856
1	0xbb960aa3	-0.0045789047
2	0x398a8420	0.00026419852
3	0x3c488427	0.012238539
4	0x3bdbaee7	0.0067041996
5	0x3b578fe4	0.0032892162
6	0x3b663d8d	0.0035131902
7	0xbb8b6928	-0.004254479
8	0x3bcf6caf	0.0063300948
9	0x3a4974d0	0.0007684948
10	0x3c87cc31	0.016576858
11	0x3c274543	0.010209384

exp_avg_sq f4 [1, 12]
0	0x3dccc753	0.099989556
1	0x3dca023f	0.0986371
2	0x3c01ec7b	0.0079299165
3	0x3d0c8483	0.03430606
4	0x3d1c9e1e	0.03823673
5	0x3cb0b420	0.021570265
6	0x3ca52056	0.02015702
7	0x3d6f9c57	0.058498707
8	0x3c7fda2a	0.015615979
9	0x3c80f3a4	0.015741177
10	0x3c8b0303	0.01696921
11	0x3d619196	0.055070482

net.0.weight f4 [12, 6]
0	0x3f603568	0.8758149
1	0x3f2028e6	0.62562406
2	0x3ebdf4df	0.37100884
3	0x3dffe0ef	0.124940746
4	0x3c520d4d	0.012820554
5	0x3e0689b6	0.1313847
6	0xbf232528	-0.6372857
7	0xbee3c06e	-0.4448275
8	0xbd5cddbf	-0.05392241
9	0x3e88e542	0.2673741
10	0x3dcd514f	0.10025274
11	0x3ec803ab	0.39065298
12	0xbd3377c2	-0.04381538
13	0xbec811c4	-0.39076054
14	0xbef380a9	-0.47559097
15	0x3dda6d32	0.106653586
16	0x3e89ce27	0.26915094
17	0xbe711502	-0.2354317
18	0xbefdd9ff	-0.4958038
19	0xbf163f89	-0.58690697
20	0xbec5dc60	-0.38644695
21	0xbe2e6a04	-0.17032629
22	0xbd5d4214	-0.054018095
23	0x3d4f584e	0.050621323
24	0xbefbf492	-0.4921003
25	0xbedda392	-0.43288857
26	0xbf0f0b2c	-0.5587642
27	0x3e9b2cd8	0.3030765
28	0xbd47d2c5	-0.04878499
29	0x3e205024	0.15655571
30	0xbe4bf5b3	-0.19917946
31	0xbed5424e	-0.4165215
32	0xbcb0bbf9	-0.021574007
33	0xbe2d235a	-0.16908017
34	0x3e1bc9d4	0.1521371
35	0xbea10136	-0.31446236
36	0xbe963fef	-0.29345652
37	0xbee4458c	-0.4458431
38	0xbe7445da	-0.23854771
39	0x3d96f1d4	0.07370344
40	0xbe935837	-0.2877824
41	0x3e05ee1f	0.13079117
42	0x3f35c5be	0.71004856
43	0x3f207d6b	0.6269137
44	0x3ed1ede0	0.41001797
45	0xbeadcd34	-0.3394562
46	0x3e1661af	0.14685701
47	0xbecdd730	-0.40203238
48	0xbf261419	-0.64874417
49	0x3eb8aac0	0.36067772
50	0xbe99d87b	-0.30047974
51	0xbdf2a3c5	-0.11847643
52	0xbd9b6bef	-0.07588946
53	0x3c43ba5c	0.011946287
54	0x3e227863	0.15866236
55	0x3ecfa540	0.40555763
56	0x3eccf743	0.40032396
57	0xbcfc4d24	-0.030798502
58	0xbec8fbb3	-0.3925453
59	0x3ebf46a7	0.3735859
60	0xbf2991d7	-0.6623816
61	0xbee48d3b	-0.44639
62	0xbe9c235c	-0.30495727
63	0xbe0bc243	-0.13648324
64	0x3dd613b7	0.10452979
65	0xbea7578e	-0.32683986
66	0x3ea51268	0.32240605
67	0x3e9bde46	0.3044302
68	0x3ea31ea1	0.31859306
69	0x3e2aa082	0.16662791
70	0x3dce910a	0.10086258
71	0x3cb60d08	0.02222301

net.0.bias f4 [12]
0	0x3d961101	0.07327462
1	0x3ea1127f	0.31459424
2	0x3e98374b	0.29729685
3	0xbe35e280	-0.17762184
4	0x3cf9bf10	0.030486614
5	0x3f155f21	0.5834828
6	0x3dd51e28	0.104061425
7	0x3cd805e1	0.02636999
8	0x3f3717c5	0.71520644
9	0x3e3654e1	0.17805816
10	0xbeb5a52c	-0.3547758
11	0x3f1df077	0.61695045

net.2.weight f4 [1, 12]
0	0x3f0a48cb	0.54017323
1	0xbef3dc4c	-0.4762901
2	0xbeb9b681	-0.36272052
3	0xbeded5c3	-0.43522462
4	0xbe7e3763	-0.24825816
5	0xbec37107	-0.3817217
6	0xbf084794	-0.5323422
7	0x3f1e1370	0.6174841
8	0xbee0deb7	-0.43919918
9	0x3eb8f692	0.36125618
10	0xbe9bdc70	-0.30441618
11	0x3f2b6327	0.6694817
