notebooks/lightning_logs/version_148/checkpoints/epoch=64-step=909.ckpt (torch, 6267 bytes, 9 tensors)

exp_avg f4 [12, 6]
00000000: 4ae9 bf39 ae31 833c 2418 71bb f2ae b2bb
00000010: 8630 393b b9ea cdbb 48dd 033a 7674 743c
00000020: 667e 48bc dbb0 46bb 71a3 563b 21cf 5b3b
00000030: f7e0 5eba 2067 69bc baef d73a 8cca 463c
00000040: f818 2fbc 4468 2b3c 9ebe 6bba b504 bdbb
00000050: 908e f53a 81bf d33a 849d c4bb c10b 5fbc
00000060: 6c1e b9b8 a149 de3c f6ad 17bc 9a91 08bc
00000070: a8ca 4e3c 8107 adbb c2d3 70ba d7db 93bb
00000080: 7df5 7fbb 8531 bb3a c2ff dd3a cfb9 35bc
00000090: f3db 41b9 6b2c c8ba 0ec9 b33b e11a b33b
000000a0: a9ef c53a 3401 caba d085 273a fd6b c63c
000000b0: 3006 94bb e09b 6cbb 8e94 84bb 4ae4 e0bb
000000c0: 073e a136 1c79 af3c 56b6 1dbc 9218 84bc
000000d0: de36 e1bb 9f39 bfbb be3e dcb8 0d8b 04bb
000000e0: 5fcb fcb9 d977 523a efd8 ecba f034 243a
000000f0: eff6 6cba 8230 32bb 3bba 98ba 28a9 343b
00000100: 0b85 e8bb 6891 70bc 1e2a b23a c631 b63c
00000110: 6481 89bc b452 34bc 4411 3c3c b6df 9a3b
0.00036604173 0.0160149 -0.003678807 -0.005452984 0.0028257682 -0.0062840846 0.0005030227 0.014920345
-0.012237167 -0.0030317816 0.0032751227 0.0033540206 -0.00085021503 -0.014245778 0.0016474642 0.012133252
-0.010687105 0.010461871 -0.0008992943 -0.0057683834 0.0018734504 0.0016155095 -0.0060002226 -0.013613642
-8.827154e-05 0.027134718 -0.009257784 -0.008335495 0.012621559 -0.0052804356 -0.0009186828 -0.004512291
-0.0039056235 0.0014281726 0.0016937184 -0.0110916635 -0.00018487852 -0.0015272027 0.005486614 0.0054658507
0.0015101332 -0.0015411736 0.0006390484 0.024221415 -0.004517339 -0.003610365 -0.0040460294 -0.0068631517
4.805395e-06 0.021420054 -0.009625992 -0.016124997 -0.0068729958 -0.0058357264 -0.00010502104 -0.0020224482
-0.0004821671 0.0008028723 -0.0018070022 0.0006263992 -0.00090394815 -0.0027189557 -0.0011652181 0.0027566645
-0.007095938 -0.014683105 0.0013592874 0.02224053 -0.016785331 -0.011006046 0.011478726 0.0047263755

exp_avg_sq f4 [12, 6]
00000000: 7b95 5736 c011 d83b 5920 3c3b 27cc ed3a
00000010: b8c4 a23a a043 db3a a414 9d36 7279 203c
00000020: dec7 723b 1f62 ee3a 328d ad3a 980d f93a
00000030: ec9e 0737 d3b3 4b3c f651 b43b 43b0 203b
00000040: 6630 783b e576 823b c22b e836 54f2 c83b
00000050: d605 b03b bb0c d53a 30c3 283b d1cd 003b
00000060: dfe4 3e37 72d5 883c 9f48 a93b bc1c 4a3b
00000070: aa9d 183b 1341 953b 8077 3c37 7741 ae3c
00000080: d433 8f3c 0cf6 b03b e152 9d3b fa03 543b
00000090: d2eb 0636 b1ba 023c d8bb 5b3b dfdb 0a3a
000000a0: e909 e739 8053 093a dc92 9036 b1e4 583c
000000b0: bad0 a13b f71d 443b fe3e 033b 1699 6b3b
000000c0: bddb 4137 a742 b03c db69 423c da5a d73b
000000d0: dfca 603b dbef bf3b ed61 8a35 898b 803b
000000e0: 1d7b 0e3b 5ecc 1239 a0c9 5239 d50c 1a39
000000f0: 3349 6837 ee6a 493c 30af 023c 560c d73a
00000100: 18c5 253b 4d1b 483b 3d30 7137 cd67 0e3d
00000110: 6dc1 613c 41f5 ba3b 0df8 b03b bb33 c73b
3.2124506e-06 0.006593913 0.0028705804 0.0018142507 0.0012418246 0.0016728528 4.6813675e-06 0.00979458
0.00370454 0.0018187201 0.0013240932 0.0019001244 8.083629e-06 0.01243301 0.0055029346 0.0024519123
0.0037870645 0.0039814585 6.919233e-06 0.0061324034 0.0053717894 0.0016254404 0.0025751106 0.0019653926
1.1378171e-05 0.016703341 0.005166128 0.003083988 0.0023287334 0.0045548766 1.12334965e-05 0.02127145
0.017480768 0.005400425 0.0048011397 0.0032351003 2.0104821e-06 0.007979081 0.0033528712 0.00052970456
0.00044067137 0.0005238578 4.308631e-06 0.013238118 0.004938212 0.0029925087 0.002002656 0.00359494
1.1554858e-05 0.021516157 0.011866058 0.0065721096 0.0034300608 0.0058574504 1.0310301e-06 0.003922884
0.0021740862 0.00013999778 0.00020102272 0.00014691365 1.3845321e-05 0.01229356 0.007976338 0.0016406875
0.002529448 0.003053385 1.4375951e-05 0.03476696 0.013779026 0.005705506 0.0054006637 0.006079165

exp_avg f4 [12]
00000000: d63d 1dbc ad15 58bc 4a9d b63c ec27 c13c
00000010: 08ad 173b 0252 c53c 60d6 9e3b 3f42 89bc
00000020: 901c 04b9 de74 343b d427 c23c 5ffa 11bd
-0.009597262 -0.013188762 0.022291798 0.023578607 0.0023143906 0.024086956 0.004847333 -0.016755221
-0.00012599141 0.0027535479 0.023700632 -0.035639163

exp_avg_sq f4 [12]
00000000: 16ba 103b 69e7 523b 6817 b63b a8dc 9b3b
00000010: f226 003c 780b fd3b e626 b53a a61c 423b
00000020: 4e24 023c a9cc 393a 7af0 1b3c 6eea 213c
0.0022083572 0.0032181388 0.0055569895 0.004756529 0.007821785 0.0077223144 0.0013820797 0.0029619127
0.007943226 0.00070876867 0.009517783 0.009882553

exp_avg f4 [1, 12]
00000000: f269 583d 72f9 643c 0e8c 1f3c 2910 573c
00000010: 4fd9 ee3c 9e1a 2a3c 9e4d b43b 44c1 f43c
00000020: 46e2 f4ba 0c60 913c 0049 13b9 fbb5 d03c
0.052835412 0.013975488 0.0097379815 0.0131264115 0.029156355 0.010382323 0.0055024168 0.029877312
-0.0018683157 0.017745994 -0.00014046207 0.0254774

exp_avg_sq f4 [1, 12]
00000000: 97f1 303d 2bb8 be3d d60b 503d 0c02 603d
00000010: 01a1 f23c 813b 5e3d f824 a53c 0ee3 2e3d
00000020: d486 2d3c 9f16 bf3c 1d8d 4a3d c3ed a63c
0.043199148 0.09312471 0.050792538 0.054689452 0.029617788 0.054255966 0.02015923 0.042697005
0.010591228 0.023326216 0.049450982 0.020377045

net.0.weight f4 [12, 6]
00000000: a0ad 163c 3887 0fbf e0cd aebd ad24 4b3e
00000010: a93a ca3d 870f be3e 248f 86be 675c b2be
00000020: 3cd9 21bf 529a 82be e3b7 c7be 8b94 7f3e
00000030: eb0e 59be 4f4a d03e cb1f 2c3f 966f aab9
00000040: 2b87 12be 04a3 be3b c72d f8be 66a5 343f
00000050: baff 093e a8c4 2e3e 8da2 eb3d c703 773e
00000060: bc2c 27bf d1e6 3bbf 3aa8 59be 74ba 84bd
00000070: 20e6 d63d d785 60be a839 9dbe 70eb 353f
00000080: 3d3c b23d d28a 31be da40 c13c fd82 7a3e
00000090: e81d 32be 084d 443c b0b5 063e 2690 d1bd
000000a0: f01b 9dbe b781 5bbe 2d8b 01bf fe12 07bf
000000b0: c2b2 cf3b fe51 ef3e b6c8 c2be 309a d9be
000000c0: 32c0 70bd 4d34 5ebe 464c 10bf 9c76 8abd
000000d0: 709b 2a3d 74b5 b93d dbe5 0e3e 5d9c bfbd
000000e0: 9d27 643e fad0 b6bd bcd8 e73a dc09 a3bd
000000f0: fc82 8cbb 6e9f 2f3f 6daa 133f e065 b43e
00000100: 24c3 f83d 64ac 7ebe f6da aebb 0b4c bbbe
00000110: 29bd 89be 6dcf 8f3d 7474 6b3e a6a1 023e
0.009196669 -0.560657 -0.08535361 0.1983821 0.0987447 0.3712122 -0.26281083 -0.34836122
-0.632221 -0.25508362 -0.39007482 0.24959008 -0.21197097 0.40681693 0.6723601 -0.00032508065
-0.14309375 0.005817773 -0.48472425 0.7056488 0.13476458 0.17067206 0.115056135 0.24122535
-0.65302634 -0.7339907 -0.2125558 -0.064808756 0.104931116 -0.21926056 -0.3070805 0.71062374
0.08702896 -0.17338112 0.023590494 0.2446403 -0.17394221 0.011981256 0.13155246 -0.10232572
-0.30685377 -0.21436201 -0.5060299 -0.52763355 0.0063384483 0.46742243 -0.38043755 -0.42500448
-0.05877704 -0.21699639 -0.56366384 -0.06760904 0.041652143 0.090678126 0.1395487 -0.09355996
0.22280736 -0.08926578 0.0017688493 -0.07960865 -0.0042880755 0.68602645 0.57681924 0.35233974
0.12146595 -0.2487045 -0.005336161 -0.36581454 -0.2690213 0.07021985 0.22993642 0.12756976

net.0.bias f4 [12]
00000000: 1e29 263f ea72 0d3f dacf a83e 4f08 063f
00000010: 4ea8 0abe 2dd4 fb3e ebdb 0d3e 9d86 a33d
00000020: c2dc b93d 2e37 6d3e 0220 6dbd 573e c53e
0.6490649 0.5525347 0.32971078 0.5235643 -0.13540766 0.49185315 0.13853423 0.0798466
0.09075309 0.2316558 -0.057891853 0.38524124

net.2.weight f4 [1, 12]
00000000: 8b5f aebe 571f a5be 3d34 ed3e 8bb6 cf3e
00000010: 5993 04bf 31d9 0d3f 9f05 073e 3eb2 c7be
00000020: 32a6 16bf bef8 033d 0993 023f 61d6 14bf
-0.34057269 -0.32250473 0.46328917 0.40568957 -0.51787335 0.5540953 0.13185738 -0.39003175
-0.58847344 0.03221964 0.5100561 -0.58139616
