notebooks/lightning_logs/version_30/checkpoints/epoch=120-step=1693.ckpt (torch, 6267 bytes, 9 tensors)

exp_avg f4 [12, 6]
0.00598704 0.0040787337 0.0039618155 -0.003169435 -0.0013331439 0.0027044378 0.0023200403 0.0009808714
0.0007297027 0.00370125 0.0031609829 -0.002950292 0.0006477434 0.00016138845 -0.0010687402 0.00076429057
-0.0005597447 0.0012311776 0.004788136 0.0042513255 0.003452451 -0.0010670668 -0.0031715417 0.0028059802
0.0026217387 0.0011213056 -0.00013827495 0.0020627931 0.0024454317 -0.0021634959 -0.0041535455 0.00010553211
-0.0021672929 0.00054961623 0.0006994441 0.0009127973 -0.00010609459 -0.00078902417 -2.5691774e-05 -3.8274837e-05
0.00022267604 4.9705337e-05 0.002742306 -0.004453252 0.0017747106 -0.0016534197 0.0014599859 -0.00033517132
0.0018420989 0.0034782807 -0.000931186 -0.002718902 -0.0024114116 0.0023562647 -0.0027199879 0.0030955803
-0.0013915602 0.002089088 -0.00082436524 0.00078717887 -0.000102702375 -0.00080177776 2.429825e-05 7.22974e-05
0.00010286169 -0.00020148203 0.006769879 0.000765434 0.0029783063 0.0039214888 0.0025328049 -0.0016571757
00000000: ee2e c43b e6a6 853b 1ed2 813b 4cb6 4fbb
00000010: e3bc aeba f03c 313b d10b 183b 9590 803a
00000020: 8549 3f3a ac90 723b 7e28 4f3b b059 41bb
00000030: 53cd 293a 623a 2939 f814 8cba ac5a 483a
00000040: d5bb 12ba 775f a13a cce5 9c3b b44e 8b3b
00000050: 8442 623b d2dc 8bba a4d9 4fbb 89e4 373b
00000060: 7ad1 2b3b c6f8 923a e6fd 10b9 ed2f 073b
00000070: 8943 203b 70c9 0dbb 771a 88bb 1f51 dd38
00000080: 2409 0ebb 1f14 103a e65a 373a ca48 6f3a
00000090: 197f deb8 84d6 4eba aa84 d7b7 4b89 20b8
000000a0: 257e 6939 b37a 5038 43b8 333b 96ec 91bb
000000b0: 689d e83a 8fb7 d8ba ff5c bf3a efb9 afb9
000000c0: 9572 f13a def3 633b d61a 74ba 9b2f 32bb
000000d0: c608 1ebb 906b 1a3b d341 32bb 38df 4a3b
000000e0: 0365 b6ba 15e9 083b 371a 58ba ae5a 4e3a
000000f0: eb61 d7b8 652e 52ba 18d4 cb37 5f9e 9738
00000100: 73b7 d738 ec44 53b9 dcd5 dd3b 68a7 483a
00000110: b02f 433b d57f 803b 6afd 253b 9735 d9ba

exp_avg_sq f4 [12, 6]
0.015257907 0.009194102 0.0025996426 0.0003639319 0.0004116707 0.00032067954 0.008247895 0.003908765
0.003135667 0.0005326245 0.00027442144 0.00075360865 0.0009347296 0.00055003236 0.0003968782 4.032118e-05
4.07566e-05 3.9909042e-05 0.013860712 0.00803469 0.0025166322 0.00028306278 0.00035613342 0.00039170226
0.007952594 0.0046381727 0.0033772525 0.0001441046 0.0005284771 0.00023119162 0.00011230529 5.568193e-05
2.905982e-05 1.089852e-05 9.758861e-06 1.353096e-05 0.0034883074 0.0026062005 0.00046127778 6.2421284e-05
7.231971e-05 7.1472365e-05 0.0042734784 0.003072915 0.0013913689 0.00011776295 0.00022172635 0.00016946445
0.023120614 0.013872532 0.0030534477 0.00049451913 0.0005803802 0.00068494113 0.0060809837 0.0034949877
0.0015057366 0.00021447056 0.00018617633 0.00023198122 0.0026896652 0.0018303285 6.449579e-05 7.384157e-05
0.000102156555 0.000121914054 0.0025995458 0.0023913581 0.00053905364 0.00018945683 0.00013418641 0.00012943515
00000000: 4dfc 793c dca2 163c c45e 2a3b 1dce be39
00000010: 82d5 d739 e120 a839 2e22 073c 1915 803b
00000020: c37f 4d3b d39f 0b3a 39e0 8f39 d28d 453a
00000030: a408 753a 0c30 103a 1714 d039 8a1e 2938
00000040: 11f2 2a38 0264 2738 0a18 633c efa3 033c
00000050: 15ee 243b 0b68 9439 6bb7 ba39 635d cd39
00000060: 994b 023c d0fb 973b e554 5d3b c91a 1739
00000070: 7f89 0a3a 076c 7239 7285 eb38 048c 6938
00000080: 7dc5 f337 c9d8 3637 fdb9 2337 0803 6337
00000090: 169c 643b cacc 2a3b a8d7 f139 2ce8 8238
000000a0: 59aa 9738 6fe3 9538 8908 8c3b f562 493b
000000b0: 985e b63a 81f7 f638 377f 6839 44b2 3139
000000c0: 7167 bd3c 9e49 633c 5a1c 483b 9ea2 013a
000000d0: a824 183a 9f8d 333a fd42 c73b 2a0c 653b
000000e0: 235c c53a 81e3 6039 5438 4339 fc3f 7339
000000f0: 1845 303b a2e7 ef3a ea41 8738 64db 9a38
00000100: e23c d638 1cac ff38 245d 2a3b 55b8 1c3b
00000110: 474f 0d3a eea8 4639 64b4 0c39 fcb8 0739

exp_avg f4 [12]
0.012100187 0.0063546817 0.0056552645 0.0069636824 -0.001893865 0.0010248539 9.807847e-05 0.00952041
0.0009068219 0.007501964 -2.1258573e-05 -0.0031319212
00000000: dd3f 463c ef3a d03b cc4f b93b 9a2f e43b
00000010: 903b f8ba 6454 863a 7aaf cd38 7efb 1b3c
00000020: cab7 6d3a 09d3 f53b 7054 b2b7 eb40 4dbb

exp_avg_sq f4 [12]
0.010280696 0.00050781254 0.0005190978 0.009923968 0.00032469974 1.1373844e-05 0.0014658187 0.0022244235
0.012254838 0.0030585744 0.0009990083 0.00022712113
00000000: 5d70 283c b91e 053a 1014 083a 2498 223c
00000010: 763c aa39 4ad2 3e37 b720 c03a a2c7 113b
00000020: 84c8 483c 5d72 483b 28f1 823a 5d27 6e39

exp_avg f4 [1, 12]
0.008428685 0.010655438 -0.0008209632 0.0076981834 -0.0016321954 -0.00802853 0.0026391135 -7.478171e-06
0.0024368323 -0.0031836294 0.0014644251 0.0067755217
00000000: 7818 0a3c 2594 2e3c e835 57ba 0b41 fc3b
00000010: 64ef d5ba 188a 03bc faf4 2c3b 00ed fab6
00000020: 43b3 1f3b 70a4 50bb f4f1 bf3a 3205 de3b

exp_avg_sq f4 [1, 12]
0.11548783 0.01889156 0.030809926 0.065844014 0.0043541905 0.00049674365 0.017361064 0.01218593
0.12576719 0.014959034 0.0069385716 0.004063224
00000000: e284 ec3d 79c2 9a3c 1965 fc3c 3ad9 863d
00000010: 99ad 8e3b e737 023a ca38 8e3c 7fa7 473c
00000020: 1dc9 003e bc16 753c f55c e33b cb24 853b

net.0.weight f4 [12, 6]
-0.82668644 -0.74431837 -0.15789105 -0.07860265 0.17256574 0.16029878 0.38524598 0.56148857
0.11925098 0.2086974 -0.04466601 -0.21505399 0.71352226 0.580571 0.23418921 -0.0724952
0.09880114 0.14987998 -0.58002204 -0.59230447 -0.50349575 0.059364304 -0.26926604 -0.14012216
0.23827161 0.168641 0.08294848 -0.055577785 0.024787717 0.060353715 0.42203966 0.42561805
0.46509546 -0.01624169 -0.072188005 -0.030548403 -0.043497138 -0.18328694 0.35146216 -0.04830576
0.1300733 0.011097311 0.6289242 0.26815578 0.22975725 -0.08741231 -0.16420782 -0.13641816
-0.51488364 -0.36754832 -0.65404403 0.07315356 0.16265407 0.021454709 0.38842595 0.5775088
0.4828217 -0.057502892 0.107043564 0.08406234 -0.17379098 -0.07659034 0.4427766 -0.060813155
0.13095938 -0.14889498 0.43191636 -0.045441523 0.32588387 0.118353486 0.10916943 0.13518359
00000000: b9a1 53bf a68b 3ebf 31ae 21be 6dfa a0bd
00000010: 13b5 303e 5d25 243e f63e c53e b7bd 0f3f
00000020: dc39 f43d c5b4 553e b5f3 36bd 1d37 5cbe
00000030: 65a9 363f 4da0 143f 4ccf 6f3e 5d78 94bd
00000040: 4158 ca3d 237a 193e 537c 14bf 44a1 17bf
00000050: 19e5 00bf fc27 733d 3ddd 89be 2f7c 0fbe
00000060: 79fd 733e 3ab0 2c3e e5e0 a93d 88a5 63bd
00000070: 9c0f cb3c 7535 773d 9515 d83e 9cea d93e
00000080: fe20 ee3e 4b0d 85bc 4ed7 93bd a540 fabc
00000090: 0e2a 32bd 92af 3bbe d9f2 b33e 43dc 45bd
000000a0: ef31 053e 7fd1 353c 2d01 213f b74b 893e
000000b0: 7c45 6b3e 3a05 b3bd 1826 28be 34b1 0bbe
000000c0: 6acf 03bf 4b2f bcbe 6e6f 27bf 89d1 953d
000000d0: ca8e 263e c9c1 af3c c4df c63e 9ed7 133f
000000e0: 6834 f73e 2788 6bbd a839 db3d e028 ac3d
000000f0: 43f6 31be 65db 9cbd 9db3 e23e 3717 79bd
00000100: 371a 063e ed77 18be 2424 dd3e e420 3abd
00000110: 40da a63e 5063 f23d 3994 df3d 916d 0a3e

net.0.bias f4 [12]
0.2405697 0.29638624 -0.11454945 0.27097055 0.77315575 -0.633321 -0.056276217 -0.096819416
0.7073142 -0.23611571 -0.42414814 0.5344654
00000000: e757 763e f0bf 973e e798 eabd a7bc 8a3e
00000010: 89ed 453f 5321 22bf e481 66bd 4249 c6bd
00000020: 8b12 353f 51c8 71be f229 d9be b9d2 083f

net.2.weight f4 [1, 12]
-0.6201218 0.4404389 0.3086394 -0.6151355 0.5143415 0.42981958 0.06285422 0.51135325
-0.6191616 0.5780224 0.09423097 0.40249914
00000000: 4dc0 1ebf 3581 e13e fc05 9e3e 8579 1dbf
00000010: e2ab 033f 5011 dc3e b7b9 803d 0ce8 023f
00000020: 6081 1ebf 47f9 133f 2bfc c03d 5e14 ce3e
