notebooks/lightning_logs/version_117/checkpoints/epoch=108-step=1525.ckpt (torch, 6267 bytes, 9 tensors)

exp_avg f4 [12, 6]
0.007826098 -0.00040453626 0.0007234234 0.00046453477 0.0009045056 -0.0016418704 0.0023503627 0.0028623617
-0.00044844754 -0.0007108548 -0.0005747122 -0.00017262134 -0.00012193777 0.0032338426 -0.00032986925 2.782381e-05
0.00059622765 0.002064586 -0.00050517236 -0.00047402558 -1.2266396e-05 -0.00012166794 5.0688996e-05 -9.252816e-05
0.005268934 -0.00083474617 0.0010437587 0.00048097174 -8.121955e-05 0.0013453353 -0.0031067256 -0.004039204
-0.0017239824 6.487333e-05 0.0023583467 0.0008400695 -0.0024622525 0.0026761738 0.00025725074 0.0008237995
-0.00032552483 0.0016663813 0.0024357 0.008879922 -0.0039745495 0.00041162616 -0.0007915513 -0.00081439654
0.0046251127 0.004869686 -0.0021767342 -0.0017219278 -0.0005560324 0.002827789 0.009320863 0.003854122
0.0016099261 -1.0171067e-05 0.00047496893 0.00033375062 0.003995233 0.0077059744 0.0024419746 -0.00045562076
-0.0032994074 -0.0003441237 -0.0005387275 -0.0012754297 -0.0005495514 -0.00023129678 -0.0004302663 -0.0003963028
00000000: 0939 003c f017 d4b9 1fa4 3d3a cd8c f339
00000010: 581c 6d3a 0734 d7ba 8b08 1a3b 7696 3b3b
00000020: 9c1d ebb9 a858 3aba 48a8 16ba b001 35b9
00000030: d7b8 ffb8 e0ee 533b 4df2 acb9 2d67 e937
00000040: 294c 1c3a 014e 073b 8b6d 04ba a386 f8b9
00000050: c5cb 4db7 fa27 ffb8 e59a 5438 ad0b c2b8
00000060: 06a7 ac3b ded2 5aba bbce 883a ef2a fc39
00000070: 6a54 aab8 f655 b03a 359a 4bbb 4d5b 84bb
00000080: 40f7 e1ba 9b0c 8838 7e8e 1a3b 1c38 5c3a
00000090: be5d 21bb bf62 2f3b 9cdf 8639 40f4 573a
000000a0: 34ab aab9 7a6a da3a 44a0 1f3b 187d 113c
000000b0: f03c 82bb 87cf d739 1c80 4fba 3a7d 55ba
000000c0: 428e 973b e391 9f3b 8aa7 0ebb 4fb2 e1ba
000000d0: b4c2 11ba 6d52 393b 88b6 183c 7095 7c3b
000000e0: 2804 d33a 66a4 2ab7 4005 f939 40fb ae39
000000f0: 72ea 823b 6682 fc3b 8909 203b 62e0 eeb9
00000100: df3a 58bb 806b b4b9 6439 0dba 522c a7ba
00000110: c50f 10ba 4288 72b9 5d95 e1b9 ddc6 cfb9

exp_avg_sq f4 [12, 6]
0.018218752 0.004586261 0.0031367952 0.0002928024 0.0003665442 0.0010170178 0.0067603085 0.0033562074
0.0009913913 0.0002681657 0.00021654692 0.00065692 0.0039991727 0.0020170615 0.0013424571 0.00018018894
0.00016980249 0.0003782081 0.00070954376 0.00053599215 0.00018444707 0.00015068986 1.8559214e-05 7.154258e-05
0.014046341 0.0041804635 0.003584647 0.00022141426 0.0002680491 0.0009824418 0.00050505187 0.00014374482
8.83284e-05 5.0070037e-05 4.770149e-05 0.000115769064 0.0011149534 0.0007180066 0.00025398572 8.938737e-05
7.329896e-05 0.00027044676 0.006904164 0.0035950632 0.0017120482 0.00024671745 0.00028732876 0.00055098167
0.012775681 0.0074112257 0.0026526 0.00045223298 0.00033835336 0.0009737669 0.0030749124 0.001786937
0.0005877956 0.00010528575 0.00016615908 0.00036031683 0.0051280786 0.0017806317 0.0016659909 9.693959e-05
0.00017058071 0.00045808457 0.00050149154 0.00036964007 0.00014611559 1.94784e-05 4.350371e-05 7.605983e-05
00000000: 7e3f 953c 5948 963b b192 4d3b 4683 9939
00000010: bb2c c039 744d 853a 9485 dd3b d1f3 5b3b
00000020: 92f1 813a 9798 8c39 df10 6339 2835 2c3a
00000030: 7e0b 833b ad30 043b 63f5 af3a 1af1 3c39
00000040: 020d 3239 3b4a c639 ad00 3a3a d381 0c3a
00000050: 2268 4139 8002 1e39 9caf 9b37 2109 9638
00000060: a022 663c 45fc 883b 66ec 6a3b 702b 6839
00000070: f188 8c39 47c5 803a 7565 043a 35ba 1639
00000080: f33c b938 4b02 5238 1613 4838 0bc9 f238
00000090: a123 923a 9b38 3c3a 6329 8539 7b75 bb38
000000a0: 14b8 9938 c0ca 8d39 533c e23b 279b 6b3b
000000b0: ce66 e03a db59 8139 9da4 9639 c16f 103a
000000c0: 1751 513c ded9 f23b 3ed7 2d3b af19 ed39
000000d0: 0565 b139 6444 7f3a 7884 493b a837 ea3a
000000e0: 4c16 1a3a dbcc dc38 fd3a 2e39 e8e8 bc39
000000f0: 7109 a83b 1664 e93a 615d da3a 0c4c cb38
00000100: e9dd 3239 122b f039 8776 033a 40cc c139
00000110: 9b36 1939 8c65 a337 c177 3638 4f82 9f38

exp_avg f4 [12]
0.0056723673 0.0063057276 0.0013901326 0.00023948836 0.0039272793 0.0044726 -0.0005689984 0.0019058111
0.008674423 0.009454878 -0.0043101846 -0.0002434087
00000000: 44df b93b 47a0 ce3b 1c35 b63a 2b1f 7b39
00000010: 68b0 803b e38e 923b d628 15ba 69cc f93a
00000020: 2b1f 0e3c a2e8 1a3c 733c 8dbb 863b 7fb9

exp_avg_sq f4 [12]
0.0063667535 0.0031929384 0.00043001532 0.00050022843 0.0022229315 0.000107727166 0.00024133796 0.0013778439
0.00913433 0.0007139533 0.0012509285 0.00016748084
00000000: 33a0 d03b 9e40 513b ae73 e139 c321 033a
00000010: 9aae 113b 95eb e138 aa0f 7d39 c598 b43a
00000020: 28a8 153c 9828 3b3a 32f6 a33a cc9d 2f39

exp_avg f4 [1, 12]
0.0112548545 -0.0022974021 -0.0013623025 0.0009394474 0.0040577757 -0.009917744 -0.00309108 -0.001937723
0.005079811 0.017860373 0.0032050384 -0.0015457349
00000000: 4866 383c 0390 16bb 498f b2ba 3f45 763a
00000010: 17f7 843b 097e 22bc b893 4abb 32fb fdba
00000020: 8b74 a63b eb4f 923c 9f0b 523b 429a caba

exp_avg_sq f4 [1, 12]
0.09003551 0.121326596 0.0034373826 0.0048987726 0.021544341 0.0019127385 0.006734086 0.006601258
0.09764295 0.016975129 0.084799424 0.0023403275
00000000: 8a64 b83d 147a f83d b645 613b e285 a03b
00000010: c27d b03c dbb4 fa3a 9ca9 dc3b 5e4f d83b
00000020: 07f9 c73d 6d0f 8b3c 52ab ad3d 2e60 193b

net.0.weight f4 [12, 6]
0.47866553 0.62476325 0.50733984 -0.034045935 -0.42374194 -0.04933408 -0.5970139 -0.4774943
-0.5357283 -0.42315367 0.056077767 0.07905284 -0.3551726 -0.009519454 0.11124762 -0.10993138
-0.23401183 0.12692781 -0.1314782 -0.09236045 -0.013061896 -0.16065149 -0.039858833 0.001190914
0.21998593 0.71221197 0.4010561 -0.24536061 0.07714287 0.25767547 0.8081855 0.32603312
0.58725786 0.121442534 0.2420832 -0.018820057 -0.6002729 -0.09139056 0.038345784 0.067598745
0.3451987 0.1296215 -0.47467723 -0.027016742 -0.42880264 0.022836424 -0.09499874 -0.09880977
-0.632726 -0.56507504 -0.49994966 0.067272715 -0.31591618 0.027087936 -0.3039149 -0.9109785
-0.45399183 0.2826083 0.27327302 -0.20733875 0.76037127 0.33059224 0.09204434 0.11617225
0.21343036 -0.1199812 0.040724505 0.06848521 0.12865208 0.12218388 0.24437898 -0.26834634
00000000: a613 f53e 7cf0 1f3f 06e1 013f c073 0bbd
00000010: b4f4 d8be 8812 4abd e7d5 18bf 227a f4be
00000020: 7d25 09bf 99a7 d8be cdb1 653d 75e6 a13d
00000030: 2fd9 b5be 7cf7 1bbc cbd5 e33d b423 e1bd
00000040: cca0 6fbe 5df9 013e 39a2 06be 7a27 bdbd
00000050: 9001 56bc d381 24be 0443 23bd 7118 9c3a
00000060: fe43 613e 8653 363f 3a57 cd3e d03f 7bbe
00000070: 15fd 9d3d 0aee 833e 3fe5 4e3f d0ed a63e
00000080: 8856 163f ddb6 f83d a9e4 773e 852c 9abc
00000090: 7cab 19bf f92a bbbd 7810 1d3d 3671 8a3d
000000a0: e2bd b03e 80bb 043e e508 f3be 3752 ddbc
000000b0: 058c dbbe 7413 bb3c b38e c2bd c75c cabd
000000c0: 55fa 21bf c2a8 10bf 67f9 ffbe 47c6 893d
000000d0: c4bf a1be 85e7 dd3c bc9a 9bbe e335 69bf
000000e0: 9e71 e8be 09b2 903e 71ea 8b3e 9c50 54be
000000f0: b1a7 423f 6343 a93e be81 bc3d b7eb ed3d
00000100: 7d8d 5a3e b4b8 f5bd bdce 263d f941 8c3d
00000110: 5fbd 033e 8b3b fa3d 7c3e 7a3e b164 89be

net.0.bias f4 [12]
0.46334013 0.5011801 0.17170127 -0.43326098 0.26780874 -0.44422793 0.6365345 0.25570408
0.20826387 -0.16787405 0.8667037 -0.19976825
00000000: eb3a ed3e 574d 003f 75d2 2f3e 62d4 ddbe
00000010: 3a1e 893e d871 e3be edf3 223f a5eb 823e
00000020: 2043 553e 2de7 2bbe 4be0 5d3f 0c90 4cbe

net.2.weight f4 [1, 12]
0.54888976 -0.38915777 -0.24717173 0.025607152 0.5589837 0.6292574 -0.33894968 -0.5021835
-0.51897013 -0.47970185 0.43217087 0.101745605
00000000: 0a84 0c3f b03f c7be 961a 7dbe 17c6 d13c
00000010: 8e19 0f3f 0317 213f d08a adbe 198f 00bf
00000020: 3adb 04bf 7b9b f5be 8045 dd3e 0060 d03d
