notebooks/lightning_logs/version_21/checkpoints/epoch=85-step=1203.ckpt (torch, 6267 bytes, 9 tensors)

exp_avg f4 [12, 6]
00000000: 6a07 1739 6edc 87bb 8239 32bb c2de 90bb
00000010: bfe0 34bc 6438 b43b d99e 0038 ee8f 4dbb
00000020: f5bc d83c dc38 493b f27e 99bc cef3 04bc
00000030: 3219 9bb8 4e2a 87b9 e03e 12ba d855 e4ba
00000040: 49e7 223c 3422 23bb 6439 8138 8b22 9bbb
00000050: e911 a53a a4ec 1dbc 0d95 85bc 40bd 1ebc
00000060: e6e5 9c38 3aab a2ba 6b11 05bb 9602 7d3b
00000070: 56c2 f3bb 1de6 553c 7dea 58b9 a68a 25bc
00000080: 6835 873c b5db c8bb 9366 253d 00f7 47bc
00000090: 8364 05b9 0eb1 92bc fcc0 4fbc 01fc 57bc
000000a0: 093a ac3c 9615 333c 24a2 1bb8 ee9b 4bbc
000000b0: 2070 d2bc f2a2 c63b e22a 653c 8f64 353c
000000c0: 4a65 2639 390b 5bbb db74 0d3c 11bd 34bc
000000d0: d637 93bc 3961 5838 02f2 a138 f18d 13bc
000000e0: 81d6 e23c a921 fbbb 2e2d 57bc c5dd 0bbb
000000f0: 57a1 3eb9 0053 7c3b 2c47 e33b dd17 833b
00000100: 1f1e ff3c 2504 e2bb 1497 cf38 1899 03bb
00000110: f8a3 59bb c633 4bbc 8cad 0abc c42f d33a
0.00014403244 -0.0041461503 -0.0027194922 -0.004421086 -0.011039912 0.0054998863 3.0665517e-05 -0.0031366306
0.02645729 0.0030704057 -0.01873729 -0.008114768 -7.395669e-05 -0.00025780726 -0.0005578827 -0.0017420603
0.009942838 -0.0024892213 6.161889e-05 -0.0047343425 0.0012593839 -0.009638939 -0.016306425 -0.009688675
7.4814816e-05 -0.0012410649 -0.0020304571 0.0038606278 -0.007438938 0.013055352 -0.00020686719 -0.010103857
0.016504958 -0.0061297067 0.040381026 -0.0122048855 -0.00012721312 -0.017906692 -0.012680288 -0.013182641
0.021023767 0.010930439 -3.7105885e-05 -0.012427313 -0.025688231 0.006061905 0.013987275 0.011071338
0.00015868727 -0.0033423437 0.008633818 -0.011031405 -0.01797096 5.158896e-05 7.722156e-05 -0.009006009
0.027690174 -0.0076639247 -0.01313333 -0.0021341902 -0.00018179916 0.003850162 0.0069359746 0.0040006475
0.031142293 -0.0068974667 9.89867e-05 -0.0020080265 -0.0033209305 -0.0124024805 -0.008464228 0.0016112258

exp_avg_sq f4 [12, 6]
00000000: 981d ba34 e578 713b 01d1 463b 3ccf c23a
00000010: 1fd9 073c 1485 943a 5326 2f35 7350 2b3c
00000020: 6da4 3d3c a96a 883b b2e9 fe3b 1689 a03b
00000030: dc0a 7a33 3515 3839 178b 9339 c8d6 a938
00000040: 67af 4c3a 3473 1539 0389 8534 e258 c83a
00000050: 6414 1b3b 8167 0a3b 737e b33b b7a9 953a
00000060: 2120 b934 273d 943b b5b1 b63b d58d ae3a
00000070: 1076 b13b 401f 793b e0b2 9635 1360 493c
00000080: d223 0a3c a313 4f3b f0b3 613c 65ba c93b
00000090: 3f1a 5235 ce84 e13c 38b3 2d3c bdb8 a63b
000000a0: 64e7 ab3b 2c14 013c 24fb fa34 2cce 793c
000000b0: bc74 a53b 94f3 513b 38bb 623b c31d 9b3b
000000c0: 5986 4435 d9b2 2e3c 28a2 f83b aa15 4b3b
000000d0: ac9c 393c dfd2 893b fd6c 3834 0734 7d3b
000000e0: 994b 903b 75a6 8a3a 4ee1 8a3b af5c 843b
000000f0: 414b 0635 39f2 713b c492 603b e23c b13a
00000100: e81b 023c 117b 263b ad90 3335 1649 ab3b
00000110: 72fc e63b 85e5 013b fefb 203c ff0b 693b
3.4666732e-07 0.003684574 0.0030336978 0.0014862786 0.008291512 0.0011331164 6.524835e-07 0.010456192
0.011574847 0.0041631055 0.0077793235 0.0048991544 5.8217537e-08 0.00017555508 0.00028141655 8.098554e-05
0.00078081194 0.00014252664 2.487287e-07 0.0015285278 0.0023663277 0.0021118822 0.0054777204 0.0011418377
3.4482312e-07 0.0045238915 0.0055753835 0.0013317416 0.0054156855 0.0038013011 1.122793e-06 0.012290972
0.008431392 0.0031597398 0.013775811 0.006156253 7.826929e-07 0.027529147 0.010601811 0.0050879405
0.00524609 0.0078783445 4.6748858e-07 0.015246909 0.005049316 0.0032036053 0.0034596454 0.0047337725
7.321119e-07 0.010662758 0.00758769 0.0030988255 0.011328857 0.004206046 1.7175985e-07 0.0038635747
0.004403543 0.0010578173 0.004238284 0.004039369 5.00284e-07 0.0036918058 0.0034267167 0.0013522173
0.007941224 0.0025402943 6.689323e-07 0.0052272184 0.007049137 0.0019820642 0.009825705 0.0035560129

exp_avg f4 [12]
00000000: 0c3e b23c d8cb 973b 8c0b 37bc 3782 183c
00000010: 422b 393c 2c00 00bd 9c6d 9dbc 38ad b7bb
00000020: c160 c43c 2e20 3f3c b3fa e0bc c8fe 743c
0.021758102 0.0046324544 -0.011172187 0.009308389 0.011301817 -0.031250164 -0.019217305 -0.005605366
0.023971917 0.011665387 -0.027463293 0.014953323

exp_avg_sq f4 [12]
00000000: 5f9d 013c a2f4 733c 7322 ae3a 44fe b93b
00000010: e3ec 003c 32e6 d13c d251 923c cdc9 2e3c
00000020: 31dd 883c 1670 803b d00c 3b3c fe1a 7a3c
0.007911055 0.014889868 0.0013285413 0.005676063 0.007868978 0.025622461 0.01786128 0.01066823
0.016707035 0.0039196117 0.011416629 0.0152652245

exp_avg f4 [1, 12]
00000000: 1c8e cebc 4054 aa3c 3ae0 89bd 9c86 c73b
00000010: 5ac2 84bc 44ca 73bd a5f7 00bd 518c 52bd
00000020: a4bc 0bbc 240a ac3b e1c3 6cbd 2cae d5bc
-0.025214247 0.020792127 -0.06732221 0.0060890447 -0.016205955 -0.059519067 -0.031486172 -0.051403347
-0.008528862 0.0052502323 -0.057803992 -0.026084028

exp_avg_sq f4 [1, 12]
00000000: 7446 863d 2155 963c 8959 7a3d d945 b63b
00000010: 561c 013d 5589 103e 1806 e73c 6342 c63d
00000020: 2cf4 963c 34b2 0c3b 9126 923d 8ab9 953d
0.065564066 0.01835114 0.061120544 0.0055625257 0.031521164 0.14114888 0.028201148 0.09680631
0.018426977 0.0021468522 0.07136262 0.073107794

net.0.weight f4 [12, 6]
00000000: ab17 de3e e7b0 26bf b6e6 d9be 1ddc d93d
00000010: 9f93 b8be 6fcf e93d b18b c5bd 22e6 d2be
00000020: c94a bcbe aaf8 633e e73d aa3e add4 3fbe
00000030: 6085 ec3e c0f9 913e 7b8a 0a3b b8e8 c7be
00000040: 15cc fabe 495f 0c3f 41a5 3bbd 8fff f3be
00000050: 625e 983e 7726 3a3e 8f12 413e 636f 7f3e
00000060: 28df ea3e 14c6 d0bd 7836 1dbf 6966 0cbe
00000070: 274a 3ebe 16a1 a93e 926b 193f 6403 423f
00000080: dba4 d03e 60d8 9cbd 02d9 66be 5c00 533e
00000090: 01f1 933e b3eb a13e 4b0f 823e 2439 873e
000000a0: e1f7 473e 9a62 86be 4c36 37be d94f 0f3f
000000b0: 4f3d 243f ca34 debc dbf3 9c3e 36b2 52be
000000c0: 7600 083e 5075 a0be 21c7 c6be b2f7 7ebe
000000d0: 84f9 8ebd 1d70 76be 0d8a 1cbe 35fe 97be
000000e0: b59f 2cbe 589e 82be c216 183e 8f91 b9bd
000000f0: 1961 97bd 734f be3e fba4 d23e b475 0fbd
00000100: 03fa edbd f761 303e 5e3d 843e c94a c5be
00000110: d75c 89be 2bde 793d 5828 c1bd 9cc0 0bbd
0.43377432 -0.6511368 -0.4255883 0.106376864 -0.36050126 0.11416518 -0.09645785 -0.41191202
-0.36775807 0.22262827 0.33250353 -0.18733473 0.46195507 0.28510857 0.002113967 -0.39044738
-0.48983827 0.54832894 -0.045811895 -0.47655913 0.29759508 0.18178736 0.18854736 0.24944834
0.4587338 -0.101940304 -0.6141124 -0.13710941 -0.18582974 0.3313071 0.59929764 0.75786424
0.40750775 -0.07658458 -0.2254372 0.20605606 0.2889481 0.31625137 0.25402293 0.26410782
0.19528152 -0.26247102 -0.17891806 0.5598121 0.6415605 -0.027124781 0.30654797 -0.20575795
0.13281426 -0.31339502 -0.38823798 -0.24899176 -0.06981185 -0.24066205 -0.15287037 -0.29686132
-0.16857798 -0.25511432 0.14852431 -0.09060966 -0.07391567 0.3716999 0.41141495 -0.03502436
-0.116199516 0.1722487 0.2582807 -0.3853362 -0.26828644 0.06100289 -0.09431523 -0.034119233

net.0.bias f4 [12]
00000000: abb9 c03b cb09 c43d 4109 6a3e 7e69 833e
00000010: 8814 c1bc 8463 f43e 3467 cb3e fda7 f93e
00000020: 9938 d43d 577a 64bd 9f58 1d3f e944 0f3f
0.0058815083 0.0957218 0.22855093 0.25666422 -0.02356936 0.47732174 0.39727175 0.48760977
0.10362358 -0.055780735 0.6146335 0.55964524

net.2.weight f4 [1, 12]
00000000: 36c4 a6be c6ce 12bf f669 fa3d a206 b6be
00000010: 4e8c c8be 509b e83e 9023 183f c26b f13e
00000020: 7001 ffbe cec1 e6be fde3 9a3e 660a c7be
-0.32571572 -0.5734676 0.12227242 -0.35551935 -0.39169544 0.45430994 0.59429264 0.47152525
-0.49805784 -0.45069736 0.30252066 -0.3887512
