notebooks/lightning_logs/version_11/checkpoints/epoch=42-step=601.ckpt (torch, 6001 bytes, 9 tensors)

exp_avg f4 [12, 6]
000000 e4 ff 91 bb bf 7c 89 3c 40 0f 98 bb 6d 82 99 bb
       -0.0044555534 0.016783116 -0.00464049 -0.0046847374
000010 fc 6f 66 bc 60 38 04 3c eb 45 f6 3a b6 58 d6 3c
       -0.014064785 0.0080700815 0.0018789148 0.026165348
000020 4b 5a df 3b e0 5f f5 3b eb fd a1 bb a3 aa b3 3b
       0.0068161837 0.007488236 -0.0049435995 0.005482988
000030 a6 02 f8 bb 10 06 2a 3c 3d 0e de ba 72 ff 13 ba
       -0.007568675 0.010377422 -0.0016941499 -0.00056456693
000040 f0 a3 aa 3b 43 c7 4d bc 16 38 15 bb d3 39 4a 3c
       0.005207531 -0.012559715 -0.0022769026 0.012342888
000050 7f 1a 3e 3b f3 d4 5e bb 91 6b 63 ba ae d5 ed 3a
       0.0029007492 -0.003400144 -0.00086753914 0.0018145347
000060 43 02 66 3c e3 91 88 3b c2 1e be 3b d6 71 29 bb
       0.014038625 0.0041677817 0.0058020065 -0.0025855205
000070 ce 38 1f 3a 39 9e 40 3a 4a 4d 34 bb 4f 1b 14 3c
       0.0006073833 0.0007347796 -0.0027511888 0.009039714
000080 95 fb 66 3b 57 17 87 b9 c7 c3 11 bb 75 d3 8e bb
       0.003524517 -0.00025766596 -0.0022241937 -0.0043587037
000090 70 b2 6f bb ee c9 6b 3c ed 41 40 3b 5b 9b eb 3b
       -0.0036574863 0.0143914055 0.002933617 0.0071901507
0000a0 ee 0c 2f 3b ef a6 da bb 18 b2 cf bb 93 e8 d0 3b
       0.0026710588 -0.006672732 -0.006338369 0.0063753813
0000b0 ad 74 b0 bb 9b 84 c8 3a 94 9f 04 bc e8 47 d2 3a
       -0.0053850026 0.0015298309 -0.008094687 0.0016043158
0000c0 ed 4a 4e bb 33 26 6b 3c 70 31 10 bc 1b c8 67 3a
       -0.0031477765 0.014352369 -0.008800849 0.0008841769
0000d0 96 bc 3f bb d1 c2 92 bb d1 a3 99 3b af b3 7d 3c
       -0.0029256693 -0.0044787903 0.004688718 0.015484734
0000e0 06 88 aa 3b f0 68 d8 3a f6 11 99 39 d7 93 0a 3b
       0.0052042035 0.0016510766 0.00029195816 0.0021145248
0000f0 6d d0 03 3b f3 2d 46 3c 24 f4 0e 3c 8d d0 4b ba
       0.0020113245 0.012095916 0.0087252 -0.0007774912
000100 c8 46 5e ba 08 32 d9 ba ed 9d 2e 3b 9e 4a 94 3c
       -0.0008479175 -0.0016570697 0.0026644424 0.018101986
000110 c7 ff 88 3b 0e 20 08 3b d6 d5 ff 3b d4 7a 9f bb
       0.0041808817 0.002077106 0.0078074737 -0.004866937

exp_avg_sq f4 [12, 6]
000000 43 40 a9 3c 36 f9 fe 3c b0 d3 97 3b 65 06 f8 39
       0.020660525 0.031124692 0.0046333894 0.0004730701
000010 ae c3 8a 3a 2b 98 28 3a 2e 33 13 3d 0c 1c bb 3c
       0.0010586882 0.0006431366 0.03593748 0.022840522
000020 e7 40 7d 3b 2e c4 96 3a d5 12 d8 3a 63 5f a9 3a
       0.003864342 0.0011502558 0.0016485105 0.0012922104
000030 bb be a8 3c 63 0e 92 3c 40 46 c5 3b ff aa eb 39
       0.02059876 0.017829126 0.0060203373 0.00044950095
000040 e7 78 73 3a 68 a8 67 3a ae 9c 66 3b 74 26 93 3b
       0.000928773 0.0008837045 0.0035188603 0.004490668
000050 fc 67 9f 3a a8 94 4a 39 b6 8a 2d 39 c7 f0 19 39
       0.0012161727 0.000193196 0.0001655024 0.00014680914
000060 6e 38 32 3c da 1f 9d 3b 78 0e 43 3b a9 13 0b 39
       0.010877712 0.004795057 0.0029763263 0.00013263397
000070 f1 c1 1d 39 ea 9e 6d 39 04 5f c9 3a ae e9 6b 3a
       0.00015044936 0.00022661281 0.00153634 0.00089993596
000080 78 52 83 39 6f 36 1f 38 17 0d 28 38 29 22 35 38
       0.0002504771 3.795925e-05 4.0066512e-05 4.3185577e-05
000090 a0 7c 83 3c 91 82 a0 3c 0e c4 2d 3b a1 34 69 3a
       0.016050637 0.019593509 0.0026514563 0.0008896087
0000a0 b3 24 0b 3a 90 03 a5 3a b4 38 36 3b fe a5 e7 3a
       0.0005307898 0.0012589563 0.0027804794 0.0017673371
0000b0 80 75 09 3a 27 85 87 38 60 1e 11 39 a2 84 c4 38
       0.0005243644 6.462103e-05 0.00013839593 9.370713e-05
0000c0 b0 02 f3 3b ac 7f a4 3b ff f2 db 3a fa 62 f6 38
       0.007416092 0.0050201025 0.0016780793 0.0001174863
0000d0 fb 72 55 39 94 31 56 39 1c 42 ff 3b d2 ff b0 3b
       0.00020356097 0.000204271 0.0077898633 0.00540159
0000e0 aa 8a 99 3a 97 c9 00 39 cc ee 41 39 dd 54 52 39
       0.0011714299 0.0001228213 0.00018494873 0.00020058775
0000f0 ad 31 bb 3b 82 93 71 3b d1 5b ab 3a b5 b8 06 39
       0.005712709 0.0036861603 0.0013073628 0.00012848045
000100 83 8c 4d 39 d1 58 55 39 bc fa ca 3b 15 8c 60 3b
       0.00019602668 0.0002034635 0.0061944406 0.0034263183
000110 bf ba 94 3a 4c 27 7a 39 8d 7a 16 39 67 cb aa 39
       0.0011347159 0.00023856497 0.00014350768 0.00032576473

exp_avg f4 [12]
000000 c2 32 63 bb e3 9b 7f 3c c5 9e 01 3c 35 a7 ab 3a
       -0.0034667705 0.015601131 0.007911389 0.0013096096
000010 5c 39 17 ba 4a 5b c0 ba ac 58 38 3a 54 07 18 3c
       -0.000576874 -0.0014675644 0.0007032256 0.009279091
000020 62 b5 1d 3c d1 a1 1d bc 01 59 ea bb d0 97 27 3c
       0.009625765 -0.0096211 -0.0071517234 0.010229066

exp_avg_sq f4 [12]
000000 41 51 db 3a eb 99 9a 3b 80 b1 7b 3c cc 8b 30 3a
       0.001673259 0.0047180555 0.0153621435 0.00067346985
000010 3b 78 db 3a 61 49 19 3a ca 48 a0 3a 82 1f 18 3b
       0.0016744205 0.0005847421 0.0012228724 0.002321214
000020 74 9d a8 3b 17 f9 8e 3b 6b 62 9b 3b 8d 65 09 3a
       0.005145723 0.00436319 0.004741957 0.00052412675

exp_avg f4 [1, 12]
000000 7a 3d 86 3b 26 4b af 3c 86 13 9a 3c 36 c8 d6 ba
       0.004096684 0.021398138 0.018808138 -0.0016386572
000010 76 0e bd 3b ce b2 27 3b af 29 3a 3c de b5 e6 3b
       0.005769546 0.0025588754 0.011362477 0.007040723
000020 b8 b2 72 3b 28 d6 02 3c 77 07 63 3c 34 04 b7 3c
       0.0037032794 0.007985629 0.01385676 0.022340871

exp_avg_sq f4 [1, 12]
000000 90 14 13 3d d7 2e 74 3d b8 08 7a 3d 93 08 2a 3b
       0.03590828 0.059614982 0.06104347 0.0025945052
000010 96 7e 46 3c 06 dd 1c 3d 21 dc c4 3d 8a 5a f4 3d
       0.012115141 0.038296722 0.09612299 0.119313315
000020 05 c9 16 3e b3 aa 95 3e cc 81 9c 3e 74 69 bf 3c
       0.1472512 0.29231796 0.30567777 0.023365714

net.0.weight f4 [12, 6]
000000 97 e2 27 bf 89 b8 9f bd e3 d0 b0 be a5 a4 c0 3d
       -0.65580124 -0.07798869 -0.34534368 0.094064035
000010 9f 80 41 3e 98 6e c7 bd fd 1d bd be 42 c4 f8 be
       0.18896721 -0.09737891 -0.36936942 -0.48587233
000020 4c ea d4 be b0 72 f2 bd 79 43 ad 3d e3 14 bc bd
       -0.41585004 -0.11838281 0.08460135 -0.09183671
000030 7c ae a4 3e 3e 46 08 3f 77 99 a8 3e ac 41 23 3e
       0.3216437 0.5323218 0.32929584 0.1594302
000040 05 b4 d8 3e 2e 55 b0 be 7a b4 cb be 00 c1 a4 3d
       0.42324844 -0.34439987 -0.3978613 0.08044624
000050 e1 3f b7 bd c6 81 8b 3e 32 c6 bc bd 9e c9 0c be
       -0.08947731 0.27247447 -0.0921749 -0.13748786
000060 98 74 e2 3d fc d3 ed be 46 a4 2c bd c3 42 12 3e
       0.11057395 -0.46450794 -0.04214885 0.1428328
000070 5b 20 4f 3c 3d a5 96 bd 99 b9 bd 3e 23 63 a2 3e
       0.0126419915 -0.073557355 0.37055662 0.3171626
000080 67 a7 12 3e 25 89 dd be a0 14 60 3e e3 75 13 3e
       0.14321671 -0.43268695 0.21882868 0.14400439
000090 f9 a3 23 bf fc b1 98 be 72 42 da be 96 56 24 be
       -0.6392208 -0.2982329 -0.4262882 -0.16048655
0000a0 69 79 59 bd d4 e2 43 3e 54 09 55 3f ce 35 31 3f
       -0.0530943 0.19129497 0.8321736 0.69222724
0000b0 76 2c a6 3e ef 4b f1 3e 5b 76 da be eb 93 7a 3e
       0.32455796 0.47128245 -0.42668423 0.24470489
0000c0 8b 3c fd 3e 8e d5 b4 3e f2 af 22 3f 95 2c 26 be
       0.49460253 0.3531918 0.6354972 -0.16227944
0000d0 2c 2c 51 be d8 2e 32 3e f7 1f fe 3e a1 b4 ce 3e
       -0.20427006 0.17400682 0.49633762 0.40372184
0000e0 2b 97 b6 3e e0 2f 1b be 92 2d d8 bc db c4 a8 bd
       0.35662207 -0.15154982 -0.026388917 -0.08240672
0000f0 81 72 14 3f 15 c3 0d 3f e4 61 4f 3e 5a b9 d5 bc
       0.5798722 0.55375797 0.20252186 -0.02608936
000100 27 5c d7 bd b3 6c d2 3d cf 3a b7 be f2 7c 02 bf
       -0.105156235 0.10274639 -0.35787055 -0.509719
000110 46 c7 ff bd 60 28 9d bd 06 c9 5c be 92 6f f9 3d
       -0.1248918 -0.076737165 -0.2156106 0.121794835

net.0.bias f4 [12]
000000 9d 50 f4 3e 6a c9 a9 3e cc 79 02 3e c2 e4 f5 bd
       0.47717753 0.3316148 0.12741774 -0.12006523
000010 92 a0 84 3d e5 55 01 3f 01 d5 27 3f 09 b0 a6 3c
       0.06475939 0.5052169 0.65559393 0.020347612
000020 fe a1 c2 3e 9a f3 46 3f da 30 39 3f cf c4 b2 3e
       0.38014215 0.77715456 0.72340167 0.34915778

net.2.weight f4 [1, 12]
000000 d6 45 0d bf 4f 3c 19 bf ee 7a 08 3f 8e d8 80 be
       -0.55184686 -0.5985765 0.53312576 -0.25165218
000010 3d 6a 3b be b8 d1 81 3e 27 f1 ed be 51 5d a1 3e
       -0.18302245 0.25355315 -0.46473047 0.31516507
000020 76 8d b3 3e 9e ed a4 3e c4 c3 a3 3e 29 7e d8 be
       0.35068864 0.32212538 0.31985295 -0.42283753
