notebooks/lightning_logs/version_299/checkpoints/epoch=9-step=139.ckpt (torch, 5233 bytes, 9 tensors)

exp_avg f4 [2, 6]
0.023495685 0.023495685 0.0064313947 -0.0007181822 0.0010730623 0.00039194702 0.72834384 0.72834384
0.18965936 -0.021087805 0.08831608 -0.015823375
00000000: 067a c03c 067a c03c 73be d23b 6444 3cba
00000010: ffa5 8c3a 3d7e cd39 be74 3a3f be74 3a3f
00000020: 1036 423e 55c0 acbc 10df b43d 06a0 81bc

exp_avg_sq f4 [2, 6]
0.0028404924 0.0028404924 0.00028203437 1.9655845e-05 4.4795524e-05 1.7802065e-05 0.053729966 0.053729966
0.0069381977 0.0007563194 0.002961754 0.00042046828
00000000: 8e27 3a3b 8e27 3a3b 03de 9339 9be2 a437
00000010: d4e2 3b38 a555 9537 f413 5c3d f413 5c3d
00000020: d259 e33b bc43 463a fd19 423b 4c72 dc39

exp_avg f4 [2]
0.0034585528 -0.1499964
00000000: e3a8 623b a898 19be

exp_avg_sq f4 [2]
0.0005512701 0.0022246756
00000000: 1c83 103a ddcb 113b

exp_avg f4 [1, 2]
-0.14425063 0.47543645
00000000: 70b6 13be 686c f33e

exp_avg_sq f4 [1, 2]
0.024938399 0.020538943
00000000: 9d4b cc3c 4941 a83c

net.0.weight f4 [2, 6]
0.016461352 -0.028893212 0.13075905 -0.18547475 0.1141089 0.028329112 -0.26881176 -0.009891187
0.2592874 -0.16436134 -0.32950124 -0.33654287
00000000: f5d9 863c 75b1 ecbc b3e5 053e 18ed 3dbe
00000010: edb1 e93d 7412 e83c b2a1 89be a50e 22bc
00000020: 51c1 843e 574e 28be 63b4 a8be 594f acbe

net.0.bias f4 [2]
0.057664637 -0.12523217
00000000: c131 6c3d dd3c 00be

net.2.weight f4 [1, 2]
-0.004156991 -0.2970327
00000000: 5e37 88bb ac14 98be
