notebooks/lightning_logs/version_297/checkpoints/epoch=129-step=1819.ckpt (torch, 6267 bytes, 9 tensors)

exp_avg f4 [12, 6]
000000 06 b5 06 bc 06 b5 06 bc 6d 10 92 39 d5 6e b0 3a
       -0.00822187 -0.00822187 0.00027859528 0.0013460765
000010 a0 47 8c ba 8e 0e 4d 3a 82 38 6b 3b 82 38 6b 3b
       -0.0010702498 0.0007822298 0.0035891836 0.0035891836
000020 d3 d1 23 3c ee 9c 52 3b ae 4d 08 3a 1b 2d a7 3a
       0.009998756 0.0032136994 0.00051995635 0.0012754531
000030 7f da fc bb 7f da fc bb f5 8f f3 3a 79 92 04 3b
       -0.0077164765 -0.0077164765 0.0018582331 0.0020228906
000040 1b 70 26 b9 90 dd dc 39 ff 8a 02 3c ff 8a 02 3c
       -0.00015872756 0.00042126747 0.00796771 0.00796771
000050 bc 2d 46 3b d0 f9 0e 3a 2e 41 ae 3a aa 57 b9 39
       0.0030239662 0.0005454095 0.0013294572 0.00035351265
000060 78 e2 3d b8 78 e2 3d b8 5f 3e c0 b8 13 60 8a 37
       -4.5272027e-05 -4.5272027e-05 -9.166891e-05 1.649562e-05
000070 de 10 db b6 72 3e 4b 38 d1 9f 4f bc d1 9f 4f bc
       -6.528672e-06 4.845713e-05 -0.012672381 -0.012672381
000080 f7 a0 33 b9 2b 13 92 3b ce 12 86 bb 12 af 5f 3b
       -0.00017130734 0.0044578514 -0.004091597 0.003413145
000090 f7 0d 15 bc f7 0d 15 bc d2 94 1e bb 15 24 d3 3a
       -0.009097568 -0.009097568 -0.002419759 0.0016108776
0000a0 ae 47 97 ba 18 ea 3f 39 0a 8a 4a 3c 0a 8a 4a 3c
       -0.0011541748 0.00018302386 0.012362013 0.012362013
0000b0 ec 04 94 3b a8 a6 11 3b 5f b3 4d 3b 22 58 42 bb
       0.0045171883 0.002222458 0.003138743 -0.0029654582
0000c0 7c b6 b8 bb 7c b6 b8 bb ea e1 61 3a 84 08 6d 3b
       -0.005636988 -0.005636988 0.00086167327 0.0036168406
0000d0 5d b6 6e ba e2 7c 06 bb de 53 09 bb de 53 09 bb
       -0.0009106154 -0.0020521213 -0.002095453 -0.002095453
0000e0 7c cb 94 bb 34 48 83 39 3e 68 1f bb 37 66 a5 3a
       -0.004540859 0.00025040063 -0.0024323608 0.0012618963
0000f0 7c ba 77 3b 7c ba 77 3b c9 87 46 3a 7e 7e 9c b9
       0.0037800362 0.0037800362 0.0007573334 -0.00029848883
000100 ec 36 12 b9 8d c8 13 bb 17 4a 6d 3a 17 4a 6d 3a
       -0.00013944105 -0.0022549958 0.0009051873 0.0009051873
000110 ab d8 81 3a 42 e8 a2 b9 1b a0 8d 39 fa 4b 6f b9
       0.0009906491 -0.00031072093 0.00027012904 -0.0002282112

exp_avg_sq f4 [12, 6]
000000 67 93 92 3c 67 93 92 3c 43 b9 36 3a af 8e e8 39
       0.017892553 0.017892553 0.0006970355 0.00044356796
000010 18 09 f4 39 44 dc 73 39 2c e6 cb 3d 2c e6 cb 3d
       0.00046546082 0.00023256341 0.09956011 0.09956011
000020 3a da 4c 3b 39 75 c6 3a b4 7f d2 3a 21 91 57 3a
       0.0031258003 0.0015141136 0.0016059787 0.0008223225
000030 bb 15 83 3c bb 15 83 3c 0c f4 d8 39 75 ce b9 39
       0.016001573 0.016001573 0.0004138056 0.00035439772
000040 fa 7c e7 39 40 ad 11 39 0e a0 a3 3c 0e a0 a3 3c
       0.00044152868 0.00013892818 0.019973781 0.019973781
000050 52 7d 18 3b 21 aa 8f 39 93 7d 85 39 01 f4 09 3a
       0.0023268056 0.0002740184 0.00025461297 0.00052624947
000060 96 a4 bb 38 96 a4 bb 38 75 f2 ae 37 88 7a a1 37
       8.9475114e-05 8.9475114e-05 2.085532e-05 1.9249754e-05
000070 7b 71 69 37 64 49 35 36 ed 8d a3 3c ed 8d a3 3c
       1.3914304e-05 2.701382e-06 0.019965136 0.019965136
000080 23 1f 44 3a 32 a6 39 3a 6c c4 14 3a a7 64 6c 39
       0.00074814464 0.0007081955 0.0005675021 0.0002254421
000090 d8 08 f9 3a d8 08 f9 3a e0 7c 89 39 54 93 86 38
       0.0018999828 0.0018999828 0.00026223715 6.41706e-05
0000a0 4a c1 9f 38 31 c9 01 38 1f 6c cb 3c 1f 6c cb 3c
       7.617714e-05 3.094337e-05 0.02483183 0.02483183
0000b0 dd ce 2f 3b 75 9a e3 39 64 71 f3 39 16 0b 7d 3a
       0.002682618 0.00043411893 0.00046433054 0.0009652836
0000c0 1d d0 a9 3c 1d d0 a9 3c 55 8f 1d 3a 71 28 0f 3a
       0.020729119 0.020729119 0.0006010433 0.00054610433
0000d0 bb 03 ff 39 ea 00 8a 39 77 61 5b 3d 77 61 5b 3d
       0.0004864017 0.00026322092 0.053559747 0.053559747
0000e0 9e d2 35 3b 3a 19 05 3a 16 bf e4 39 36 c1 45 3a
       0.0027743946 0.00050773064 0.0004362992 0.0007543744
0000f0 e8 eb 4e 3c e8 eb 4e 3c c9 a2 44 3a 31 c2 67 39
       0.012629487 0.012629487 0.00075010635 0.00022102219
000100 a1 5e 6d 39 38 8b 96 39 f5 a7 c0 3a f5 a7 c0 3a
       0.00022637333 0.00028713956 0.0014698493 0.0014698493
000110 b4 fb d9 38 b4 4c 1d 38 ad 55 a1 38 0e 18 c3 37
       0.0001039425 3.7503152e-05 7.6930366e-05 2.3257013e-05

exp_avg f4 [12]
000000 c8 e4 68 3c 0b ec 13 bc d9 de cf 3b 69 a3 41 3c
       0.014214702 -0.009028445 0.006343704 0.011818745
000010 4e 92 07 37 50 08 b6 3b b7 3a 4b 3b 1d 8f 0d 3c
       8.080691e-06 0.00555519 0.0031010339 0.008640078
000020 14 df d1 3b 50 d1 e8 bb 90 43 77 3b 2d 7c 45 b9
       0.006404767 -0.00710503 0.003772948 -0.00018833643

exp_avg_sq f4 [12]
000000 fe 61 de 3b 63 f5 d3 3b 51 de 1d 3b 9f ff 04 3c
       0.006786584 0.0064684614 0.002408881 0.008117585
000010 d4 bc 0b 38 cd 7e 89 3b 73 bd cd 39 0b f8 1b 3c
       3.3316042e-05 0.004196024 0.00039241798 0.009519587
000020 49 14 d9 3b 5f 53 ab 3b 58 8f 0e 3b f0 66 96 39
       0.0066247326 0.0052284445 0.002175292 0.00028686924

exp_avg f4 [1, 12]
000000 36 7d d0 bc bc 2d 9b bb f4 47 1c bc da 7a 18 3c
       -0.02545033 -0.0047356766 -0.009538639 0.009306634
000010 86 cd fe b7 b2 bc 83 bc 82 d9 6f bc 94 a4 a1 3c
       -3.0374864e-05 -0.016081188 -0.01463926 0.019731797
000020 7a 43 b3 bb 9e d2 e3 b9 fa b2 8a 3b a0 41 80 3a
       -0.0054706903 -0.00043453736 0.0042327615 0.0009785183

exp_avg_sq f4 [1, 12]
000000 33 55 3e 3e 31 c4 5f 3d ce 85 09 3e 8e 05 01 3e
       0.18587188 0.054630462 0.13429949 0.12599775
000010 8f cc 38 39 8d 31 94 3c de 14 06 3b f8 bc 18 3d
       0.00017623811 0.018090034 0.0020459215 0.03728959
000020 f9 f9 fa 3d a2 d3 09 3d 84 09 db 3c 44 55 e1 3a
       0.1225471 0.033649094 0.026737936 0.0017191549

net.0.weight f4 [12, 6]
000000 a1 39 33 3f 10 d5 1f 3f 25 0d 93 3e cd be c1 3d
       0.7000981 0.6243448 0.28720966 0.094602205
000010 dc 49 18 be 79 68 05 bf c3 bd d9 3e f9 a8 f5 3c
       -0.14871925 -0.5211254 0.4252759 0.029987799
000020 f1 50 85 3e 9a 6e 5a bc 91 03 db bc ff e7 ee bd
       0.26038316 -0.0133320335 -0.026735099 -0.116653435
000030 fa c0 38 3f 26 d4 39 3e ad 03 1d 3f 1d 5d 8a be
       0.7216946 0.18147334 0.61333734 -0.27024165
000040 68 6a 7b 3c e6 56 f0 3e 7d 52 e7 be 01 77 3d bf
       0.015345193 0.46941298 -0.4518012 -0.7400971
000050 9e a8 b8 bc 1b 03 de bd ee 19 ec bc 3a 8c 84 3e
       -0.02254134 -0.10840436 -0.028820958 0.25888234
000060 66 a9 13 3d e2 d0 31 bd 42 70 e8 bc 49 12 0f 3e
       0.036050223 -0.043412097 -0.028373841 0.13971819
000070 33 ee 1f 3e a1 b4 37 bd be f3 a7 3e 29 b5 0f 3f
       0.1561821 -0.044849996 0.32803148 0.56135803
000080 72 e9 68 3e 4d 0e 83 bd b3 f8 9a bd 20 3b 77 3e
       0.22745302 -0.06399212 -0.07566967 0.24143648
000090 fd 94 5d bd 01 42 03 3f ab d0 a3 3d 39 eb 12 3d
       -0.054097164 0.5127259 0.07998785 0.035868857
0000a0 8c e0 32 bd 34 f2 ff bd 35 04 64 bf 92 f0 97 be
       -0.043671176 -0.124973685 -0.8906892 -0.29675728
0000b0 d3 16 e4 be db aa fa 3d 44 00 79 bd f5 9c e8 be
       -0.44548663 0.12239619 -0.06079127 -0.4543225
0000c0 ad 4f df 3e 9f bc de 3e 59 3d 48 3e be 23 0e 3e
       0.43615475 0.4350328 0.19554652 0.13880822
0000d0 7a b5 a7 3e 91 7f 63 3e d7 10 9d bd ae 47 d5 be
       0.32755643 0.22216631 -0.076692276 -0.4165625
0000e0 16 ca 04 bf bd fd e7 bd e8 0d 0b be 7b de db 3d
       -0.5187086 -0.113276936 -0.13579524 0.10735794
0000f0 cb 93 28 bf e2 fb 66 3a f5 55 38 be 08 ee 3f 3d
       -0.65850514 0.0008811337 -0.1800154 0.046857864
000100 5f b7 b5 3e db bd 90 3e 55 e0 6b 3e 1f 67 b0 be
       0.35491464 0.28269848 0.23034795 -0.34453675
000110 2d 45 ef bd db 87 f2 3d 01 2b 9d 3e d3 7d df bd
       -0.11683116 0.118423186 0.30696872 -0.10912671

net.0.bias f4 [12]
000000 33 67 a1 bd 59 d0 4c 3f 05 80 c1 3e 8a 76 ba 3e
       -0.07881012 0.80005413 0.37792984 0.36418563
000010 75 9c e6 be 0c 65 cd bd 1b ee 89 be a5 d9 0f be
       -0.45041242 -0.10029039 -0.26939473 -0.14047869
000020 70 e0 c7 3e 98 bc 00 3f 2c 57 b4 3e 00 a7 87 be
       0.3903842 0.5028777 0.35222757 -0.26494598

net.2.weight f4 [1, 12]
000000 d4 d6 f1 3e 46 a1 2a 3f ef 5b ca 3e cc 2f 10 bf
       0.47234213 0.66652334 0.39523265 -0.5632293
000010 d8 eb 4f 3d f3 03 2f 3f a0 ac b2 3e 19 8a 55 bf
       0.050762028 0.683654 0.34897327 -0.83413845
000020 df 24 e8 3e af 07 1d bf 30 3a f0 be 93 8b ca bd
       0.4534063 -0.6133985 -0.46919394 -0.09889903
