notebooks/lightning_logs/version_220/checkpoints/epoch=120-step=1693.ckpt (torch, 6267 bytes, 9 tensors)

exp_avg f4 [12, 6]
0	0x377d4c75	1.5097777e-05
1	0x3a6c34e7	0.00090105686
2	0xbb0b19ff	-0.0021225212
3	0xbb3d1e7c	-0.0028857281
4	0x3c2f4b88	0.01069916
5	0x3bbaacc0	0.005696863
6	0xb7441b4c	-1.1688866e-05
7	0x3b25bc74	0.0025289329
8	0x39835026	0.00025045982
9	0xba7502fe	-0.0009346454
10	0x3ab8c7d5	0.001409764
11	0x3a581cd6	0.0008244043
12	0x38968443	7.177193e-05
13	0xbbf28f42	-0.0074023316
14	0x3b318f00	0.0027093291
15	0xbc8aefb9	-0.016960012
16	0x3c3573e6	0.011074996
17	0x3cbc6098	0.022995278
18	0x3889d63c	6.572573e-05
19	0x3bf127c0	0.007359475
20	0x3b9c6b86	0.00477356
21	0x3c17e035	0.009269764
22	0x3c0396cc	0.008031558
23	0x3c8969a2	0.016774002
24	0xb95eb71e	-0.00021239786
25	0x3c6854ad	0.0141803445
26	0x3b52f174	0.0032187374
27	0xba9140da	-0.0011081949
28	0x3c2c53b7	0.010518006
29	0xbc7377f3	-0.014860141
30	0x39336d2c	0.0001711144
31	0xbbbdf070	-0.0057964846
32	0xbb684db5	-0.0035446708
33	0xbb8595d8	-0.0040767007
34	0x3bb48005	0.005508425
35	0xbc9430ac	-0.018089615
36	0x38b5ee98	8.675194e-05
37	0x3c0918e6	0.008367753
38	0x3bf052ec	0.007334104
39	0xbbce0f12	-0.0062884176
40	0x3bd7d1bc	0.0065862816
41	0xbb165edd	-0.0022944727
42	0x398cbdfd	0.00026844433
43	0xbc1892ab	-0.009312312
44	0x3c151b2c	0.009100717
45	0xbbb333a0	-0.0054688007
46	0x3c74e86d	0.014947993
47	0xbb05bd7d	-0.0020407133
48	0x379968c6	1.828781e-05
49	0xbb212b34	-0.0024592401
50	0x3b50c9a4	0.0031858468
51	0x3a0ac68d	0.00052938686
52	0x3a7325fd	0.0009275375
53	0xba6854f6	-0.0008862758
54	0x3973f098	0.00023263914
55	0xba66363d	-0.0008781886
56	0x3ae98321	0.0017815569
57	0xbbb955a7	-0.0056559625
58	0x3bd63491	0.006537028
59	0xbc29222b	-0.010323088
60	0xb88f186a	-6.823319e-05
61	0xbb17ed0e	-0.0023182067
62	0x3bdf0ca7	0.006806928
63	0xbaa55203	-0.0012612942
64	0x3bb290b8	0.0054493807
65	0x3c8ffc49	0.017576354
66	0x3959b898	0.00020763499
67	0x3b28d986	0.002576442
68	0x3c28abff	0.010294913
69	0x3bbbffb2	0.0057372684
70	0x3bc4d3f0	0.00600671
71	0x3c460e06	0.012088304

exp_avg_sq f4 [12, 6]
0	0x36164412	2.2391364e-06
1	0x3c1db675	0.009626021
2	0x3b8d56b7	0.0043133157
3	0x3b0065c6	0.0019591912
4	0x3b8657ac	0.004099807
5	0x3b4326ad	0.0029777691
6	0x3316f583	3.5147888e-08
7	0x39fa3e0d	0.00047729947
8	0x38c58cb6	9.4199015e-05
9	0x374557a8	1.1762524e-05
10	0x372c51fe	1.0271089e-05
11	0x37b04f0f	2.101765e-05
12	0x36b34da7	5.3436556e-06
13	0x3d2d7ed8	0.042357296
14	0x3bac9fb6	0.0052680625
15	0x3b694ede	0.0035599987
16	0x3bb51c5a	0.0055270614
17	0x3c3892cb	0.011265467
18	0x358cac9a	1.0481047e-06
19	0x3c1c3761	0.009534688
20	0x3b991dde	0.00467275
21	0x3a872991	0.001031207
22	0x3b841b4f	0.0040315758
23	0x3b1414d1	0.0022595415
24	0x35818333	9.649433e-07
25	0x3bd348ff	0.006447911
26	0x3aacae42	0.0013174491
27	0x3abadd1a	0.0014256567
28	0x3afffd21	0.0019530394
29	0x3b504ab9	0.003178282
30	0x35d0e819	1.5564757e-06
31	0x3b8ac2cc	0.0042346474
32	0x3a6250d0	0.0008633258
33	0x3a92eb73	0.0011209085
34	0x3af94580	0.0019017905
35	0x3b14f420	0.0022728518
36	0x35993850	1.1415777e-06
37	0x3c10655f	0.008813231
38	0x3b377322	0.0027992208
39	0x3b02de71	0.0019969011
40	0x3af459d9	0.0018642499
41	0x3afa8ffd	0.0019116398
42	0x36a145f0	4.8063157e-06
43	0x3ce7d9cb	0.028302094
44	0x3b82ae5d	0.003988071
45	0x3b1797a2	0.0023131152
46	0x3ba7436c	0.005104473
47	0x3c0a8d73	0.008456576
48	0x33ae8dae	8.128278e-08
49	0x3b371de6	0.0027941405
50	0x3a06d2f9	0.0005143132
51	0x38a053b2	7.644984e-05
52	0x384603da	4.7210466e-05
53	0x39178c1c	0.00014452677
54	0x36636f2e	3.389035e-06
55	0x3c9b5d8f	0.01896551
56	0x3ad09cb3	0.0015915841
57	0x3af2dc40	0.0018528774
58	0x3b48f3c0	0.0030662864
59	0x3b98855e	0.0046545705
60	0x35a556ee	1.2318758e-06
61	0x3c582aa3	0.013193759
62	0x3b87c387	0.0041431817
63	0x3abbf3c5	0.0014339617
64	0x3b7f8c86	0.003899367
65	0x3b520cde	0.0032051126
66	0x3591136d	1.0808996e-06
67	0x3c09ce41	0.008410991
68	0x3b833177	0.0040036994
69	0x3a2d4a22	0.0006610473
70	0x3b5cded7	0.0033702159
71	0x3af8e36b	0.0018988674

exp_avg f4 [12]
0	0x3a3c6aa0	0.0007187519
1	0xba11e001	-0.000556469
2	0x3b5fecf4	0.0034168335
3	0x3b4d0fc4	0.0031289915
4	0xbc25ab06	-0.010111576
5	0x3c0577aa	0.008146206
6	0x3b8754d0	0.0041299835
7	0x3c51623c	0.012779769
8	0x3a643a88	0.00087062316
9	0x3c3574ba	0.011075193
10	0xbb54e27c	-0.0032483628
11	0x3c21f3f8	0.009884827

exp_avg_sq f4 [12]
0	0x3ba64a7b	0.0050747967
1	0x38a70ea6	7.965909e-05
2	0x3c466cbe	0.012110887
3	0x3b1bad11	0.0023754279
4	0x3b0f52e9	0.0021869487
5	0x3b672f5b	0.0035276029
6	0x3b298f5a	0.0025872798
7	0x3c3278c4	0.010893051
8	0x39412b19	0.0001842197
9	0x3bfbb009	0.007680897
10	0x3b36f8c0	0.0027919263
11	0x3b208c0a	0.0024497532

exp_avg f4 [1, 12]
0	0x3b6f0548	0.0036471654
1	0x39e1eb24	0.00043090538
2	0xbc2bf5aa	-0.010495583
3	0x3cc5aae0	0.024129331
4	0x3b6ae470	0.0035841726
5	0x3b1c99b8	0.0023895334
6	0x3ca77052	0.0204393
7	0xba446e20	-0.00074932165
8	0xbbd40046	-0.006469759
9	0x3c118278	0.008881204
10	0x3cfe1767	0.031017018
11	0x3cb6c714	0.022311725

exp_avg_sq f4 [1, 12]
0	0x3dad184c	0.084519
1	0x3b27839e	0.0025560628
2	0x3cbd3cca	0.023100276
3	0x3cfd374b	0.030910155
4	0x3d953e3b	0.0728726
5	0x3d42bf22	0.04754556
6	0x3d940326	0.07227163
7	0x3d11dd34	0.035611346
8	0x3c5b034d	0.013367486
9	0x3dce06df	0.10059904
10	0x3d6adf15	0.057341654
11	0x3db2f2d0	0.08737719

net.0.weight f4 [12, 6]
0	0x3f4f057a	0.8086773
1	0xbf5d148f	-0.86359495
2	0x3e4bbbc9	0.19895853
3	0x3dc5255f	0.096262686
4	0xbdd052dd	-0.10172055
5	0x3d63187d	0.055443276
6	0x3d60e89b	0.05490933
7	0xbd44e21b	-0.048067193
8	0xbdf61658	-0.120159805
9	0x3e670494	0.2256034
10	0x3baabce9	0.005210508
11	0x3ea410e6	0.32044142
12	0x3eedbc89	0.46432903
13	0x3eda6082	0.42651755
14	0x3f138425	0.5762351
15	0x3e9743d5	0.2954394
16	0x3c6807b6	0.014161995
17	0xbdd081db	-0.10181018
18	0x3db74995	0.089495815
19	0xbf1f49d8	-0.6222205
20	0xbf0f12da	-0.5588814
21	0xbed3de4f	-0.41380545
22	0xbdc7f016	-0.0976259
23	0xbc4fdc7b	-0.012686844
24	0x3e824364	0.2544204
25	0x3f117d1b	0.5683152
26	0x3dd8a747	0.105787806
27	0xbecc4480	-0.3989601
28	0x3b9ed67f	0.0048473473
29	0xbd57daeb	-0.05269901
30	0x3edb1c0f	0.42794845
31	0x3f5a0cf4	0.85176015
32	0x3be63f2f	0.007026575
33	0x3d65f7eb	0.056144636
34	0xbe301696	-0.17196116
35	0xbe9bb1ad	-0.30408993
36	0x3ea06ed8	0.31334567
37	0xbf3dd540	-0.7415352
38	0xbebe9f05	-0.37230697
39	0x3ee19045	0.4405538
40	0x3e7a0307	0.24415217
41	0x3e3e0194	0.1855529
42	0x3ed2655a	0.4109295
43	0x3f1c6e7c	0.61106086
44	0x3d5b19cc	0.0534914
45	0x3dc8d387	0.09805971
46	0x3da7e861	0.0819862
47	0x3e15cdce	0.1462929
48	0x3e117e41	0.14208318
49	0x3e6836e7	0.22677194
50	0xbe609999	-0.21933593
51	0x3ed907dc	0.4238881
52	0x3e8d0ed4	0.27550375
53	0x3d9edc7d	0.077568986
54	0xbc2a3c0d	-0.010390294
55	0x3f4d2b47	0.8014416
56	0x3f1114a0	0.56672096
57	0xbe70fd72	-0.23534182
58	0xbe34eb3a	-0.17667857
59	0xbdc12920	-0.09431672
60	0x3f00f061	0.5036679
61	0xbed1dfad	-0.40990964
62	0xbee3c1aa	-0.4448369
63	0x3e539485	0.20662124
64	0xbe8620c4	-0.26196873
65	0xbed82cbd	-0.42221633
66	0xbdff38c7	-0.12462001
67	0xbf6419ae	-0.89101684
68	0xbf20bebc	-0.6279104
69	0xbef8da27	-0.48603937
70	0x3de54950	0.11195624
71	0x3cd7a96d	0.026325906

net.0.bias f4 [12]
0	0x3f130eaf	0.5744428
1	0xbdfbe3a0	-0.122992754
2	0x3e9b4b92	0.30331093
3	0x3c3c628c	0.011498105
4	0x3f51f4a6	0.8201393
5	0x3e38cc43	0.1804667
6	0x3ec0bd94	0.37644637
7	0x3ea7e9dd	0.3279561
8	0x3df58039	0.11987347
9	0x3e87a9c2	0.26496702
10	0x3f7b069d	0.98056966
11	0x3d9a39bd	0.07530544

net.2.weight f4 [1, 12]
0	0xbefa4ac3	-0.48885164
1	0xbd2e04c2	-0.042485006
2	0x3f3a5599	0.7278686
3	0xbefe1290	-0.49623537
4	0x3ec65d86	0.38743228
5	0x3ecc9dad	0.39964047
6	0xbedef171	-0.4354358
7	0x3f1d17bb	0.61364335
8	0x3de7fcb3	0.113274954
9	0x3effb95b	0.49946102
10	0xbeed663f	-0.4636707
11	0xbee074bd	-0.43839064
