notebooks/lightning_logs/version_24/checkpoints/epoch=96-step=1357.ckpt (torch, 6267 bytes, 9 tensors)

exp_avg f4 [12, 6]
0	0xbb84b04d	-0.004049337
1	0xbc14bac7	-0.009077734
2	0xbb97e9d0	-0.004636027
3	0xba1b6aef	-0.0005928715
4	0x3a63beb7	0.00086877815
5	0xbb03cc79	-0.002011089
6	0x3c078c3a	0.008273179
7	0xb97f7666	-0.00024362802
8	0x3b82b602	0.003988982
9	0x391debb0	0.00015060487
10	0x3aba0e76	0.0014194984
11	0xb967e690	-0.00022115768
12	0x3b72c0ee	0.0037041265
13	0x3b4cf5c6	0.0031274422
14	0x3aa11b53	0.0012291468
15	0x3ade6683	0.0016967807
16	0x398eacdc	0.0002721314
17	0xbaead96d	-0.0017917581
18	0x3c0086d4	0.0078446455
19	0x3c45f963	0.012083384
20	0xbb6c7353	-0.003607948
21	0x3aec62bf	0.00180348
22	0xbb065c6e	-0.002050187
23	0x3abd3d0d	0.001443775
24	0xba298868	-0.00064671645
25	0x3b0452e6	0.0020191013
26	0x3815ae1b	3.5686517e-05
27	0x3b0ded47	0.002165632
28	0x3a2b9773	0.00065457
29	0xba0da745	-0.0005403648
30	0x3be7029e	0.0070498725
31	0x3aa5ae19	0.0012640386
32	0x3b53b419	0.0032303391
33	0xb9aef703	-0.00033371904
34	0x399bc671	0.00029711754
35	0x3b0370d7	0.0020056271
36	0xb9cb2ce9	-0.00038752638
37	0xba4c76ba	-0.0007799674
38	0x393ef3a7	0.0001821058
39	0xb908cc63	-0.0001304611
40	0xb88b963b	-6.656019e-05
41	0xb92feb8c	-0.00016777049
42	0x3c417ec7	0.011810011
43	0xba35d596	-0.0006936429
44	0x3beae7be	0.007168739
45	0x3aa0ed31	0.001227772
46	0x3b0c7d9e	0.0021437178
47	0x3929c00e	0.00016188642
48	0xbb7308e6	-0.0037084161
49	0x3a211c2c	0.00061458605
50	0xba0608a7	-0.00051129836
51	0x3a219c81	0.00061649835
52	0xbab4854f	-0.0013772639
53	0xba4e6eeb	-0.00078748044
54	0xbac7fb4c	-0.0015257387
55	0x3aa68e07	0.0012707122
56	0xba2ee7fc	-0.00066721416
57	0x39b42134	0.00034357014
58	0xb9b5a18b	-0.0003464337
59	0x3aa3bf9d	0.0012493018
60	0x3afcad06	0.0019277639
61	0x3bc26277	0.005932148
62	0x3b1ec099	0.0024223684
63	0x3b438cfc	0.0029838672
64	0x3a80edc3	0.0009836484
65	0xbb52c75a	-0.003216228
66	0xbaf07210	-0.001834454
67	0xbaef4cd6	-0.0018257152
68	0xbb37458c	-0.0027965037
69	0x376a7a00	1.3975892e-05
70	0x3a1016b0	0.0005496545
71	0xba59ec34	-0.000831309

exp_avg_sq f4 [12, 6]
0	0x3d296124	0.041352406
1	0x3c8383cc	0.016054057
2	0x3b914fef	0.0044345777
3	0x3b0596c5	0.0020384055
4	0x3a40768a	0.00073418824
5	0x3a062ff3	0.00051188393
6	0x3c366ed8	0.011134826
7	0x3b86e9a9	0.00411721
8	0x3adf0028	0.0017013596
9	0x39a7f12e	0.00032032415
10	0x398e7a35	0.00027175402
11	0x3921314e	0.00015372524
12	0x3be2ada7	0.0069176736
13	0x3b2e57cc	0.0026602624
14	0x3a5c5a97	0.0008405833
15	0x39aafa1f	0.00032611281
16	0x38ff39ee	0.00012170138
17	0x392e3fb0	0.00016617659
18	0x3d81cab2	0.06337489
19	0x3cca47f2	0.02469251
20	0x3c76e3fb	0.015069003
21	0x3aa303ad	0.0012437009
22	0x3a95e49f	0.0011435932
23	0x3a4c8abb	0.0007802655
24	0x3be76fc1	0.0070628827
25	0x3b175435	0.0023090963
26	0x3ada9db5	0.001667908
27	0x391d0813	0.00014975695
28	0x3910fc2e	0.00013826854
29	0x390e31ef	0.00013560777
30	0x3bd53d1f	0.0065075303
31	0x3ab4f347	0.0013805412
32	0x3a2b32bc	0.00065306923
33	0x39ca3f1d	0.00038575465
34	0x3909b336	0.000131321
35	0x38bdbb50	9.047112e-05
36	0x391c6db2	0.00014918184
37	0x38e5b386	0.0001095301
38	0x383924d9	4.4141754e-05
39	0x365ffd77	3.3377125e-06
40	0x367f4940	3.8040598e-06
41	0x36b9fd33	5.542906e-06
42	0x3c320674	0.010865796
43	0x3ba2f8f0	0.0049735233
44	0x3ad0b357	0.0015922588
45	0x3a230434	0.0006218583
46	0x39de254a	0.00042370922
47	0x39826eef	0.00024878184
48	0x3a37bfce	0.0007009477
49	0x39d3ef4b	0.00040423343
50	0x39625058	0.0002158297
51	0x38549aaa	5.068878e-05
52	0x3825fe2e	3.957579e-05
53	0x380582fe	3.1831667e-05
54	0x3c04f551	0.008115129
55	0x3b807c6b	0.003921082
56	0x3ae411e1	0.0017400348
57	0x39858303	0.00025465348
58	0x396c6495	0.00022544184
59	0x3984e5ee	0.00025348313
60	0x3c35de2b	0.011100332
61	0x3bbbc204	0.0057299156
62	0x3ae8a98d	0.0017750725
63	0x39fa670f	0.000477605
64	0x3985c4a3	0.00025514243
65	0x39f4f16c	0.0004671918
66	0x3c0e9b67	0.008704043
67	0x3b9d389c	0.004798008
68	0x3a88592a	0.001040255
69	0x3998b95a	0.00029129797
70	0x39131cc7	0.00014029733
71	0x39336c46	0.00017111105

exp_avg f4 [12]
0	0xbc32678c	-0.010888945
1	0x3bb5fa77	0.0055535394
2	0x3b6b6cc2	0.003592298
3	0x3b4d666f	0.0031341573
4	0x3c12fa36	0.008970788
5	0x3bbdcb97	0.005792092
6	0xba2ae740	-0.0006519444
7	0x3c06e209	0.008232602
8	0x3c082ae8	0.008311011
9	0x3b82f12b	0.0039960346
10	0x3b888e92	0.0041673863
11	0xbbdd0ed4	-0.0067461524

exp_avg_sq f4 [12]
0	0x3b4d56c6	0.0031332239
1	0x398813b7	0.0002595463
2	0x3b2c0087	0.0026245432
3	0x3c61b69d	0.013776449
4	0x3b3afb2d	0.002853106
5	0x3a4055bd	0.0007336995
6	0x377d275e	1.5089141e-05
7	0x3b4dd3d9	0.0031406789
8	0x399054aa	0.000275289
9	0x3a96be50	0.0011500809
10	0x3b8a20c6	0.0042153327
11	0x3a0d41e4	0.00053885416

exp_avg f4 [1, 12]
0	0x3bbd6398	0.0057796948
1	0x3ba37605	0.0049884343
2	0x3bf68fd4	0.00752447
3	0x3c8cf3f4	0.01720617
4	0x3c43b08b	0.011943947
5	0x3c144814	0.009050388
6	0x3b20a7af	0.002451401
7	0x3c8f8241	0.017518165
8	0xbc6b7c3a	-0.01437288
9	0x3a9e9ee4	0.0012101796
10	0x3b2e24ff	0.0026572344
11	0x3c51b0aa	0.012798468

exp_avg_sq f4 [1, 12]
0	0x3cb8e4ab	0.022569975
1	0x3aee0350	0.0018158946
2	0x3da1b8ed	0.078966
3	0x3dbb7a47	0.09154182
4	0x3e81f257	0.25380203
5	0x3c1331ac	0.008984011
6	0x3ae628d2	0.0017559773
7	0x3cbaba32	0.022793863
8	0x3c3a9871	0.011388884
9	0x3b8d83f7	0.00431871
10	0x3dc6a2f3	0.09699049
11	0x3cd92d8d	0.026510978

net.0.weight f4 [12, 6]
0	0xbe85cc40	-0.26132393
1	0xbe58aa20	-0.21158648
2	0xbe7558d2	-0.23959664
3	0xbdc27d81	-0.09496594
4	0x3d1deb29	0.038554344
5	0x3dd64468	0.10462266
6	0xbe2249a1	-0.158484
7	0xbebbfef5	-0.36717954
8	0xbe24c935	-0.1609238
9	0xbe0b59cd	-0.13608475
10	0x3e17fd06	0.14842615
11	0x3e0ee002	0.1395264
12	0xbf128b3b	-0.572437
13	0xbec61ef2	-0.38695484
14	0xbecd9b90	-0.40157747
15	0x3e159ca9	0.14610542
16	0x3e8293a1	0.25503257
17	0x3e8cd455	0.27505746
18	0x3ee961dc	0.45582473
19	0x3f16c312	0.58891404
20	0x3de10722	0.109876886
21	0xbdd6666c	-0.10468754
22	0xbe00623d	-0.12537475
23	0xbe04f8e7	-0.12985574
24	0x3f6dd168	0.92897654
25	0x3f346c66	0.704779
26	0x3f5e99f2	0.8695365
27	0x3edde532	0.43338925
28	0x3ea82e6e	0.32847923
29	0x3e830ca0	0.2559557
30	0xbea5442d	-0.32278576
31	0xbf1a3c4d	-0.6024826
32	0xbe0590fb	-0.13043587
33	0x3e9270d9	0.2860172
34	0xbdbc9cb3	-0.092095755
35	0xbe6211e3	-0.22077136
36	0xbe05ecf9	-0.13078679
37	0x3ea8cf7d	0.329708
38	0xbe110c72	-0.14164904
39	0xbec9100b	-0.39270052
40	0xbe1b55b5	-0.15169413
41	0x3ea763bf	0.32693288
42	0xbecbf7af	-0.39837405
43	0xbf214503	-0.6299593
44	0xbebc94f6	-0.36832398
45	0xbe868d64	-0.26279747
46	0xbe2998cb	-0.16562192
47	0xbe1eb5bb	-0.15499012
48	0x3f2d5a15	0.6771558
49	0x3ee99f80	0.456295
50	0x3ef4f6be	0.478445
51	0xbdb55651	-0.08854354
52	0xbe43ba0c	-0.1911394
53	0xbe0576f5	-0.1303366
54	0x3e6414a2	0.22273496
55	0x3ed98056	0.42480725
56	0x3d8fa0f7	0.070131235
57	0xbe9eb5bd	-0.3099803
58	0x3ded156c	0.115763515
59	0x3ea7d92f	0.32782885
60	0xbf4ccc97	-0.7999968
61	0xbdc93194	-0.098239094
62	0xbeed66e1	-0.46367553
63	0xbd7c3d91	-0.06158215
64	0xbe05509a	-0.13019028
65	0xbe6a4775	-0.22878821
66	0xbede1598	-0.4337585
67	0x3d875fdc	0.066100806
68	0xbeb8a992	-0.36066872
69	0x3ddf100a	0.10891731
70	0x3cbaef88	0.022819296
71	0x3de81018	0.11331195

net.0.bias f4 [12]
0	0x3f291ad1	0.66056544
1	0xbbd9ed2a	-0.0066505866
2	0x3eb756e5	0.35808483
3	0x3f323d37	0.69624656
4	0x3ec39a73	0.38203773
5	0x3cab3d98	0.020903394
6	0xbd208d08	-0.039196998
7	0xbe03ce84	-0.12871748
8	0xbed016c0	-0.40642357
9	0x3cb3c571	0.021944733
10	0x3eca3d14	0.39499724
11	0x3f7365bb	0.95077103

net.2.weight f4 [1, 12]
0	0xbf0dbe7a	-0.5536877
1	0xbeb00601	-0.3437958
2	0xbeb7eb36	-0.3592164
3	0x3f37f682	0.71860516
4	0x3ee3868c	0.4443859
5	0xbedbc228	-0.42921567
6	0xbda7cf53	-0.08193841
7	0xbefcba0d	-0.49360695
8	0x3ec5386b	0.38519606
9	0x3ed65262	0.41859728
10	0xbedfef91	-0.43737462
11	0xbebfdb3b	-0.37471947
