notebooks/lightning_logs/version_42/checkpoints/epoch=101-step=1427.ckpt (torch, 6267 bytes, 9 tensors)

exp_avg f4 [12, 6]
0	0xbaf7a7ec	-0.0018894649
1	0xba8419d3	-0.0010078497
2	0xb9b177af	-0.00033849242
3	0xba19e8f2	-0.00058711984
4	0xb813614e	-3.5138153e-05
5	0xba816509	-0.000987203
6	0x3b3a2ec6	0.0028409227
7	0x3be33549	0.0069338423
8	0x3b259d89	0.00252709
9	0xbaaea823	-0.0013325255
10	0x3aa5f873	0.0012662545
11	0x3aa94a86	0.0012915886
12	0xbb8de6ac	-0.0043304767
13	0x3b01e87f	0.0019822416
14	0x3a811375	0.0009847718
15	0x3b558b92	0.003258441
16	0x3b61bb14	0.0034443783
17	0x3ac8624a	0.0015288081
18	0xb9aefdaa	-0.0003337686
19	0xb85d924c	-5.2826756e-05
20	0x38c1c85b	9.240276e-05
21	0x388ce51f	6.718397e-05
22	0xb9663225	-0.0002195319
23	0xb8cd426c	-9.787534e-05
24	0xbaeefddc	-0.0018233615
25	0xba9934b8	-0.0011688685
26	0xbb3d1a18	-0.0028854664
27	0x38afef3e	8.3892126e-05
28	0x3b1cd470	0.0023930334
29	0x3a8d4f5d	0.0010781098
30	0x3b811635	0.003939415
31	0x3b3c3a6d	0.0028721348
32	0x3b248dde	0.0025108973
33	0xbafb0e77	-0.0019154091
34	0x3aa9e635	0.0012962284
35	0x3aa18d99	0.0012325525
36	0x3ab68e52	0.0013927913
37	0x39afe3a4	0.00033548207
38	0xba580103	-0.0008239897
39	0xb9a62eab	-0.00031696758
40	0xbadf40c9	-0.0017032857
41	0xb8fcf712	-0.00012062317
42	0xbaf420c5	-0.0018625489
43	0x3b937fb8	0.0045013092
44	0x3b4125e8	0.0029472057
45	0x3b226215	0.00247777
46	0x3bac9b5c	0.0052675437
47	0x3a04ec45	0.00050706073
48	0xbb299191	-0.0025874118
49	0xbb830576	-0.0039984537
50	0xbb64bcfa	-0.0034902678
51	0xbacfaafc	-0.0015843804
52	0xb91820e7	-0.00014508107
53	0xbb915637	-0.0044353264
54	0x3b5c1f2f	0.0033587923
55	0x3b1cac34	0.0023906352
56	0x3a00e757	0.0004917285
57	0xb9efc290	-0.00045730593
58	0xbad171aa	-0.0015979309
59	0xba4c2355	-0.00077872473
60	0x3bc2e5c3	0.0059478
61	0x3b045714	0.0020193504
62	0xba11e4e7	-0.000556542
63	0xbaed1924	-0.0018089158
64	0xba8e38f0	-0.0010850709
65	0xb9ec2f4b	-0.00045048664
66	0xbb4fd0de	-0.0031710188
67	0xba6188c7	-0.000860345
68	0xb8a3508e	-7.78745e-05
69	0xb99e5d71	-0.00030205728
70	0x3b444cec	0.0029953076
71	0x3aa2e3e0	0.0012427531

exp_avg_sq f4 [12, 6]
0	0x39c0c82a	0.00036770228
1	0x398fbde8	0.00027416577
2	0x38aa1be2	8.111425e-05
3	0x37b1728d	2.1153386e-05
4	0x370c52f6	8.363966e-06
5	0x374b060f	1.21011535e-05
6	0x3bf08b5c	0.0073408317
7	0x3b9a05f1	0.0047004153
8	0x3b192da2	0.0023373147
9	0x396ceaee	0.00022594232
10	0x399e3afc	0.00030180055
11	0x399d0a00	0.00029952824
12	0x3ccf08c0	0.025272727
13	0x3c820abe	0.015874263
14	0x3b265def	0.0025385579
15	0x39f5c83d	0.0004687923
16	0x3a3aa920	0.00071205385
17	0x39f2b2b3	0.00046290978
18	0x3b9089dc	0.0044109654
19	0x3b5cbbcd	0.0033681274
20	0x3a70b837	0.00091827236
21	0x38f2d075	0.000115782874
22	0x3859dc4e	5.1942006e-05
23	0x38af5755	8.360917e-05
24	0x3bd4831d	0.0064853565
25	0x3b6d7bcc	0.0036237119
26	0x3b04af50	0.0020246096
27	0x39144313	0.00014139367
28	0x397fd7fb	0.00024399154
29	0x392aab3e	0.00016276256
30	0x3bda1b78	0.0066561066
31	0x3b952c02	0.0045523653
32	0x3ab1b1d2	0.0013557023
33	0x393e908b	0.00018173658
34	0x39213c9e	0.00015376738
35	0x3967dc46	0.00022111935
36	0x3ab81393	0.001404392
37	0x3a6f707d	0.00091338885
38	0x39df323d	0.00042571305
39	0x385faec3	5.3330103e-05
40	0x38272927	3.985423e-05
41	0x38840477	6.295082e-05
42	0x3cf1ad02	0.029501442
43	0x3c9cce79	0.019141423
44	0x3b066145	0.0020504755
45	0x3a54b107	0.00081135373
46	0x39fc2fbe	0.00048100756
47	0x3a1166c5	0.0005546625
48	0x3b0472a8	0.0020209942
49	0x3a8bd7f2	0.0010669215
50	0x398798d7	0.0002586308
51	0x38ac7d6d	8.2249615e-05
52	0x394a8773	0.0001931468
53	0x39113b55	0.0001385038
54	0x3bcbbf75	0.006217892
55	0x3b8b0129	0.0042420817
56	0x3b01c800	0.0019803047
57	0x392d9fc6	0.00016558086
58	0x39097eb1	0.00013112534
59	0x38eb4942	0.000112193185
60	0x3d0219c7	0.031762864
61	0x3cb6156b	0.02222701
62	0x3c0be043	0.008537355
63	0x3a7752e2	0.0009434653
64	0x3a132516	0.0005613131
65	0x3a1a1083	0.0005877094
66	0x3b48c597	0.003063535
67	0x3ac56499	0.0015059888
68	0x39ed7a91	0.00045295482
69	0x38ad58a9	8.265797e-05
70	0x39008078	0.0001225489
71	0x38fede1e	0.000121530364

exp_avg f4 [12]
0	0xb93a60c4	-0.0001777439
1	0x3c2651b6	0.010151317
2	0x3be961c8	0.007122252
3	0xb5e73a60	-1.722783e-06
4	0x3c108720	0.008821279
5	0x3b7df142	0.0038748537
6	0x3b009c20	0.0019624308
7	0xb964bd68	-0.00021814334
8	0x3c03e51b	0.0080502285
9	0x3bed5e7c	0.0072439294
10	0x3c3ecd22	0.011645587
11	0x3b37c955	0.0028043587

exp_avg_sq f4 [12]
0	0x38a0e166	7.671378e-05
1	0x3b0e075f	0.0021671874
2	0x3c01d70a	0.007924804
3	0x3ad01488	0.0015875259
4	0x3ab5ff80	0.0013885349
5	0x3b8ef19f	0.0043622996
6	0x3a5e1ca1	0.0008472894
7	0x3af83d1d	0.0018939112
8	0x3a21b6ce	0.00061689026
9	0x3b9d8f07	0.00480831
10	0x3ca24b21	0.019811215
11	0x3a81353a	0.0009857782

exp_avg f4 [1, 12]
0	0xbb3bbb22	-0.0028645475
1	0x3babd57c	0.005243955
2	0x3b35f722	0.002776571
3	0x3b3a3e5d	0.002841852
4	0xbafaad24	-0.0019125086
5	0x3c3a95c5	0.011388247
6	0xbb37b79c	-0.0028033024
7	0x3bb36a34	0.005475307
8	0xbc1caa81	-0.009562136
9	0x3c09e49f	0.008416324
10	0x3a4bcb5a	0.0007774137
11	0xbbef7e8e	-0.0073087877

exp_avg_sq f4 [1, 12]
0	0x3aedc11c	0.0018139216
1	0x3bc16684	0.0059021134
2	0x3dbe1d33	0.09282913
3	0x3d4a22ad	0.049349476
4	0x3d7206e4	0.059088603
5	0x3d9f60c9	0.07782132
6	0x3d6eb421	0.058277253
7	0x3cca86d0	0.024722487
8	0x3b9d7bd9	0.0048060236
9	0x3e2e016b	0.16992728
10	0x3e8d12a1	0.27553275
11	0x3cd041af	0.025421945

net.0.weight f4 [12, 6]
0	0x3eaf74b1	0.34268716
1	0xbe3c53ee	-0.18391392
2	0x3d4b3dc3	0.049619447
3	0x3ebf124b	0.37318644
4	0x3eac5881	0.33661273
5	0xbe8b7201	-0.27235416
6	0xbea97081	-0.33093646
7	0xbe4212ed	-0.18952532
8	0xbf020bdd	-0.5079935
9	0x3ce1bc3b	0.027555576
10	0xbe12be9a	-0.14330521
11	0x3e44c942	0.19217399
12	0x3ee4cd67	0.4468796
13	0x3ef3b63b	0.47599968
14	0x3f062b6c	0.52410007
15	0xbe436e41	-0.19085027
16	0x3e3291fd	0.17438503
17	0xbdf8b673	-0.121441744
18	0xbdaf6c79	-0.085656114
19	0xbe565916	-0.20932421
20	0x3e73dc84	0.23814589
21	0x3eb5fc16	0.3554389
22	0x3d585bde	0.052821986
23	0xbcf9c749	-0.030490534
24	0x3f256cf3	0.6461937
25	0x3f269ae8	0.6508012
26	0x3bb1e243	0.005428584
27	0xbdca63ac	-0.09882292
28	0xbdd95e6b	-0.10613712
29	0x3ee3e84a	0.4451316
30	0xbf3e57a4	-0.7435248
31	0xbf236b81	-0.6383591
32	0xbe983e08	-0.29734826
33	0x3d7094fd	0.058735836
34	0x3e00f55b	0.12593596
35	0x3eaf7a99	0.34273222
36	0xbf1c7202	-0.6111146
37	0xbd999c28	-0.075004876
38	0xbedf1dac	-0.43577325
39	0xbee852cc	-0.4537567
40	0xbe1f39a2	-0.15549329
41	0x3c1ffed9	0.00976535
42	0x3e6691fc	0.22516626
43	0x3e950959	0.29108694
44	0x3f14c419	0.5811172
45	0x3e2a0fe6	0.16607627
46	0xbc19e565	-0.009393071
47	0x3c919b6a	0.017774303
48	0x3f3a9991	0.72890574
49	0x3e96adc2	0.29429442
50	0x3e9c8ab6	0.30574578
51	0x3d0aa461	0.03384817
52	0xbdab2bc9	-0.08357961
53	0xbd2501e6	-0.040285014
54	0xbf318ec7	-0.69358486
55	0xbf263d03	-0.64936846
56	0xbf1ac326	-0.6045402
57	0x3e760e64	0.24028927
58	0x3e86a896	0.26300496
59	0xbe85d16f	-0.26136348
60	0xbf3e89a1	-0.74428755
61	0xbf2beeeb	-0.67161435
62	0xbd984e14	-0.07436767
63	0x3cbf7393	0.02337054
64	0xbce49b7a	-0.027906168
65	0xbe8297fc	-0.2550658
66	0x3f0cbcf9	0.5497585
67	0x3f1b4b6f	0.6066198
68	0x3e802e74	0.2503544
69	0xbd5f9967	-0.054589655
70	0xbe0b08a2	-0.13577512
71	0xbe93a44a	-0.2883628

net.0.bias f4 [12]
0	0xbe949457	-0.29019424
1	0x3d361a69	0.04445878
2	0x3e9b7825	0.303651
3	0x3d362c77	0.044476
4	0x3dcda7c2	0.10041763
5	0xbc40061d	-0.0117202075
6	0x3ee80cc1	0.4532223
7	0x3ee6da64	0.45088494
8	0xbe8066c6	-0.2507841
9	0x3e27d2d6	0.16389021
10	0x3ee44bc4	0.44589055
11	0xbbfe73e5	-0.0077652805

net.2.weight f4 [1, 12]
0	0x3e0a3b5f	0.13499211
1	0xbf13a885	-0.57679015
2	0x3f09df11	0.53856
3	0x3cdd9118	0.027046725
4	0x3edd2536	0.43192452
5	0xbee406b1	-0.44536355
6	0xbe8f3335	-0.27968755
7	0x3f06c69a	0.5264679
8	0x3f1f8639	0.6231418
9	0xbec93302	-0.39296728
10	0xbf0f0969	-0.55873734
11	0x3ed56934	0.41681826
