notebooks/lightning_logs/version_64/checkpoints/epoch=152-step=2141.ckpt (torch, 6267 bytes, 9 tensors)

exp_avg f4 [12, 6]
0	0xba4b49aa	-0.0007754812
1	0xba8f06af	-0.0010912026
2	0xbaec8b3a	-0.0018046864
3	0xb8c15461	-9.218674e-05
4	0xb92cb6da	-0.00016471316
5	0xba33a0ce	-0.000685227
6	0x3ae25c3f	0.0017269923
7	0x3a852412	0.0010157845
8	0x3a0cedb5	0.0005375997
9	0x39d99634	0.00041501375
10	0xb9149b37	-0.00014172202
11	0x3a80b436	0.0009819332
12	0x3b514db7	0.003193719
13	0x3aa81875	0.0012824672
14	0x3add463b	0.0016881892
15	0xb963793c	-0.0002169357
16	0x3a16b5fe	0.0005749165
17	0x3a26937e	0.00063543755
18	0xbb07bf6d	-0.0020713464
19	0xbb11db48	-0.0022255946
20	0x3a08cdfe	0.00052186835
21	0xb9ffa432	-0.00048759725
22	0xbaabf708	-0.0013119886
23	0x38adfe12	8.296607e-05
24	0x3b80035d	0.003906651
25	0x3ba85202	0.005136729
26	0x3b74ef0e	0.0037373933
27	0xbb255fc9	-0.0025234094
28	0x3ab518f5	0.0013816642
29	0xba091a82	-0.0005230085
30	0x3ba863fa	0.0051388713
31	0x3af900d4	0.0018997439
32	0x3a9db892	0.0012033156
33	0x3a6b6d88	0.000898086
34	0xb9681b98	-0.00022135524
35	0xb9a7e822	-0.00032025675
36	0x3b39107e	0.002823859
37	0x3b0dd0c5	0.002163933
38	0x3ac857cb	0.0015284953
39	0xbaba8ab0	-0.0014232006
40	0xba6dfdcc	-0.0009078651
41	0x3ad1cc8e	0.0016006397
42	0xbb02337b	-0.001986711
43	0x3a95f434	0.0011440576
44	0xbaca962c	-0.0015456132
45	0x3a81f092	0.0009913614
46	0x39e8572c	0.00044315436
47	0xbb3c4129	-0.0028725362
48	0x39e44855	0.0004354144
49	0xbaba8c5f	-0.0014232508
50	0x3a18e977	0.0005833129
51	0x3a399a6b	0.00070802
52	0xbaf0b715	-0.001836511
53	0xb9980e0f	-0.00029002174
54	0xbab60d33	-0.0013889432
55	0xb9b89ab0	-0.00035210466
56	0xbb40ab10	-0.0029398836
57	0x3b31d81c	0.0027136868
58	0xba60d316	-0.0008576376
59	0xbb2f0a19	-0.00267089
60	0xbb3cdddf	-0.002881877
61	0xba7fc25a	-0.00097564387
62	0xbac2837d	-0.0014840212
63	0xba4a8a79	-0.00077263225
64	0xba33be2e	-0.0006856647
65	0xb958ae00	-0.00020664185
66	0x3aa2cda5	0.0012420906
67	0xbab7a10e	-0.001400979
68	0xb99a076a	-0.00029378693
69	0x3b403e41	0.0029333981
70	0xb794e074	-1.7747494e-05
71	0xbb611f92	-0.0034351093

exp_avg_sq f4 [12, 6]
0	0x3c9d9738	0.019237146
1	0x3c8a6e80	0.016898394
2	0x3b467310	0.0030280985
3	0x39aeadd8	0.0003331739
4	0x399493ee	0.00028338976
5	0x39a7bbf6	0.00031992764
6	0x3bd1f554	0.006407419
7	0x3bc4439e	0.005989506
8	0x3a86960f	0.001026811
9	0x38a58fe3	7.894614e-05
10	0x38a7d498	8.002779e-05
11	0x389177be	6.9364425e-05
12	0x3ba91584	0.0051600356
13	0x3b999787	0.004687253
14	0x3a54b312	0.0008113842
15	0x38877edc	6.460931e-05
16	0x389739a2	7.210976e-05
17	0x388c0c88	6.678054e-05
18	0x3ab4664d	0.0013763398
19	0x3aa6a414	0.0012713694
20	0x3979e90d	0.00023833309
21	0x3813fbfe	3.5282217e-05
22	0x37eea70b	2.8449596e-05
23	0x37bca006	2.2485863e-05
24	0x3b70c920	0.0036740974
25	0x3b5e8081	0.0033951106
26	0x3a38a578	0.00070437
27	0x3917f896	0.00014493088
28	0x38fbecc9	0.00012012717
29	0x38b0d496	8.431931e-05
30	0x3c26e2e0	0.010185927
31	0x3c0db282	0.008648517
32	0x3acf30b9	0.0015807367
33	0x39432e5b	0.00018613918
34	0x39619de7	0.00021516495
35	0x393a9914	0.00017795368
36	0x3b90fddb	0.004424793
37	0x3b7721d8	0.0037709381
38	0x3a709c19	0.0009178534
39	0x38be917e	9.087006e-05
40	0x38edbf10	0.00011336629
41	0x38b41aca	8.588059e-05
42	0x3b5c98d9	0.003366044
43	0x3b3767b3	0.0027985394
44	0x3a3a9975	0.0007118204
45	0x38e9908b	0.00011137229
46	0x38ec954e	0.00011281167
47	0x39174148	0.00014424801
48	0x3c1d37ff	0.00959587
49	0x3c11b2bf	0.008892714
50	0x3ae383b0	0.0017357972
51	0x3989da80	0.00026293471
52	0x393d3656	0.00018044686
53	0x390ca784	0.00013413845
54	0x3a79a75c	0.00095235347
55	0x3a49b0a3	0.00076938624
56	0x395f18ca	0.00021276172
57	0x3848c0ac	4.7863155e-05
58	0x37d6908b	2.5578096e-05
59	0x3823360c	3.8912563e-05
60	0x3cb0ac1b	0.021566441
61	0x3ca1189a	0.019665051
62	0x3b91a803	0.0044450774
63	0x39ac8e49	0.00032912407
64	0x398d5f89	0.00026964795
65	0x39d08d89	0.00039778303
66	0x3c06cd29	0.008227625
67	0x3bed9aad	0.007251105
68	0x3afd2f48	0.0019316459
69	0x391be5e1	0.00014867588
70	0x395203e6	0.00020028613
71	0x39237432	0.00015588177

exp_avg f4 [12]
0	0x3c5f29b8	0.013620786
1	0xba651874	-0.00087393005
2	0x3b420b06	0.0029608621
3	0x3aff4d9a	0.0019478083
4	0x398dc657	0.0002704139
5	0x3c2a3fc9	0.010391184
6	0x3bf78b00	0.007554412
7	0x3bcf29df	0.00632213
8	0x3b3e3ec0	0.00290291
9	0x3c031274	0.008000005
10	0x3c63b05a	0.013897026
11	0x3b39c267	0.0028344633

exp_avg_sq f4 [12]
0	0x3c212a16	0.009836694
1	0x3a038254	0.0005016674
2	0x3a2c50f4	0.0006573342
3	0x38dd7ab8	0.00010560959
4	0x39b29da6	0.00034068263
5	0x3b7ac2bd	0.0038263046
6	0x3b145544	0.002263383
7	0x3a814a96	0.0009864147
8	0x3b854db9	0.004068103
9	0x39c56bd2	0.000376551
10	0x3c1ea52b	0.009682934
11	0x3a89314d	0.0010466963

exp_avg f4 [1, 12]
0	0x3b21e754	0.0024704533
1	0xba474140	-0.00076009706
2	0x3ba409bd	0.0050060437
3	0x3abf08cf	0.0014574769
4	0x3bc4246b	0.0059857867
5	0x3c099dde	0.008399455
6	0x3c5de7a8	0.013544001
7	0x3ae3f3ec	0.001739142
8	0xbb4fa802	-0.0031685834
9	0xbc08fb15	-0.008360644
10	0xb9026cc0	-0.00012438279
11	0xbb861e2c	-0.0040929522

exp_avg_sq f4 [1, 12]
0	0x3e12c500	0.14332962
1	0x3be3e68c	0.0069549736
2	0x3b73d357	0.0037204826
3	0x3bd4e29f	0.006496742
4	0x3b0c5096	0.0021410338
5	0x3d2ff971	0.042962495
6	0x3df44efb	0.11929127
7	0x3c402cf7	0.01172947
8	0x3e62b9b1	0.22141148
9	0x3c949bb7	0.018140657
10	0x3e154630	0.14577556
11	0x3c7afd7a	0.015319223

net.0.weight f4 [12, 6]
0	0x3efba9de	0.49153036
1	0x3f1d4dbc	0.6144674
2	0x3f500e20	0.81271553
3	0x3eab9a14	0.3351599
4	0xbdcf5e3d	-0.101253964
5	0x3e0cf388	0.13764775
6	0x3d92e12d	0.07171855
7	0xbd5fdbf3	-0.05465312
8	0xbf192398	-0.59819937
9	0xbd113dfd	-0.035459507
10	0xbe45318c	-0.19257182
11	0x3eb1e78e	0.34746975
12	0xbdd30f74	-0.10305682
13	0xbe5883cd	-0.21144028
14	0xbea33c1a	-0.3188179
15	0xbd558f42	-0.052138574
16	0x3e284fea	0.16436735
17	0xbd439087	-0.047745254
18	0x3e2e6e57	0.17034279
19	0x3db177e0	0.086654425
20	0x3f360358	0.7109885
21	0xbda5aeff	-0.080900185
22	0xbe821f86	-0.25414675
23	0x3dcbdf04	0.09954646
24	0xbf103ef0	-0.56346035
25	0xbdb0d293	-0.08633914
26	0xbe09db5d	-0.13462587
27	0xbe192111	-0.1495402
28	0xbe92e0fd	-0.28687277
29	0x3e5cdd9b	0.21568911
30	0xbe50aca5	-0.20378359
31	0xbf4bd0c9	-0.79615456
32	0xbf38c095	-0.72168857
33	0xbe785a71	-0.2425325
34	0x3df229d5	0.11824385
35	0xbdd156b7	-0.10221618
36	0xbf835018	-1.0258818
37	0xbf3adb05	-0.7299045
38	0xbe4095ce	-0.18807146
39	0x3e75c998	0.24002683
40	0x3e568faf	0.20953248
41	0xbce4ae4b	-0.02791514
42	0x3f093372	0.53594124
43	0x3eb55290	0.35414553
44	0x3e7a25dc	0.24428505
45	0x3c1c1990	0.009527579
46	0x3ee7ab99	0.45248106
47	0xbec29b35	-0.3800904
48	0xbf5a0706	-0.85166967
49	0xbe85b862	-0.26117235
50	0xbf01ae06	-0.50656164
51	0xbde5322a	-0.11191209
52	0x3e3dbac5	0.18528278
53	0xbe9b81f8	-0.30372596
54	0x3f197ef5	0.59959346
55	0x3f097c71	0.5370551
56	0x3ea051b8	0.31312346
57	0x3e54ee81	0.20794107
58	0xbe4e6171	-0.20154358
59	0x3dc2a8b0	0.09504831
60	0x3f4e6332	0.8062011
61	0x3f25d077	0.6477122
62	0x3dcf75f5	0.101299204
63	0xbeb1c695	-0.3472182
64	0xbe059597	-0.13045345
65	0x3dd84d1f	0.10561585
66	0xbe97b6ee	-0.29631752
67	0xbec1e495	-0.37869707
68	0xbadce564	-0.0016853032
69	0x3eac2b17	0.33626625
70	0xbe8c940b	-0.27456698
71	0x3e4112ff	0.18854903

net.0.bias f4 [12]
0	0x3e97efbe	0.29675096
1	0xbcaf34bc	-0.02138745
2	0xbe0c6e7f	-0.13714026
3	0x3d4ead5f	0.05045831
4	0xbe0d7991	-0.13815905
5	0xbd9bb288	-0.076024115
6	0xbe014b42	-0.12626365
7	0x3dc6ba33	0.097034834
8	0x3f311e16	0.6918653
9	0xbe4e46a8	-0.2014414
10	0x3e44f80a	0.19235244
11	0x3ee4b388	0.4466822

net.2.weight f4 [1, 12]
0	0x3f1471c9	0.5798612
1	0xbe23cf89	-0.15997137
2	0xbe957ecf	-0.2919831
3	0x3e5b362b	0.21407382
4	0xbf0d4874	-0.5518868
5	0xbf062a95	-0.52408725
6	0xbeed1506	-0.46305102
7	0x3f02ecf3	0.51142806
8	0xbee048c4	-0.43805516
9	0x3eb9d623	0.36296186
10	0x3f1e4734	0.618274
11	0xbedf34f4	-0.43595088
