notebooks/lightning_logs/version_71/checkpoints/epoch=165-step=2323.ckpt (torch, 6267 bytes, 9 tensors)

exp_avg f4 [12, 6]
-1.31683e-05 -0.0010349838 -5.07606e-05 0.0007940647 -0.0002236262 0.00030886455 -0.0002239947 0.0036254867
0.005892783 -0.0016310685 -0.001101103 0.0046080626 -2.5492425e-05 -0.0017447522 -0.0020529276 0.00050516217
0.00018984123 -0.0025699632 4.18413e-05 -0.010254341 0.003585205 -6.807875e-06 0.0043877433 0.0022119454
-8.188655e-06 0.0006206886 -0.0030819706 0.0005111412 -0.00019229438 -0.0036521167 -0.0001742565 -0.000914495
0.0033814001 0.0010993086 0.0010290657 0.0064595607 -2.8448772e-05 -0.0013326448 -0.0022451081 -0.0015330901
-0.0011523118 -0.0011086583 2.2878558e-05 -0.008821828 -0.0032588693 0.0020246264 0.003626975 -0.0005846775
-7.593438e-06 -0.009365658 -0.0033818767 -0.0005862871 0.00034423594 -0.002848146 0.00012579831 0.0041260556
0.0013168604 -0.0007346344 0.0016371211 0.0006516083 0.0002861688 -0.006480669 0.00040171065 -0.0005761133
-0.0006994716 -0.0014712763 -4.1899802e-05 -0.0033145603 -0.0021523042 -2.2186112e-05 -0.00031521101 -0.0027663824
00000000: 6bed 5cb7 4ba8 87ba c7e7 54b8 c828 503a
00000010: 337d 6ab9 19ef a139 1fe0 6ab9 9399 6d3b
00000020: 3f18 c13b 94c9 d5ba e352 90ba 3bff 963b
00000030: 91d8 d5b7 2bb0 e4ba 698a 06bb dc6c 043a
00000040: 1e10 4739 d46c 28bb c17e 2f38 d301 28bc
00000050: c2f5 6a3b 336f e4b6 0fc7 8f3b 49f6 103b
00000060: 0162 09b7 b5b5 223a e3fa 49bb 1bfe 053a
00000070: a1a2 49b9 5a58 6fbb 9fb8 36b9 b8ba 6fba
00000080: 7b9a 5d3b ad16 903a b7e1 863a b9aa d33b
00000090: 46a5 eeb7 24ac aeba aa22 13bb f8f1 c8ba
000000a0: 2b09 97ba 6650 91ba 54eb bf37 6e89 10bc
000000b0: c192 55bb 98af 043b 8bb2 6d3b 0b45 19ba
000000c0: 23cb feb6 6b72 19bc 7aa2 5dbb 10b1 19ba
000000d0: 917a b439 f6a7 3abb bae8 0339 dd33 873b
000000e0: 819a ac3a 7b94 40ba ab94 d63a b1d0 2a3a
000000f0: ed08 9639 cb5b d4bb b19c d239 4f06 17ba
00000100: bf5c 37ba d7d7 c0ba 92bd 2fb8 1839 59bb
00000110: ac0d 0dbb 501c bab7 e842 a5b9 324c 35bb

exp_avg_sq f4 [12, 6]
2.0664136e-07 0.006156861 0.0007844304 3.6364207e-05 4.350914e-05 3.989236e-05 3.6311703e-06 0.03965429
0.0028085874 0.0008465616 0.0007149597 0.0012758861 2.660398e-07 0.0075655896 0.0005973364 0.0002633721
0.00013929582 0.0003178568 2.0314478e-06 0.024512278 0.0013873979 0.00072947703 0.0005244914 0.00075394433
4.851764e-07 0.030288003 0.002330123 0.0007310979 0.0012597616 0.00091252656 5.834173e-06 0.065283954
0.005303382 0.0016185248 0.000990814 0.002434866 5.321868e-07 0.0072609037 0.0008167715 0.00032549692
0.00023794424 0.0006359992 2.0128186e-06 0.010820457 0.0010723545 0.0003961862 0.00026180103 0.0004101211
1.8253583e-06 0.011372383 0.00083673134 0.00033178017 0.00019240602 0.00033180916 6.704462e-08 0.00032035232
4.548496e-05 4.5903813e-05 2.9256209e-05 4.1195857e-05 1.1297756e-06 0.006297699 0.0006355833 0.00022635036
0.00014251906 0.0002733611 6.473181e-07 0.0071013207 0.0011448023 0.00026433615 0.00017760463 0.00041693408
00000000: 25e1 5d34 7ebf c93b 3ca2 4d3a c585 1838
00000010: 957d 3638 1852 2738 08af 7336 896c 223d
00000020: 4710 383b caeb 5d3a 226c 3b3a a23b a73a
00000030: 3bd4 8e34 c4e8 f73b 9196 1c3a 3415 8a39
00000040: f00f 1239 04a6 a639 0254 0836 f9cd c83c
00000050: 59d9 b53a 603a 3f3a 067e 093a 59a4 453a
00000060: 113d 0235 8c1e f83c fab4 183b 26a7 3f3a
00000070: 961e a53a 9f36 6f3a 2ac3 c336 98b3 853d
00000080: fec7 ad3b ae24 d43a 33de 813a 4692 1f3b
00000090: 99db 0e35 e0ec ed3b 9c1c 563a 75a7 aa39
000000a0: ac80 7939 2fb9 263a f613 0736 4948 313c
000000b0: 3f8e 8c3a 36b7 cf39 5742 8939 8605 d739
000000c0: d5fe f435 3b53 3a3c 1758 5b3a c8f2 ad39
000000d0: 99c0 4939 acf6 ad39 2bfa 8f33 f6f4 a739
000000e0: 1bc7 3e38 d888 4038 3b6b f537 b7c9 2c38
000000f0: cba2 9735 ee5c ce3b 469d 263a 7658 6d39
00000100: 2b71 1539 e851 8f39 5cc3 2d35 32b2 e83b
00000110: 310d 963a 9996 8a39 613b 3a39 f297 da39

exp_avg f4 [12]
-0.0005404296 -0.00919279 -0.0010462134 0.0017171756 -0.00033606472 -0.007151523 -0.0011675449 0.0009389406
-0.00031163637 0.005162788 0.011744426 -0.0017195754
00000000: 9eab 0dba 5b9d 16bc 1921 89ba da12 e13a
00000010: d831 b0b9 5357 eabb 4e08 99ba 3d23 763a
00000020: 2063 a3b9 9b2c a93b b16b 403c 6063 e1ba

exp_avg_sq f4 [12]
0.00034804476 0.006116 0.00044808962 0.0034215574 0.00081718125 0.00982643 0.0008963614 0.003390188
0.0030744425 0.00011292291 0.00190288 0.0010902768
00000000: c779 b639 ba68 c83b 92ed ea39 353c 603b
00000010: 1b38 563a 09ff 203c ccf9 6a3a eb2d 5e3b
00000020: 967c 493b 07d1 ec38 0f6a f93a 9ee7 8e3a

exp_avg f4 [1, 12]
-0.0029844753 -0.009461127 0.0005579679 -0.0028489097 0.00041723903 -0.0062593957 0.00021775102 -0.011542691
-0.0127156405 0.011946348 -0.0044827135 0.0004353705
00000000: 3097 43bb d802 1bbc 9844 123a c6b4 3abb
00000010: e0c0 da39 9e1b cdbb 1854 6439 8e1d 3dbc
00000020: 4355 50bc 9dba 433c bae3 92bb 7042 e439

exp_avg_sq f4 [1, 12]
0.010169881 0.11742534 0.071055375 0.057122335 0.016718421 0.036492605 0.00183911 0.015121063
0.023033831 0.0009947869 0.014110392 0.037869785
00000000: 939f 263c b27c f03d 7b85 913d 1cf9 693d
00000010: 12f5 883c 4579 153d 4b0e f13a 56be 773c
00000020: 72b1 bc3c 8263 823a 462f 673c 591d 1b3d

net.0.weight f4 [12, 6]
-0.43399698 0.07047775 -0.15217873 0.027605318 0.4555969 0.03530455 1.0436026 0.71748114
0.18935986 0.20349628 0.16944864 -0.014840883 1.0384111 -0.57163155 -0.17807277 0.018566536
-0.0061473297 0.045256123 0.32137513 0.66039777 0.7442093 -0.14514983 0.11698886 0.08697483
0.8528017 -0.40228578 -0.15557969 0.012536529 -0.01986037 0.04151027 0.84888667 0.62007
0.009532891 -0.08698793 -0.20864224 0.036689468 0.44859383 -0.2299257 -0.030908393 -0.127047
-0.045455836 0.074865244 0.8725817 -0.52816296 0.015632903 0.18454304 0.048525397 0.103000574
0.6259227 -0.43234187 -0.29381585 -0.15679438 0.28792784 -0.1601849 -0.63788795 -0.71200573
-0.3754249 0.009692066 -0.020044042 -0.067018636 -0.059543643 -0.51586425 -0.5412857 0.102107294
-0.25741392 0.010293937 0.6972278 -0.47581935 -0.092819 0.013260108 0.004139208 0.018856145
00000000: da34 debe a356 903d bed4 1bbe 8c24 e23c
00000010: ff43 e93e 819b 103d c594 853f d8ac 373f
00000020: 8de7 413e 5461 503e f283 2d3e 2d27 73bc
00000030: a8ea 843f 7256 12bf b558 36be d918 983c
00000040: 8a6f c9bb 7c5e 393d 488b a43e d40f 293f
00000050: 8084 3e3f 28a2 14be db97 ef3d dc1f b23d
00000060: 3651 5a3f 67f8 cdbe 4850 1fbe 0466 4d3c
00000070: 37b2 a2bc ac06 2a3d a350 593f e8bc 1e3f
00000080: d82f 1c3c ba26 b2bd 50a6 55be b247 163d
00000090: 17ae e53e a571 6bbe 9933 fdbc 9c18 02be
000000a0: e62f 3abd f352 993d 8461 5f3f b035 07bf
000000b0: 9310 803c daf8 3c3e 91c2 463d f7f1 d23d
000000c0: 783c 203f ea5b ddbe 086f 96be b58e 20be
000000d0: 476b 933e 8307 24be a04c 23bf 0246 36bf
000000e0: b137 c0be 79cb 1e3c 6733 a4bc 1141 89bd
000000f0: 09e4 73bd ae0f 04bf b391 0abf a11d d13d
00000100: c2cb 83be e7a7 283c 857d 323f 989e f3be
00000110: e317 bebd ed40 593c 31a2 873b 3478 9a3c

net.0.bias f4 [12]
0.18676311 1.0495405 1.40283 0.8105878 1.0587242 0.74897134 0.5675587 0.22331779
0.3635859 -0.78038436 -0.11700014 1.1117207
00000000: d43e 3f3e 5857 863f ef8f b33f af82 4f3f
00000010: 4684 873f 96bc 3f3f 874b 113f 6bad 643e
00000020: ee27 ba3e 45c7 47bf c59d efbd dd4c 8e3f

net.2.weight f4 [1, 12]
0.076178156 0.71252996 -0.4203248 0.6948126 -0.6464006 0.9750867 -0.56616133 -0.46178654
-0.4386095 -0.63884133 -0.41798657 -0.4831983
00000000: 4b03 9c3d 5d68 363f d034 d7be 3ddf 313f
00000010: 827a 25bf 489f 793f f3ef 10bf 496f ecbe
00000020: 6d91 e0be 1b8b 23bf 5602 d6be c465 f7be
