notebooks/lightning_logs/version_87/checkpoints/epoch=142-step=2001.ckpt (torch, 6267 bytes, 9 tensors)

exp_avg f4 [12, 6]
00000000: beaf 893a f421 013c 5eb5 23bc a401 09bc
00000010: f1b4 dbbb 2589 1a39 7bdf 49ba f09a 31bb
00000020: ca11 51bb 424f 50bb 8cd8 f23b 7b48 1b3a
00000030: b58e 6ab9 bf2d cb3c 7d9a 95ba df41 d7bb
00000040: be3b e63b 3230 32bb 05e0 dbb9 79c1 a83b
00000050: a1bb 253b f2a0 e5bb dd0f 0e3c c1a7 28bb
00000060: 1c7e 173a 9307 133c cb1c 0d3c b5d0 60bc
00000070: b2fb 70bc 8815 4bbb a1fa 30ba a919 30bb
00000080: 0a5f b8bb ced1 0bbc 6023 3f3c 1bc1 09bc
00000090: 84bb 40b9 bcbe 893c ff48 05bb c90c e73b
000000a0: 2248 253c 55b0 35bb 7e4f 58b9 02da d03c
000000b0: e82e 753b 7d1e 83bb eb81 0d3c b83b 7dbb
000000c0: bc2c 2bba fb1b 653b 529c dfbb 3a10 4dbb
000000d0: 54be 3e3c c690 0abc 45b1 503a a1cc f73b
000000e0: 29b4 ce3b 361b 9abc 01f4 bbbc 4e7a 713c
000000f0: 86b5 30ba 4552 cf3b 3030 a8bb 9214 a4bb
00000100: 9df8 843c ff8b 36bc 4312 93b9 666d 943b
00000110: 5231 72ba 1f81 dbba 2a1b 843b b25b 82ba
0.0010504646 0.00788163 -0.009991972 -0.008362208 -0.0067049195 0.00014737675 -0.00077008427 -0.0027100407
-0.0031901472 -0.0031785523 0.0074110683 0.0005923581 -0.00022369142 0.024802087 -0.0011413839 -0.0065691317
0.007026165 -0.0027189371 -0.00041937843 0.005150017 0.0025288837 -0.0070077116 0.008670774 -0.0025734755
0.00057789846 0.008973974 0.008612822 -0.013721635 -0.014708446 -0.0030988175 -0.0006751214 -0.0026870763
-0.005626564 -0.008533908 0.011666149 -0.008407856 -0.00018380402 0.016814582 -0.0020337699 0.0070510847
0.010087999 -0.002772351 -0.00020628978 0.02549458 0.0037411992 -0.004001437 0.008636932 -0.0038640331
-0.0006529798 0.0034959305 -0.0068240548 -0.003129019 0.011642057 -0.008457368 0.00079609855 0.0075622355
0.006308098 -0.018811803 -0.022943499 0.014738632 -0.0006740916 0.006326946 -0.0051326975 -0.005007335
0.01623183 -0.011141776 -0.0002805163 0.004529643 -0.00092389167 -0.0016746855 0.0040315585 -0.000994554

exp_avg_sq f4 [12, 6]
00000000: 750d 6037 cec1 243d 77f2 8b3b 10ce 113b
00000010: 6735 5f3b 488f 853b 6407 9b36 b04d 1c3d
00000020: 58b2 983b fc0c 993b ebf8 633b 484a 4e3b
00000030: 9cd2 db34 9e07 dd3a bd05 d039 6649 d039
00000040: 9c56 c539 f6fa 9b39 b10d 2436 04e7 a73b
00000050: acc2 db3a b4e3 ce3a 7975 b53a 5e71 af3a
00000060: abc5 c836 7917 303c 68b4 113b a626 203b
00000070: aac1 393b adf7 2a3b 58a0 7136 eb1c 183c
00000080: 5954 693b ee09 1c3b 47ca 0e3b 76f4 123b
00000090: cbac 7336 f4f4 933c b8e8 0b3b f4e3 643b
000000a0: ee0a 193b 4cf7 e83a 3410 7f36 e70b 8f3c
000000b0: 6559 383b 4fa5 5f3b 61e5 133b 04e0 823a
000000c0: 9abd 8736 e2ac 373c 2eef 4b3b 4d05 233b
000000d0: 7132 363b 9405 303b 9c16 3737 25a8 293d
000000e0: 6b54 103c 3dbc e33b 9eb7 983b 35a2 f43b
000000f0: ff8f df36 bcac fc3c c558 8e3b e3f1 813b
00000100: 0e53 823b 0fc1 773b a3fc 9435 4a9a 9c3b
00000110: 1c78 7b3a 213e 7b3a 466a 263a 69aa 1b3a
1.3354574e-05 0.04022389 0.0042708474 0.0022248067 0.003405893 0.0040759183 4.6202204e-06 0.038160026
0.004659932 0.0046707373 0.0034785818 0.003147738 4.0945167e-07 0.0016863232 0.00039677127 0.00039727538
0.00037639297 0.00029750884 2.4445874e-06 0.0051239748 0.0016766391 0.0015784414 0.0013844214 0.0013385226
5.983476e-06 0.010747784 0.0022232775 0.0024437099 0.0028344193 0.0026087568 3.600513e-06 0.009284238
0.0035603254 0.002380963 0.0021788047 0.0022423542 3.63104e-06 0.018061139 0.0021348428 0.003492591
0.0023352462 0.0017773896 3.8007393e-06 0.01746173 0.0028129455 0.0034125631 0.002256714 0.0009984975
4.045386e-06 0.011210652 0.0031117904 0.0024874986 0.0027801062 0.0026858794 1.0912914e-05 0.04142012
0.008809189 0.00694993 0.0046605607 0.0074656256 6.6626812e-06 0.030844085 0.0043440782 0.0039656027
0.003977186 0.003780428 1.1100386e-06 0.004779135 0.0009592788 0.0009584148 0.00063482334 0.0005938174

exp_avg f4 [12]
00000000: 44b8 3c3d 3459 0abd 76bf 20bc 8daf 96bc
00000010: a6a4 cf3c 7693 f2bc 9415 04bc 2e3e 14bc
00000020: d79e eabc a405 0f3d be34 f2bc 4895 49bc
0.046074167 -0.033776477 -0.009811273 -0.018394256 0.025347065 -0.02961133 -0.008061785 -0.009048028
-0.028640194 0.03491749 -0.029566165 -0.012303658

exp_avg_sq f4 [12]
00000000: 0e76 d23c ee9f 113c ec7c 4e3a 081a 9a3b
00000010: c197 3c3c 20f8 e23b aae4 e43b 3f97 ef3b
00000020: 3e03 ff3b 78fb ab3c 3a00 523c fdf2 0b3b
0.025691058 0.008888228 0.0007876891 0.00470281 0.01151079 0.0069265515 0.0069852667 0.007311731
0.007782369 0.020993933 0.012817437 0.002135455

exp_avg f4 [1, 12]
00000000: fe4b 053d 2d49 0b3d 5e7e 5a3c b08b e73c
00000010: 752c 303d 1d40 613d 55da 823c 9a51 fa3c
00000020: 537f 523d 415c c03c 1c56 153d b23d 1e3d
0.032543175 0.034005333 0.013335792 0.02826485 0.043011148 0.054992784 0.01597325 0.030556489
0.051390957 0.02348149 0.036459073 0.038633056

exp_avg_sq f4 [1, 12]
00000000: 65c6 ea3d 64b5 dd3c 29ad 5b3a 585e f03c
00000010: df6e b13d f262 713d f387 c13c 497f 9b3c
00000020: 3a20 193d 2623 2b3d d032 323d a2b3 5b3d
0.11463622 0.027064033 0.000837999 0.029341862 0.08663725 0.058932252 0.023624396 0.018981593
0.03738425 0.041781567 0.04350549 0.053638108

net.0.weight f4 [12, 6]
00000000: 886c 543f 3b55 363f 68de 103f 9394 313e
00000010: b359 f3bb 8773 3d3d 1c96 243f e274 9cbe
00000020: 4a32 1ebe 812c 3dbc e78a 123e b09e 9cbd
00000030: 7848 8ebe 2bb8 9bbe 17a6 d5be 7bee 9a3d
00000040: 04db 8cbd 306c 41bd 9a07 363f 5fae 06bf
00000050: 558a 38be 36f7 a3bd 9834 88bd cc26 8ebe
00000060: 298c ae3e 2a86 623f b2b8 39be e5ea ac3e
00000070: 04f8 91be 9690 42be a2ae 833f db38 03bf
00000080: 00fc 943d dd75 1d3e 9a07 06bd 1c20 36b8
00000090: 6a50 913e b878 e7be 7526 c6be 7867 1dbe
000000a0: 3d9e 6f3e f50e 1b3e 1cd7 f63e e713 13bf
000000b0: add2 e8be 987e 313e c61c 60be f93b c03b
000000c0: 3c80 e53d 0eec bfbe ce57 813d b04d 043e
000000d0: 151a 84bd 9259 893d 6ec8 1f3f 6c26 153f
000000e0: 530c 273f 91f9 b1be 9bf5 5a3e 61e7 623d
000000f0: 7bd7 8e3e 7e59 dfbe 9dc9 e5bd 3e3a 7fbd
00000100: 9429 80bd f45b 0d3e d694 843e 3269 f8be
00000110: 5fb7 8abe f1d3 16be 69c8 34be d638 12be
0.82978106 0.712238 0.56589365 0.17341833 -0.0074264645 0.046252754 0.6429155 -0.30557925
-0.15448871 -0.011546255 0.143108 -0.07647455 -0.27789664 -0.30413947 -0.4172828 0.07565018
-0.068777114 -0.047222316 0.7110535 -0.5260982 -0.1802152 -0.08006136 -0.066506565 -0.27763975
0.3409131 0.8848597 -0.18136862 0.3377296 -0.28509533 -0.19000468 1.0287669 -0.5125863
0.07274628 0.15376993 -0.032722093 -4.3422086e-05 0.28381664 -0.4520929 -0.38701215 -0.15371501
0.23400207 0.15142424 0.4821099 -0.57452244 -0.45473233 0.17333448 -0.21885976 0.0058665243
0.112060994 -0.37484783 0.063155755 0.1292026 -0.06450287 0.06706537 0.62415206 0.5826175
0.6525318 -0.34760717 0.21382754 0.05539644 0.27898774 -0.43622965 -0.11220095 -0.062311403
-0.062579304 0.13804609 0.25894803 -0.48517758 -0.27093026 -0.14729287 -0.17654575 -0.14279494

net.0.bias f4 [12]
00000000: 2938 003f 6351 173f 17f3 32be 8ff5 dc3e
00000010: ac64 493f f93a 423f 6d31 2c3e 488f bfbd
00000020: 4125 323f d6c6 5c3e b725 073f c8d3 243f
0.50085694 0.5910856 -0.17475544 0.43156096 0.7866924 0.75871235 0.1681573 -0.093535006
0.69588095 0.21560225 0.52791923 0.6438565

net.2.weight f4 [1, 12]
00000000: 6a8c 313f 73ca 07bf c701 eabe 1683 c1be
00000010: 20ed 1e3f 54fe ddbe d1a7 eabe e52d 18bf
00000020: e790 e9be 2ec1 4f3f 28bd 0dbf 83fa 87be
0.6935488 -0.5304329 -0.4570448 -0.37795323 0.62080574 -0.433581 -0.4583116 -0.5944503
-0.45618364 0.81154144 -0.55366755 -0.26558313
